checkpoints/highD_nn_model.pt (torch, 270359 bytes, 5 tensors)

weight f4 [256, 2]
000000 99 1a 5e 3e df 7a 8b 3e bb 83 b8 3e a5 ea d5 be
       0.21689834 0.2724218 0.36038002 -0.41780582
000010 f8 f2 52 3d 6f e6 ad bd 5f f8 ba 3d a3 8e 55 bf
       0.051501244 -0.08491217 0.09129404 -0.8342077
000020 cd fd b8 be d5 16 38 be 00 e3 e8 bd b0 a7 32 bf
       -0.36131135 -0.1797746 -0.11371422 -0.6978712
000030 98 dc 9f be e3 c1 0b 3e 7b e6 1b 3f a8 03 f4 be
       -0.31222987 0.1364818 0.6089856 -0.4765904
000040 a6 94 b1 3e ff 6b 1b 3d 84 a7 8d 3d dc 9d de 3e
       0.34683722 0.03794479 0.06916717 0.43479812
000050 ca de eb 3d 1e 2d 9a 3e 99 be 24 bf d1 dd e6 3d
       0.11517103 0.30112547 -0.6435333 0.11272777
000060 5f f5 9b bc 5c c9 6e be d0 02 1b 3e 65 7c 8d 3e
       -0.0190379 -0.23319 0.15137792 0.27633968
000070 93 6d 3c bd 4d ae 9a 3e 6c 16 d5 3d 01 65 87 3e
       -0.046002936 0.30211106 0.10404667 0.26444247
000080 0d 31 f7 be 69 f1 f6 be fa 56 e3 be 15 9f 68 3c
       -0.4827961 -0.48231056 -0.44402295 0.014198084
000090 df dc af 3e 8b 68 86 be 64 c0 a0 be 83 42 ba 3d
       0.343482 -0.26251635 -0.31396782 0.09094717
0000a0 de d2 21 bf 2f 61 28 3f a5 74 8d be a8 1d 14 3f
       -0.6321238 0.6577329 -0.27628055 0.5785775
0000b0 4d e7 30 bf da 12 26 bf c4 a7 e2 be 15 e6 d3 be
       -0.69102937 -0.64872515 -0.4426862 -0.41386476
0000c0 5e 1e ae 3e 33 d6 4e 3e 72 97 62 bf 05 41 58 3e
       0.34007543 0.20198898 -0.8851234 0.21118553
0000d0 b4 d1 c1 3e 90 94 42 bf d6 f2 c8 be 66 d2 0d bd
       0.37855303 -0.7600794 -0.3924777 -0.03462448
0000e0 6b dc 13 3e 00 12 58 3e 26 5c 43 3e 6f 42 11 bf
       0.14439552 0.21100616 0.1907812 -0.56741995
0000f0 ee 4e 11 be 54 2e 05 bf ef c6 03 3e 66 3c dc 3e
       -0.14190266 -0.52023816 0.12868856 0.4301483
000100 ba 07 58 bd cb f1 26 3d 7f be 3b bf e8 44 26 3f
       -0.052741744 0.040757935 -0.7333755 0.6494889
000110 51 70 64 be c2 2d aa 3c 20 14 8a 3d 0e 56 c5 be
       -0.2230847 0.020773772 0.0674212 -0.38542217
000120 55 94 03 be f3 b5 88 3e f4 93 b7 be a6 53 00 3f
       -0.12849553 0.26701316 -0.35855067 0.5012764
000130 78 4c ad 3e 78 34 20 bf c9 b7 91 be 09 7a 12 3f
       0.33847404 -0.6258006 -0.2846053 0.5721746
000140 fc ca 5d be 92 f1 60 3e 8b 51 42 3e 93 44 f0 be
       -0.21659464 0.21967152 0.18976419 -0.46927318
000150 7b fc c9 be 81 54 39 3e 34 e5 70 3e a8 e4 cb 3e
       -0.3945044 0.18098642 0.23524934 0.39822888
000160 3d d9 23 be 84 ac 89 3e 72 90 f5 be be 10 95 be
       -0.16000839 0.2688943 -0.47961766 -0.29114336
000170 bd 07 a4 3b 2f 3b 0a bd 3b 1c 1b 3f b6 91 18 bf
       0.0050058053 -0.033747848 0.6058995 -0.5959734
000180 15 64 2e bc 7c b2 84 3e b0 14 e0 be 8a 78 0f bb
       -0.010643979 0.25917423 -0.43765783 -0.0021891915
000190 3d 0e b3 be 48 f9 80 3d 65 d6 b9 be b2 2d 77 3d
       -0.349718 0.062975466 -0.36296383 0.060346313
0001a0 3c 45 a3 3e ef d4 49 bf 0e 10 0d bf 72 a6 91 3c
       0.3188876 -0.78840536 -0.5510262 0.017779563
0001b0 b5 d4 18 3e c9 f0 58 be 9a 02 1c 3e e3 57 6a bf
       0.14924891 -0.21185602 0.15235367 -0.91540354
0001c0 8f 2d ac 3b 93 3f 2c bf bf 2b d9 bb 67 14 cf bd
       0.0052544544 -0.67284507 -0.0066275294 -0.10111313
0001d0 39 2c b5 3d 83 d7 ef 3d 3c 3a 1b bf 8f db c6 3d
       0.088463254 0.117110275 -0.60635734 0.09709846
0001e0 55 3c 10 bf 29 99 77 be e3 14 15 3f d8 f8 d2 be
       -0.5634206 -0.2417952 0.58234996 -0.41205478
0001f0 be 31 80 be 67 3d bd 3e 7f 18 3e be a3 39 b2 3e
       -0.2503795 0.3696091 -0.18564032 0.34809598
000200 67 bb 01 3f bc 95 00 bf af 7a 59 be 84 07 5b 3e
       0.5067658 -0.50228477 -0.21238206 0.21389586
000210 4c 0e 02 3c e5 f0 c3 be 45 f9 d6 be 85 33 8b be
       0.007937979 -0.38269725 -0.41987053 -0.27187744
000220 d3 1c f2 bd cd bd 6e 3d 5a 1e 39 bf 45 98 93 3e
       -0.11821904 0.058286477 -0.7231194 0.2882711
000230 88 2f 3c 3e a3 a4 40 be 5f 8d 4a 3e 3f 43 9e be
       0.18377507 -0.18812804 0.19780491 -0.3091068
000240 b5 ec 6f be 9b 82 9e be 99 8a f1 bb b3 76 41 3e
       -0.2343014 -0.3095902 -0.0073712585 0.18892936
000250 30 d2 20 bf 12 bc 6c 3d b1 0d 32 3e 22 42 41 be
       -0.6282072 0.057796545 0.17388035 -0.18872884
000260 bc 27 ae 3d a5 2d 01 3f ad ed 06 bf 81 20 4b 3d
       0.085036725 0.50460273 -0.52706414 0.049591545
000270 ad 6d 85 be d0 9c 11 be 35 98 9c 3e 66 e8 12 be
       -0.26060238 -0.14219975 0.30584875 -0.14346465
000280 a2 1f 1f bf e3 62 0a 3f 36 e8 43 bd bf aa b5 3e
       -0.6215764 0.5405714 -0.047828875 0.3548183
000290 d5 3f 99 3e 6c d0 33 be 4e 4a 71 bd 11 7e 8f bd
       0.29931512 -0.17559975 -0.058908753 -0.07006467
0002a0 d6 74 ab 3d bb f9 bb bd f8 41 c2 3e be 75 94 be
       0.08371894 -0.09178492 0.37940955 -0.2899608
0002b0 ad 44 81 be 45 f2 a9 be fb 29 d9 be df c2 18 3f
       -0.25247708 -0.3319265 -0.4241484 0.5967235
0002c0 fd 05 bd be 27 c3 2b bf d9 2b 84 be f5 73 9a 3e
       -0.3691863 -0.67094654 -0.25814703 0.30166593
0002d0 b4 4e f0 be 06 b2 2f 3e 22 0d 13 3e a1 37 37 3e
       -0.46935046 0.17157754 0.14360479 0.17892314
0002e0 e2 23 cd 3e 62 9b 9c be a2 28 27 3e 8a 93 11 bd
       0.4006644 -0.30587298 0.16324094 -0.035541095
0002f0 31 ed a6 bc bb 81 82 3e 2d 0e 0e bf ad b6 1d bf
       -0.020376774 0.25489601 -0.5549038 -0.61606866
000300 40 19 e5 3d bb 1f 58 c0 d9 30 6e be f2 d2 00 3f
       0.11186457 -3.3769367 -0.23260821 0.50321877
000310 66 60 d7 be ef f4 11 be 8d eb 29 bf 23 51 26 3f
       -0.42065734 -0.14253591 -0.66375047 0.64967555
000320 db 67 28 bf f9 af 09 3f de 01 f0 bd 79 2a 05 3d
       -0.6578347 0.5378414 -0.11719106 0.03251121
000330 f4 42 3b 3c ba 98 0a 3f 7b 4e ac be a3 e9 25 bf
       0.011429537 0.5413929 -0.33653626 -0.64809626
000340 a0 91 93 3e 3f 8b 01 bf d6 47 0e 3f e5 b4 13 bf
       0.2882204 -0.506031 0.5557836 -0.576979
000350 22 67 a9 be 9a fb b8 be 7f 19 ec be 4a de 65 be
       -0.33086497 -0.36129457 -0.46113202 -0.22448078
000360 b0 7d 2a bd 5e ea a0 3b 5e 2a ba 3e 29 ac 94 be
       -0.04162377 0.0049107512 0.3636045 -0.29037598
000370 3c 30 9c bd a5 56 0f 3e d1 d2 c0 3e 3d 4a 25 bf
       -0.076263875 0.13997896 0.3766084 -0.64566404
000380 87 05 f3 be 50 59 be be a4 7a 09 bf a6 7c 17 3f
       -0.47465155 -0.37177515 -0.5370276 0.59174573
000390 b1 68 10 bd 7d 9e 02 bf 25 3f 78 3e c7 20 43 bd
       -0.03525609 -0.51023084 0.24242838 -0.04763868
0003a0 66 1b 16 bd 0e d6 b0 3c 18 29 f4 be bb f3 0f 3f
       -0.036647223 0.021586444 -0.47687602 0.5623128
0003b0 b1 8b de be dd c4 e5 3e 65 20 10 bf bc d2 32 bf
       -0.4346595 0.44876757 -0.5629943 -0.69852805
0003c0 3f e1 91 be 3d 5b 0a 3f af 56 36 bf bd 47 89 3e
       -0.28492162 0.5404547 -0.7122602 0.26812544
0003d0 8d e7 42 bd 0f 0b 24 bd b3 57 7d 3d f7 c4 bd 3d
       -0.047584105 -0.04004961 0.061851215 0.09266084
0003e0 81 10 2a 3d d9 e3 8b 3e b5 d1 21 bf c6 1a 18 bf
       0.041519646 0.2732227 -0.6321061 -0.59415853
0003f0 2d 4e ec bd 87 9c 32 bd 65 11 ed 3e 18 af d0 be
       -0.11538348 -0.043606307 0.46302333 -0.40758586

bias f4 [256]
000000 64 95 c7 be f8 3a 30 3e 13 d8 b6 3f c4 34 81 3f
       -0.38981164 0.17209995 1.4284691 1.0094228
000010 d3 90 63 be e7 5b 01 bf d4 af ae 3e 62 f6 b1 bf
       -0.22223215 -0.50530857 0.3411852 -1.3903315
000020 75 05 b6 3d e6 42 aa bf 60 20 82 3e 80 de 55 3f
       0.088877596 -1.3301666 0.25415325 0.83542633
000030 38 13 e4 bb b8 bd 8d bf c8 93 12 3f a7 c9 b6 bf
       -0.006960299 -1.1073523 0.57256746 -1.428029
000040 ee dc c9 be 26 ae 2b 3f c1 56 72 bf b3 c2 20 bf
       -0.39426368 0.67062604 -0.94663626 -0.6279709
000050 9e e4 82 3f 4d 96 88 3f 81 6e 15 bf 65 b9 ca bd
       1.0226018 1.0670868 -0.5837174 -0.098986425
000060 7c a7 40 3f 90 fc ef be 60 61 12 bf 24 aa 4b be
       0.7525556 -0.46872377 -0.5717983 -0.19889122
000070 ba 8b 84 bf a5 80 53 3e f9 a5 86 3f 5b b2 a7 bf
       -1.0355141 0.20654543 1.0519401 -1.3101305
000080 53 2c 7b 3f f4 39 e2 3e 03 00 82 3e 4e 71 a7 3e
       0.9811451 0.4418484 0.25390634 0.32703632
000090 de 1e 80 bf a3 3f 7f bf 87 a8 5d bf d8 db 77 3f
       -1.000942 -0.99706477 -0.8658528 0.9681983
0000a0 db b5 69 3f a1 33 ac be 8e 21 ad 3e aa e3 b5 bf
       0.91293114 -0.3363314 0.33814663 -1.4210103
0000b0 ee 31 cb bf 7e d4 c0 be fc 3a 46 3f d1 e9 51 3f
       -1.5874612 -0.3766212 0.77433753 0.819974
0000c0 4b 29 72 3f 7a ba f0 bb c3 d8 44 3e b8 e1 9f 3e
       0.9459426 -0.0073464485 0.19223313 0.31226897
0000d0 00 96 38 bf bb 6e d4 be 9e 3e 27 be 4a c4 e4 be
       -0.7210388 -0.4149073 -0.1633248 -0.44681007
0000e0 f7 bf 04 be 76 bc 88 3f fa 9b 8f bf e1 30 46 3f
       -0.12963854 1.0682514 -1.1219475 0.77418333
0000f0 b5 ee e2 3e 42 e2 88 bf c3 67 aa bf e2 c2 67 3f
       0.44322744 -1.0694048 -1.3312916 0.9053174
000100 29 d8 4c 3f 66 d2 66 3f 83 29 85 be 02 48 0e bf
       0.80017334 0.9016479 -0.26008233 -0.55578625
000110 43 fc 22 bf 9c 3b 30 be 33 98 86 3f 4b a7 8a 3d
       -0.6366617 -0.17210239 1.0515198 0.0677019
000120 48 92 34 bf 43 03 a0 3f 6e 3f 34 3f db b1 9e 3f
       -0.7053571 1.2500995 0.70409286 1.2398027
000130 d0 b5 9f bf ab 2c ac be 83 6e cb be 8c cb 89 3f
       -1.247736 -0.3362783 -0.3973275 1.0765243
000140 d3 8e ba 3e 92 10 95 bf c9 c9 ac bf 2a 22 8e 3f
       0.3643709 -1.1645682 -1.349908 1.1104176
000150 af c6 7b 3f 00 28 a3 3f 8a 1f fd be a2 15 9d bf
       0.9835004 1.2746582 -0.49438125 -1.2272227
000160 9d 06 12 be d2 39 8b 3f 63 4f 34 bf 52 00 36 bf
       -0.14260335 1.087702 -0.70433635 -0.7109424
000170 10 d8 19 3f 5e 31 9b bf f4 10 8b bf eb 34 20 bf
       0.6009531 -1.2124441 -1.0864549 -0.62580746
000180 94 0d bc 3c 1a 08 a5 bf d6 b6 65 3f 24 79 1c 3f
       0.022955693 -1.2893097 0.8973211 0.61122346
000190 c4 65 ba be f8 0b 43 bd 9b bb ae bf ac 80 1f bf
       -0.36405766 -0.047618836 -1.3651003 -0.6230571
0001a0 eb 5a 4f bf 57 0d 7f 3f b2 ff c2 be 24 24 27 bf
       -0.80998105 0.9962973 -0.38085705 -0.6528952
0001b0 55 d6 4f bd c3 fc 84 3f 20 3c d8 be af 97 90 bf
       -0.050741512 1.0389637 -0.42233372 -1.129629
0001c0 7c 86 32 3f e2 3f 9d 3f 03 3b a2 be 84 83 a3 bf
       0.69736457 1.228512 -0.31685647 -1.277451
0001d0 8e 18 52 3f 18 7b 9c bf 0a 9c 47 3f 68 9e 04 be
       0.8206872 -1.2225065 0.7797247 -0.12951052
0001e0 5d 40 69 bf 86 d6 2d 3f 29 10 d0 3f 1a 3d 68 bf
       -0.91113836 0.6790546 1.6254932 -0.90718234
0001f0 21 8d 05 bf 77 f1 d9 bd c2 71 d2 bd 61 32 88 3f
       -0.5216847 -0.10641759 -0.10275604 1.0640374
000200 df c6 9e bf 47 76 41 3f 54 d4 7c 3f 2c d6 8d be
       -1.2404441 0.755711 0.98761487 -0.27702463
000210 dd e5 be be c4 79 b7 bf 1c ae 2e bf 1e 6a cd bc
       -0.37284747 -1.4334035 -0.6823442 -0.025075015
000220 04 c0 aa bf bb 11 6b bf 34 79 2c 3f d4 35 ae bf
       -1.3339849 -0.9182393 0.6737244 -1.3610177
000230 ef 9e 30 3f c1 15 48 bc f0 62 ad 3f c4 b0 8e bf
       0.68992513 -0.012212218 1.3545818 -1.1147695
000240 46 f6 1d be 43 f3 8c 3f 4d 72 5e bf 94 e3 46 3f
       -0.15425977 1.1011738 -0.8689316 0.77691007
000250 f6 df 70 3f 53 4a 90 3f 89 8b 30 3f 8c ca 9b 3f
       0.9409174 1.1272682 0.68962914 1.2171187
000260 42 35 40 bf 8b b1 84 be 6a 7d 0d bf a6 51 84 bf
       -0.75081265 -0.25916705 -0.5526949 -1.0337417
000270 c5 04 9f 3f 69 f1 21 3d 9a 43 a5 3f 0c 21 da be
       1.242333 0.039536867 1.2911255 -0.42603338
000280 12 f5 16 bf 98 94 3f 3f 82 56 a0 bf b1 36 57 be
       -0.589677 0.7483611 -1.25264 -0.21016957
000290 09 85 91 bd c5 84 84 3f 13 09 04 bf fb 75 98 bf
       -0.071054526 1.0353018 -0.51576346 -1.1911005
0002a0 74 33 26 be 81 b5 59 bd 0f 4d 8d 3f a4 80 05 bf
       -0.16230565 -0.05315161 1.1039141 -0.52149415
0002b0 98 69 89 bf 21 63 d8 3e 2f 97 89 bf 67 ea 10 bf
       -1.073535 0.4226313 -1.0749263 -0.5660767
0002c0 77 85 8d 3f c9 a7 86 3f 03 cc 76 3f ce 09 38 3f
       1.1056355 1.0519954 0.9640505 0.7188996
0002d0 1e b4 b4 3e 13 4a 6e 3f 5b 6a c3 3c 28 c9 52 bf
       0.35293669 0.9308178 0.023854425 -0.8233819
0002e0 4c d9 47 3f 11 94 5a 3f f5 3e 03 bf 04 2a 88 bf
       0.78065944 0.8538218 -0.5126794 -1.0637822
0002f0 ac bf 3f be 90 01 83 bf b3 1d 0d bf 43 4a 2e bd
       -0.18725461 -1.0234852 -0.5512344 -0.04255129
000300 b3 77 5b bd 40 18 a6 3f 4d 06 81 bf 54 a3 65 3f
       -0.05358095 1.297615 -1.0080048 0.89702344
000310 25 f9 20 be 83 b3 56 bf a8 e1 21 3f a3 b9 74 3f
       -0.15720041 -0.83867663 0.6323495 0.9559576
000320 22 99 90 3f 52 06 a1 bf ce 3f 90 3f 89 1d 3b bd
       1.1296732 -1.2580054 1.1269472 -0.045682464
000330 5a 2a 90 bf ac 0a 54 3f 36 fd 9c bf 46 0f 10 3f
       -1.1262925 0.82828784 -1.2264774 0.56273305
000340 e8 fa 96 3f f6 42 08 3d 19 47 1c 3f bb 93 89 bf
       1.179532 0.033266984 0.61045986 -1.0748209
000350 a4 81 9a 3d 35 a3 b3 be 0c a8 17 bf 7e 12 58 3f
       0.07544258 -0.35085455 -0.59240794 0.84403217
000360 94 7c 0d bf b6 f5 e1 3e 0e 83 2b 3f 50 7d 6c 3e
       -0.55268216 0.44132775 0.6699685 0.23094678
000370 9b 5d b6 3e 41 82 c5 be 6c 95 88 3f 31 b0 92 bf
       0.3561829 -0.38575938 1.06706 -1.1460019
000380 0f 3a 5b 3f 38 40 b0 be 55 f1 a0 bf cc 6a 5b 3e
       0.85635465 -0.34423995 -1.2573649 0.21427459
000390 87 a1 a3 3f 33 bc 8b be 8b ef 23 3f b3 93 50 3e
       1.2783669 -0.27292022 0.6403739 0.20368843
0003a0 36 fe 8e 3f 76 7b 59 be 2e fd 9c bf 1b e8 61 bf
       1.1171329 -0.21238503 -1.2264764 -0.8824479
0003b0 d8 79 a3 bf 13 61 73 bf 94 46 87 3f 4c 40 4b be
       -1.2771559 -0.9507 1.0568414 -0.19848746
0003c0 15 f3 d3 be 6b 20 c1 3e 3e 63 41 bf bd 14 83 3f
       -0.41396394 0.37720045 -0.75542057 1.0240704
0003d0 e3 a0 88 bf 9c d6 06 be 1a 54 a2 be 80 23 34 bf
       -1.0674099 -0.13167804 -0.3170479 -0.7036667
0003e0 3f 92 83 3f 8c ea 78 3f 05 71 e0 bd 9e ea 95 be
       1.0279006 0.9723289 -0.10959057 -0.2928056
0003f0 f3 79 85 bf a6 ca 8f bf d7 ce 27 3f 6a ac 87 3e
       -1.0427841 -1.1233718 0.6554999 0.2649873

weight f4 [256, 256]
000000 f0 af 91 bd 50 44 6c 3b f2 27 46 bc 27 b2 35 39
       -0.071136355 0.003605146 -0.012094485 0.00017327872
000010 b4 25 11 bd 46 14 37 3d 60 d3 a0 bd 20 a1 55 3c
       -0.035436347 0.04469707 -0.078528166 0.0130389035
000020 80 bb 75 bd b1 cc ef bc 87 17 50 bd d5 99 69 bd
       -0.059993267 -0.02927241 -0.050803687 -0.05703147
000030 98 7d 51 bc 7f 74 36 bd cd 6e 16 bc 8a 28 36 bd
       -0.012786292 -0.044544693 -0.00918169 -0.044472255
000040 b6 8e 67 bd 3a 48 2a bd 8a d5 5f bd ae 6f 62 3d
       -0.056532584 -0.041572787 -0.054647006 0.055282287
000050 5e 83 90 3c ba ee a5 bd d0 d6 9f bb 88 14 77 bd
       0.017640766 -0.08102174 -0.0048779026 -0.060322315
000060 39 59 d3 bc f0 c4 1b 3d f3 5c 75 bd a2 a1 16 bd
       -0.02579938 0.03802961 -0.059903096 -0.03677524
000070 70 6f 2c bd 5b 8a 24 bc e0 d4 c1 3c 07 fb 54 bc
       -0.042098463 -0.010042752 0.023661077 -0.012999303
000080 9f d9 ba bc b0 27 84 3c 46 30 79 bd cc af 4c bd
       -0.022808848 0.016132206 -0.060837053 -0.04997234
000090 15 d7 75 bd 25 45 39 bc 40 00 43 bc 87 0a f1 bc
       -0.06001957 -0.011307989 -0.011901915 -0.029423965
0000a0 dd 06 71 3c 96 9a 3a 3c 35 e6 3e bd f5 58 0d 3d
       0.014711109 0.011389395 -0.04660626 0.034508664
0000b0 2b 4c 53 3d 98 fb c0 bc 34 35 95 bd 15 b7 20 3c
       0.05158631 -0.02355747 -0.07285538 0.009809275
0000c0 2e 8a 22 3a d4 5e f8 bc 59 ed 25 bd 1b f7 dc bc
       0.00062004 -0.030318655 -0.040509555 -0.026973298
0000d0 8b 59 42 3d 70 49 62 3d 9f b4 73 bd 2e 21 56 bd
       0.047448676 0.055245817 -0.059498426 -0.052277736
0000e0 89 1c cf 3c 9c b1 f2 3a a1 c0 a3 3b e2 7f 12 bd
       0.025282161 0.0018516066 0.0049973284 -0.03576649
0000f0 a0 d9 33 3b 10 6b dc 3c b4 27 5f 3d 27 02 86 3c
       0.0027442947 0.02690652 0.054481223 0.016358448
000100 44 ab 1c 3d cb 0a 5b bc a8 ae 9b 3c 20 61 05 bb
       0.03824927 -0.013369272 0.019004181 -0.002035208
000110 40 55 8d bc 3f d1 47 3c 2b 34 dc 3c 05 aa b2 3b
       -0.017252564 0.012195884 0.026880344 0.005452397
000120 c0 fe a3 bb ee 3d bb 3c e0 79 a0 bc a3 00 a2 3b
       -0.005004734 0.022856679 -0.019589365 0.0049439236
000130 89 1b 95 3c 6f 6c 26 3c 6c b4 74 3d 72 7f 5d bd
       0.018201606 0.0101576885 0.059742376 -0.05407662
000140 c2 26 01 3d 41 de 4a 3d dc ec 93 bc 32 c1 4e bd
       0.031531103 0.049528364 -0.01805728 -0.050477214
000150 82 5c 1b 3b 6b dc ae bc c2 23 2b 3d 82 e5 bb bc
       0.0023706262 -0.021345338 0.04178215 -0.022936586
000160 3c 54 85 3c 39 b0 10 bc 49 93 f2 bc 84 f8 6f bb
       0.016275518 -0.008831077 -0.029611247 -0.0036616633
000170 5e 0f e9 bc 0a 32 21 bd c6 46 98 bc a8 79 c8 3c
       -0.02844971 -0.03935436 -0.018588435 0.024472073
000180 55 e9 13 3d eb d0 ad 3c bd 75 8a bd 75 f3 a9 3c
       0.036111195 0.021217784 -0.06760738 0.020745972
000190 30 dc 80 bd f1 a9 83 bd 05 82 d0 bb e8 b1 d3 bc
       -0.062919974 -0.06428898 -0.006363156 -0.025841668
0001a0 7c 0d 13 bd b7 12 32 bd 80 81 91 ba 44 34 5d 3d
       -0.03590153 -0.04347488 -0.0011101216 0.054004923
0001b0 5d 05 2b 3d 6d 81 30 bc 71 86 01 bd e0 01 b5 3b
       0.04175316 -0.010773045 -0.031622354 0.005523905
0001c0 d8 70 ab 3c 60 77 50 3c 14 1d 38 3d fa b8 82 bd
       0.020927832 0.012723774 0.044949606 -0.06382938
0001d0 89 a3 de 3c e5 ee 2b bd 44 b0 cd 3c 58 46 35 bc
       0.027177589 -0.041975874 0.025108464 -0.011064135
0001e0 ea 18 68 bd 36 f9 4b bd bd 2d 8d bd 8a b0 b3 3b
       -0.056664385 -0.049798213 -0.068934895 0.0054836916
0001f0 79 73 78 3c de 07 23 bd 58 1d 01 3d f8 d5 66 bd
       0.01516425 -0.039802425 0.031522125 -0.0563564
000200 6c a2 a7 3c e4 f6 dc 3c c5 0c 00 bd cb 2c 56 bd
       0.020463191 0.026973195 -0.031262178 -0.05228881
000210 e8 33 a8 bd d8 90 39 bd 80 30 79 3b 68 79 25 bc
       -0.08213025 -0.04530415 0.0038023293 -0.010099746
000220 ae ac 2c bd a8 81 98 bc a5 9c 60 bd 82 07 27 3d
       -0.042156868 -0.018616512 -0.054836888 0.040778644
000230 6a 0e 16 3d a4 ae 70 bd 83 ea 22 3d 2e c4 07 bd
       0.03663484 -0.0587603 0.03977443 -0.033146076
000240 ac ea c8 bc d7 ea 60 3c b8 39 61 3d f8 98 39 bc
       -0.024525963 0.013727865 0.054986686 -0.0113279745
000250 c9 72 e6 bb 13 d6 0b bd db 2e b3 3c ee c6 9e b9
       -0.0070327264 -0.034139704 0.021872928 -0.00030284323
000260 e4 6e 7b bd da d8 c6 bc d2 1d 92 bc 15 90 a1 bc
       -0.06138505 -0.024273325 -0.017836485 -0.019722024
000270 83 13 43 bd 4f 7f 38 bd 73 47 79 bd 03 eb 6e bc
       -0.04762603 -0.045043286 -0.060859155 -0.014582398
000280 6a 40 71 bd fd 16 d0 bc 68 ff 2c bd 34 fd 5f 3d
       -0.05889932 -0.025401587 -0.042235762 0.054684833
000290 a8 ba d5 bc c1 33 29 3c 40 39 1d 3b ce c1 35 3d
       -0.026089981 0.0103272805 0.0023990422 0.04437428
0002a0 d8 c1 13 bd 8d 8d 06 3d dd 05 0c bc b0 7e 5b 3c
       -0.036073536 0.032849837 -0.00854632 0.013396904
0002b0 0a 2a 55 3b 0a 9d ff 3c bf 9a 44 3d ec e4 d2 bc
       0.0032526278 0.031202812 0.04799914 -0.025743924
0002c0 2c 6e df 3c 9e 37 a4 bb c1 59 ac bc 7d 44 a7 bc
       0.027274214 -0.005011513 -0.021038892 -0.0204184
0002d0 71 4c da bc be 4e 86 bd 40 4b 4c bb 13 6b 33 bd
       -0.026647778 -0.06557988 -0.0031172782 -0.043803286
0002e0 b0 c3 12 3d 03 25 40 bd 24 29 94 bd 94 bd 2f bd
       0.035831153 -0.046910297 -0.072344095 -0.042905405
0002f0 17 1e ab 3b 54 01 04 bd 8a ac 31 3d d4 9f 93 3c
       0.005222093 -0.03222783 0.043377437 0.018020548
000300 c8 03 5f bd da 41 e1 bc 5c 1c 77 bd 61 4c 87 bd
       -0.054446965 -0.02749722 -0.06032978 -0.06606365
000310 78 44 71 3d 3a 43 1a bd 44 e0 d0 bc 01 b2 e2 3b
       0.058903188 -0.03766177 -0.025497563 0.0069181924
000320 71 d1 96 bc ba f9 51 bd 82 02 9e bd 9c 45 08 3d
       -0.018410416 -0.05126355 -0.07715322 0.03326951
000330 18 4d 06 3c a1 75 3a bd 80 8a 41 bd 1f 56 27 bd
       0.0081970915 -0.045522336 -0.047251225 -0.040853616
000340 dd 67 85 bd d5 ab 84 bc 00 8b 30 bd 17 59 04 bd
       -0.06513951 -0.016195217 -0.04310131 -0.032311525
000350 2c 75 d0 3c 63 0c 29 3d d8 f4 96 bc e5 ad 97 bb
       0.025446497 0.04127158 -0.018427297 -0.004628884
000360 28 94 07 3d 92 85 51 3d b6 e7 07 3d db e9 85 3c
       0.033100277 0.051152773 0.03317996 0.016346863
000370 dc fb 43 bd d4 f6 e0 3c 00 89 34 3d 7f 8a 21 3c
       -0.047847614 0.027461447 0.044075966 0.00985968
000380 32 19 06 bd de 85 2a 3d 41 83 74 bd 48 7b e1 b9
       -0.032738872 0.041631572 -0.059695486 -0.00043007196
000390 fe 5b 75 bc c8 ee 94 3c 19 bc ad bc 2f e9 b8 3c
       -0.014975546 0.018180266 -0.021207856 0.022572128
0003a0 ed 85 11 3d 4c 45 ad bb 77 04 94 ba e7 10 41 3d
       0.035528112 -0.005287802 -0.0011292835 0.04713526
0003b0 21 5b 92 3b fd 19 0d 3c 94 8b 38 3d 84 0e 8c 3c
       0.00446643 0.008612153 0.045054987 0.017096765
0003c0 5b 3d 4f 3d bd 41 2c 3c 55 60 17 3d 9d 92 22 3d
       0.050595623 0.01051372 0.036957104 0.039690603
0003d0 89 ed 52 bd 98 ae 78 bc 6c 70 d9 bc 36 25 0b bc
       -0.051496062 -0.015178345 -0.026542865 -0.0084927585
0003e0 66 f4 9f bd fa c4 3a bd 98 96 52 bc b9 41 ec bb
       -0.07810287 -0.045598008 -0.012853287 -0.007209983
0003f0 d8 1b 88 bd 2b 70 9d bc 84 7e 95 bd 9a 9b 27 3d
       -0.06645936 -0.019218525 -0.072995216 0.040919878

bias f4 [256]
000000 10 a8 d4 3b 53 6d 61 bd 8f 5e 24 bc b0 f2 e7 3c
       0.006489761 -0.0550359 -0.01003231 0.028313965
000010 76 e2 17 ba c6 59 cb bd 6c c8 6a 3d c6 b3 05 3d
       -0.0005793938 -0.09929232 0.057320043 0.03264215
000020 55 4e a0 be 08 7b 60 bd 3c ef f0 3c ee 29 55 be
       -0.31309763 -0.05480483 0.02941095 -0.20816776
000030 37 e0 0c 3d ac 32 4e bd 61 23 89 3d a2 a1 75 bd
       0.034393515 -0.050341293 0.06696201 -0.0599686
000040 d9 99 92 bb d7 07 d2 bd 9c d5 ca 3c 3a 7b 9c 3c
       -0.0044739065 -0.102554016 0.02476006 0.019101728
000050 e6 b4 5d 3d ee cc c1 3d 39 33 56 be e5 7c 70 bc
       0.054127596 0.09462915 -0.20917977 -0.014678215
000060 90 a7 13 3d f2 64 44 3d c1 52 91 bc 06 af 2a 3e
       0.036048472 0.04794783 -0.017739655 0.16668329
000070 79 e7 22 3b 0e ec 07 3d 93 95 8b be 9e 52 81 bd
       0.0024857207 0.033184104 -0.27262554 -0.06314586
000080 86 1b 6b be c9 1b e0 bc 66 38 7f 3c 4b fd 2d bd
       -0.22959718 -0.027356999 0.015577411 -0.042477887
000090 1e 58 d3 bd e1 8c 19 bd a3 a1 d7 3b e6 fe aa 3b
       -0.103195414 -0.03748787 0.006580548 0.0052183745
0000a0 08 13 5b bd 8e 7f a1 bb 7d 4f df 3c 5e f3 32 3d
       -0.053484946 -0.004928536 0.027259583 0.043689124
0000b0 50 35 95 bd 19 8d cf bc f4 40 af bc cb 16 08 bd
       -0.07285559 -0.025335835 -0.021393277 -0.033224862
0000c0 61 18 38 bd fd 30 4e bd 40 f1 2f 3b 4a 26 90 3d
       -0.044945125 -0.050339688 0.0026846677 0.07038553
0000d0 a6 92 d7 3c cb 36 36 bb fa a7 49 3c 9c 18 97 bd
       0.026315045 -0.0027803655 0.012308115 -0.07377741
0000e0 c3 8b f3 bc c8 57 c1 be 6f f8 75 bd 9f 7b 06 3e
       -0.02972973 -0.37762284 -0.060051378 0.13133095
0000f0 0a 5f 98 bd 15 e5 ce 3d 4e 4d 86 bd e8 d5 eb 3a
       -0.07440002 0.10102288 -0.065577134 0.0017992826
000100 88 a6 e8 3c 2c c0 0f 3d 78 49 98 3c 63 3b 3a be
       0.02839972 0.03509538 0.01858972 -0.18186717
000110 91 34 b7 3a c0 66 16 bd a1 12 4b 3d 99 c5 f0 bc
       0.0013977458 -0.036719084 0.049578313 -0.029391097
000120 8e 6a f2 bc d9 30 1f 3d d4 3e 70 3d 1e 0f 85 bd
       -0.029591825 0.038864944 0.058653668 -0.06497024
000130 ff ba 06 3d 65 36 e8 bc b8 05 7a bd e1 90 10 bc
       0.032893177 -0.02834625 -0.06104061 -0.008823604
000140 e8 ad 6b be 2c 89 93 3d d5 2e 94 bd c7 ab 61 be
       -0.23015559 0.07203898 -0.07235495 -0.22038184
000150 48 fe 69 bd 78 03 5d bd a3 50 2c 3d 2f ef d8 3c
       -0.057127267 -0.053958386 0.04206909 0.02648124
000160 f1 a9 d8 3a 08 de ce bd eb 5d 1d bd 71 db 84 bd
       0.0016530139 -0.10100943 -0.038419645 -0.064871676
000170 d8 9c 01 bd 3c 24 b0 bd cd 85 0a 3c b3 da 96 3a
       -0.03164372 -0.08600661 0.008454752 0.0011509269
000180 b6 55 00 bd ce 37 56 3c 7a 27 dc bc d5 cb e4 bd
       -0.03133174 0.013074828 -0.026874293 -0.111716904
000190 f7 44 c2 be 01 2f 2c be c6 c7 9f be 51 22 04 bb
       -0.3794324 -0.16814806 -0.31207103 -0.0020162056
0001a0 c2 f8 a8 bc 10 8e 8c bd 44 83 4b bd 4b b0 33 be
       -0.02062643 -0.06863034 -0.04968573 -0.17547719
0001b0 31 32 67 bd 5d 95 e4 3d a5 18 2a be 4a dc 94 bd
       -0.05644435 0.11161301 -0.16610964 -0.07268579
0001c0 d0 61 88 3d d5 6d bf 3d 17 17 01 3d c1 2f 8e bd
       0.06659281 0.09347121 0.03151616 -0.06942702
0001d0 59 2d 89 bd 75 9b 25 3d 48 14 a2 bd de a7 e4 bc
       -0.066981025 0.04043146 -0.079140246 -0.027912077
0001e0 a8 70 07 3c e9 9f d5 ba 4c 22 8f 3d e0 1b 71 be
       0.008266605 -0.0016298267 0.069889635 -0.2354579
0001f0 d6 28 6f be be 4a 16 bb 43 d4 0f 3e d3 1d 16 3b
       -0.23355421 -0.0022932733 0.14045815 0.002290596
000200 2f fa 20 3d 05 79 f6 bd c6 57 b0 3c 90 26 1f 3e
       0.039301094 -0.120348014 0.021526229 0.15542054
000210 2c 85 50 bd 03 67 5d bd c5 e5 b7 bc c0 3c bb bc
       -0.050908253 -0.054053318 -0.02244843 -0.022856116
000220 3f fe 9e bd ec a1 10 3d cd b8 1d bd 56 9e dd 3d
       -0.07763337 0.03531067 -0.038506318 0.10821216
000230 f1 77 3f bc 83 0f 47 be 62 e2 74 3c 1c 71 f5 3c
       -0.011686311 -0.19439511 0.014946552 0.029961161
000240 73 93 31 3d 91 72 5a 3d 5d 7c 85 3d 0b 0f 3d 3d
       0.04335351 0.053331915 0.06517861 0.046156924
000250 ee f7 bc 3e c6 94 f3 bd bb 46 55 3e 4e ba 05 bd
       0.36907905 -0.11893611 0.20827763 -0.032648377
000260 f8 bd 7c be f9 3e 5f bd 06 63 a9 ba 69 23 fe be
       -0.24681842 -0.054503415 -0.0012923188 -0.4963639
000270 a7 0a 5d bd 01 3f 5e bd df 0d 3a 3d 24 cb 1b 3e
       -0.053965237 -0.054259304 0.045423385 0.15214211
000280 64 d0 b8 3e 44 b2 d3 bd 82 5d 30 bd 3a d3 2f 3e
       0.3609649 -0.10336736 -0.043057926 0.1717042
000290 d7 05 c0 be fa 39 8e bd a3 98 f5 bc 57 ae c2 bc
       -0.37504455 -0.06944652 -0.02998001 -0.023764772
0002a0 38 1e 2f bd f2 c6 5c bd a3 4f a9 3d 2e 3f 1b be
       -0.04275343 -0.053900667 0.082671426 -0.1516082
0002b0 40 38 24 bd 1f c8 0f 3d da 92 25 3d 69 fb 2b be
       -0.040092707 0.03510296 0.04042325 -0.16795124
0002c0 18 eb 17 3e d8 4d 1b be 6e 00 05 bc 44 c4 47 3d
       0.14835775 -0.15166414 -0.008117778 0.048771158
0002d0 d9 20 51 bd 43 e1 8f 3d 87 a6 4e bd 65 78 cd 3b
       -0.051056717 0.07025387 -0.05045178 0.0062704557
0002e0 a1 43 4e 3d b8 c6 9a 3d bd e0 9b be db 80 6b 3c
       0.050357465 0.07557434 -0.304449 0.014373983
0002f0 a8 2e 2d 3c 8f 2c b3 be 74 23 97 3d 00 d1 66 bd
       0.010570206 -0.34994933 0.07379809 -0.05635166
000300 e3 46 01 bb f8 ed 0a bc a4 c2 39 3d 60 93 28 bd
       -0.001972609 -0.008479588 0.04535164 -0.041156173
000310 b6 65 c3 bd 63 e3 5d bd 82 49 ff bd c3 d5 e7 bc
       -0.09540884 -0.05417193 -0.124651924 -0.028300172
000320 37 3f 32 ba 25 06 e7 3c af 3b 5b be 5b c5 07 3e
       -0.0006799581 0.028201172 -0.21409486 0.13258879
000330 b9 c2 aa bd 16 f6 8a bd 87 85 60 bd c1 3a 19 bd
       -0.08337922 -0.067852184 -0.05481484 -0.037409548
000340 e4 ae 82 bd bc fd c6 3d 0d f9 3f bd 2c ca a2 bd
       -0.06381014 0.09716365 -0.046868373 -0.079487175
000350 b6 fe bd 3c f9 03 0e bd 50 4c 60 3d 6d 18 70 3d
       0.023192745 -0.034671757 0.054760277 0.058617044
000360 50 a3 c3 bc 7e 64 4d bd 28 33 f3 bc c2 39 73 bd
       -0.023881584 -0.050144665 -0.02968748 -0.059381254
000370 fc fe 64 3e a2 51 61 3c 3b fc 65 be e6 c6 e2 3d
       0.22362894 0.013752373 -0.224595 0.11073093
000380 0e 8f 82 3c 25 10 ad be fe 6d b6 3e 55 f4 bb 3c
       0.015937354 -0.3380138 0.35630792 0.022943655
000390 04 60 e2 ba 74 88 98 3c fa 5b 5c 3e 7b b5 44 bd
       -0.0017271047 0.018619753 0.21519461 -0.048024636
0003a0 41 44 11 be 01 e4 86 be 75 8b c2 bc 4b 5e d7 3c
       -0.14186193 -0.26345828 -0.023748139 0.02629008
0003b0 47 c2 3d bd 00 58 33 3a f2 10 13 3b d2 ed 37 bd
       -0.046327855 0.0006841421 0.002244052 -0.044904537
0003c0 d2 ed 51 bd af 12 83 be 89 94 54 bd 90 f6 38 bd
       -0.051252194 -0.25600192 -0.051899467 -0.045157015
0003d0 1e c3 91 bc 8d 64 65 bd 66 ce 19 bd a3 56 cd 3c
       -0.017793234 -0.056004096 -0.037550353 0.025065726
0003e0 ec e5 eb bd 95 17 cb 3c 91 fb 33 be 5b 45 2d 3c
       -0.115184635 0.024791518 -0.17576434 0.010575618
0003f0 6f 78 81 bd a5 7f 5e bf aa 31 08 3e c9 a0 7a bd
       -0.06321799 -0.8691352 0.13300195 -0.061188493

weight f4 [1, 256]
000000 10 1e 54 3d 75 e1 80 3c 5e f5 90 bc 6b 28 a0 bc
       0.051786482 0.015732506 -0.017695125 -0.019550523
000010 3b 7f 2d bd 20 1f c2 bc b5 70 22 3b f0 f0 bf 3d
       -0.042357665 -0.023696482 0.0024786417 0.09372127
000020 d5 93 95 3d dc a1 1f bd 2e b1 0a bd 98 e4 1d 3d
       0.07303587 -0.03897272 -0.033860378 0.038548082
000030 57 32 99 3c c7 13 de 3a 78 07 c9 ba 88 f1 6f bc
       0.018700762 0.001694315 -0.0015337309 -0.014644988
000040 b6 49 0d 3d 64 a3 14 3c 43 ef 88 bc e1 32 9a bc
       0.034494124 0.0090721585 -0.016715651 -0.01882309
000050 e0 10 08 ba 06 31 ac bb 34 e7 4d 3d 4a 2c 60 bc
       -0.0005190503 -0.0052548675 0.05026932 -0.013682434
000060 5c dd 06 3d 00 65 f9 b9 4e 47 e9 bd e8 b6 be bd
       0.03292595 -0.00047568232 -0.113905534 -0.0931223
000070 da bf 1f bd 08 a7 77 3d 5d d9 58 3b 33 82 41 3d
       -0.039001323 0.060462028 0.0033088543 0.04724331
000080 00 08 26 bc 2a 45 3d 3c fe 69 c2 3c 8a 00 28 bd
       -0.010133743 0.0115521345 0.023732182 -0.04101614
000090 77 7c 89 3c 85 0e 46 3d 90 25 f8 bc 19 33 15 3d
       0.016782982 0.04835369 -0.030291349 0.036425684
0000a0 1f f2 a8 3b 48 98 00 ba 9d 3c cb 3c 3b 15 f5 3c
       0.005155816 -0.0004905504 0.024809176 0.02991735
0000b0 38 b0 e3 3c b7 61 a5 bc 10 1b ee bb 0f 1e a2 3c
       0.027793989 -0.020188196 -0.0072664097 0.019789724
0000c0 dc d7 3b 3c 44 56 2a 3c 9c a2 16 3d 18 a6 bf ba
       0.011465039 0.010396544 0.03677617 -0.0014621643
0000d0 36 f6 69 3b 6f a8 96 bd 1d 4f eb bc 6c e9 47 bc
       0.0035699732 -0.07356345 -0.028724248 -0.012201648
0000e0 ff 52 8f 3b 81 a2 b5 3b aa 56 36 bc a5 93 81 bc
       0.0043739076 0.0055430536 -0.011129061 -0.015817473
0000f0 bb c4 de bb d9 b6 d5 bc be 6c 7c bc fb 88 dc bc
       -0.0067983544 -0.026088165 -0.0154067855 -0.026920786
000100 02 4b e8 ba 9f 51 bc bc 50 09 09 be c6 0e 0a bd
       -0.0017722549 -0.022988139 -0.13382459 -0.033705495
000110 6c a2 94 bb 48 11 f1 bc b0 21 24 bc 60 45 b5 3c
       -0.0045359638 -0.029427186 -0.010017797 0.022127807
000120 86 d4 d0 3c a8 ec 32 3b 7f 29 93 be 46 a5 b2 3c
       0.025491964 0.0027301703 -0.28742597 0.021807324
000130 1e 1c c1 3c e2 33 83 3b 0e 35 1c 3d 41 ab b9 bd
       0.023572978 0.0040039876 0.038136534 -0.09065867
000140 04 64 75 3c b8 0b 17 3d 41 68 94 3c df 1d 7f 3c
       0.014977459 0.03687641 0.018116118 0.015571087
000150 5f 93 2f 3c 48 57 26 3c 66 64 a5 bc 64 32 36 3c
       0.010716288 0.010152645 -0.020189475 0.0111204125
000160 77 a2 00 bc ff 1d 62 3d 6d 9b e0 bc 5d 0d 1d 3c
       -0.007851235 0.055204388 -0.027417863 0.009585706
000170 14 71 b5 3b da 77 82 3c 77 5b db bc 2a a2 36 3d
       0.0055371616 0.01592629 -0.026777012 0.044588245
000180 62 6f c7 3c 0f eb a9 3c b5 34 b1 bc e4 3e 8d bc
       0.024345104 0.020741967 -0.021631578 -0.017241903
000190 48 55 31 3d 6a d5 b8 bc 6f 6d 13 3e 15 85 f2 bb
       0.04329422 -0.022562701 0.14397214 -0.0074011185
0001a0 a6 d0 08 3d e3 ad 98 3c fd 0e 87 3c 7d 62 57 3d
       0.033402108 0.018637603 0.01648664 0.05258416
0001b0 48 26 55 3d 6d 70 35 3e 88 48 64 3d 0b e9 29 ba
       0.05203846 0.17718668 0.055733234 -0.00064815645
0001c0 0c eb a8 bc 82 6a 86 bd ea 76 08 b8 da bd 42 bc
       -0.020619892 -0.065632835 -3.2535674e-05 -0.011886084
0001d0 d6 07 88 bc 23 eb 15 be 2f c0 82 3c 81 cb 61 3c
       -0.016605299 -0.14640479 0.01596078 0.013781429
0001e0 a8 42 06 bd 2f c6 38 bc 22 ad 1b 3d f2 cd cc 3c
       -0.032778412 -0.011277719 0.03800691 0.025000546
0001f0 b5 0d 3f 3a 6c 52 7c 3b cb 62 0e 3d 1f f5 33 3d
       0.0007288114 0.0038501276 0.034762185 0.043934938
000200 1d e2 45 bc d6 a7 37 3b 18 ce 53 bd ba 29 c2 3b
       -0.012077835 0.0028023622 -0.05171022 0.0059253844
000210 2a c4 2c 3d 51 b2 fd bc 8e 96 ff 3a 9f 06 53 bc
       0.042179264 -0.030968817 0.0019499825 -0.012879997
000220 59 d2 a1 ba 8a ed 08 bc d4 e6 0a 3d f3 fe ae bc
       -0.0012346014 -0.008357415 0.03391154 -0.021361804
000230 3b d7 31 bc e4 30 31 bb 85 6b 60 bb 74 df d9 bb
       -0.010854538 -0.0027037198 -0.0034243774 -0.006648952
000240 11 1f 4b 3d 4d 0f d9 3c 87 f5 4e 3c 9d f0 52 3c
       0.049590174 0.026496554 0.0126317805 0.0128747495
000250 3f 89 46 bd 91 1a bd bb 29 9e 93 bd 18 df 6b 3d
       -0.04847073 -0.005770989 -0.07207901 0.057585806
000260 5b 15 87 bb 96 a2 6f bc b4 0d fd bc 84 a0 07 3e
       -0.004122419 -0.014626166 -0.030890323 0.13244826
000270 b3 4a 4f 3d 95 b5 f9 bb 3e f6 ed 3b 23 80 ae bb
       0.050608348 -0.007620523 0.0072620204 -0.0053253337
000280 7b 77 48 bc c2 7e a7 ba 56 4d d8 3b 76 e8 0a bd
       -0.012235518 -0.0012778866 0.006601016 -0.0339131
000290 97 18 5d 3d 08 5c b1 bc c2 14 ac 3c 5a f2 a8 3b
       0.05397853 -0.02165033 0.021005992 0.0051558437
0002a0 81 9c a1 ba 00 73 e2 3b 5b 33 8c be f4 6b ba 3b
       -0.0012329967 0.0069106817 -0.2738293 0.0056891385
0002b0 80 ff a3 bb 60 31 4c 3c 36 4c 89 bc 85 5e 8c 3b
       -0.005004823 0.012462944 -0.016759973 0.0042837285
0002c0 3d d5 b7 3c df 7d 28 bc ee 07 5f 3d 80 f8 42 ba
       0.022440547 -0.010283916 0.05445092 -0.0007437542
0002d0 97 ee 18 3d 8e c8 42 bf 35 26 16 3b 7a 2d bd bb
       0.037336912 -0.7608727 0.0022910957 -0.0057732435
0002e0 49 e2 ec bd 41 ef 30 3d 71 25 f9 bb 4d 3e 0e bc
       -0.11566598 0.04319692 -0.0076033403 -0.008681846
0002f0 21 51 30 bd 42 cd b8 3d 5a 23 17 3d e0 7d e9 bc
       -0.04304612 0.09023525 0.03689895 -0.028502405
000300 23 1a fd bd fe b7 99 3b a3 70 8d 3e 40 35 30 3b
       -0.12358501 0.004691123 0.27624997 0.0026887208
000310 92 c2 12 3d ad 82 5a 3d 2c 76 74 bc 94 bb c5 bc
       0.035830088 0.05334728 -0.0149207525 -0.024137296
000320 ea 54 59 3d a3 e9 bf 3b a5 2f 00 3d b1 83 c0 3c
       0.053059496 0.005856709 0.031295437 0.023500295
000330 01 20 62 bb a2 5c 28 bc 70 2c 0c 3d 2b 9a 03 3d
       -0.003450394 -0.010275992 0.034222066 0.032129448
000340 34 93 3c bb 28 8a 00 bd c6 e8 50 3b 36 fa 6e 3c
       -0.0028774263 -0.031381756 0.0031877025 0.014586022
000350 ea d5 82 3c 0a 41 0e 3d bd e1 c0 3d fe a9 01 3e
       0.015971143 0.034729995 0.09418056 0.12662503
000360 86 f5 57 3c a6 26 57 3c af ba 0b bd d4 14 63 bd
       0.013181096 0.013131773 -0.034113582 -0.055439785
000370 98 aa 61 bb ed bb 3c 3d 3b 99 e4 3c 6e 77 5f 3b
       -0.0034433957 0.046077657 0.027905097 0.0034098285
000380 11 10 b0 ba 31 b8 6a 3c 76 66 08 bb ca c6 ec 3c
       -0.0013432523 0.014326141 -0.0020813025 0.028903384
000390 e2 87 c2 bb c0 2c a0 3a 4c f1 05 3e db 5c 93 3c
       -0.0059366086 0.0012220368 0.13080329 0.017988613
0003a0 25 28 6a 3d 65 5c b1 3c cf e4 6b 3b 07 f9 0f 3d
       0.05716719 0.021650502 0.0035994535 0.0351496
0003b0 57 ea 4f bd 42 12 77 bd be 97 e4 bb 8e 1f 2f 3d
       -0.050760593 -0.060320146 -0.006976097 0.042754702
0003c0 cc 2b af 3b 02 f2 86 3c 74 8e 2d 3d fa 6e 76 3c
       0.005345797 0.01647282 0.042372182 0.015041107
0003d0 6d f5 87 be 1d 50 f7 bc 1f 63 33 3c 71 19 9c 3c
       -0.26554433 -0.030189568 0.010948925 0.0190551
0003e0 71 a7 99 3c 9e bf 9a bc e4 3e 40 3c 3f 2e 02 bd
       0.0187566 -0.018890198 0.011733744 -0.031782385
0003f0 ce a6 9f 3c f3 f1 4c 3f 2c 10 84 bc 45 b3 57 3b
       0.019488718 0.80056685 -0.016120993 0.003291325
