checkpoints/highD_lstm_model.pt (torch, 41247 bytes, 9 tensors)

weight_ih_l0 f4 [128, 4]
0	0x3e0a44c4	0.13502795
1	0xbc511df8	-0.012763493
2	0xbdd54b0c	-0.10414705
3	0x3de2eb4e	0.11080037
4	0x3d162f33	0.036666106
5	0xbcf884c6	-0.030336749
6	0xbee12df7	-0.4398038
7	0x3cf85b04	0.030316837
8	0x3d85a508	0.06525618
9	0xbdb3c807	-0.087783866
10	0xbd75e8eb	-0.06003658
11	0x3dad7624	0.08469799
12	0x3d2e6b36	0.042582713
13	0xbe030893	-0.1279624
14	0x3bf39d00	0.0074344873
15	0xbe2845ed	-0.16432925
16	0x3da31bd3	0.079642914
17	0x3ddc26b5	0.1074957
18	0x3c3a6385	0.011376266
19	0x3d1c6540	0.038182497
20	0x3d998574	0.07496157
21	0xbd9ae94a	-0.075640276
22	0xbe70dbe3	-0.2352138
23	0xbd07ff15	-0.03320225
24	0xbd1d514f	-0.03840762
25	0x3ce57033	0.028007602
26	0xbec53f5a	-0.38524896
27	0xbe0b53a7	-0.1360613
28	0x3e44ddbd	0.19225211
29	0xbc497179	-0.01229512
30	0xbd8082a7	-0.0627492
31	0x3d8b18de	0.067918524
32	0xbdf0914c	-0.11746463
33	0x3d4e2a7f	0.050333496
34	0xbdb05b98	-0.0861122
35	0xbc348c29	-0.011019745
36	0x3e305166	0.17218551
37	0xbc14acad	-0.009074372
38	0xbe104955	-0.14090474
39	0xba0f1ab2	-0.0005458995
40	0x3d8c160c	0.068401426
41	0x3d42e956	0.047585808
42	0x3e0f9aca	0.14023891
43	0x3db8ac8d	0.090172864
44	0xbcf2c9ca	-0.029637236
45	0xbbac980e	-0.00526715
46	0x3ea21938	0.31659865
47	0x3d95600f	0.07293712
48	0xbde67752	-0.11253227
49	0x3e2515f5	0.16121657
50	0xbef8c64f	-0.48588797
51	0xbe1c382a	-0.152558
52	0xbcbf76c2	-0.023372058
53	0xbc98fa53	-0.018674051
54	0x3d824079	0.063599534
55	0xbe26d0a5	-0.16290529
56	0xbd655975	-0.055993516
57	0x3dd550c8	0.104157984
58	0xbf4af228	-0.7927575
59	0x3d839927	0.06425696
60	0xbc8fe8cc	-0.01756706
61	0x3d9f9679	0.07792372
62	0xbdb7cd4d	-0.08974705
63	0x3b465df0	0.0030268393
64	0x3dffbc9c	0.12487146
65	0x3dc2188b	0.094773374
66	0xbea8f107	-0.3299639
67	0xbe017446	-0.12642011
68	0x3de36370	0.111029506
69	0x3e118889	0.1421224
70	0xbc8fd986	-0.017559778
71	0x3d07278d	0.032996703
72	0x3dfa1ef2	0.122129336
73	0x3bb1f6f8	0.0054310523
74	0xbe93d062	-0.2886992
75	0x3deb0e77	0.11477368
76	0x3d15f39c	0.036609277
77	0xbd0b52b6	-0.034014426
78	0xbecb1ee9	-0.3967202
79	0x3e70d416	0.23518404
80	0x3e13917b	0.14410965
81	0xbd874b94	-0.06606212
82	0x3d8c9df9	0.068660684
83	0x3e008e0a	0.12554184
84	0x3dbeb5ce	0.0931202
85	0xbc8c3eb1	-0.017119737
86	0x3e3127d7	0.17300354
87	0x3deee921	0.116655596
88	0xbde0552c	-0.10953745
89	0xba8eefcb	-0.0010905204
90	0xbf0e0222	-0.55472004
91	0x3dbd01fb	0.09228893
92	0x3d801c60	0.06255412
93	0x3d9b760b	0.07590874
94	0x3c878f68	0.016547874
95	0xbe1db578	-0.15401256
96	0xbcaa5154	-0.020790733
97	0xbddf5d89	-0.10906512
98	0x3db1f400	0.086891174
99	0x3dcfff1b	0.101560794
100	0xbd3d8c1b	-0.046276193
101	0x3cae61a5	0.021286795
102	0x3e18de0c	0.14928454
103	0x3e55a215	0.2086261
104	0xbd7579e0	-0.059930682
105	0x3d8582cf	0.065190904
106	0xbe71ac42	-0.23600867
107	0x3d96c9bf	0.07362699
108	0xbdbf9ad5	-0.09355704
109	0xbe067c45	-0.13133343
110	0x3e9fa5a6	0.31181067
111	0x3e147084	0.14496046
112	0x3e292566	0.16518173
113	0x3e127fd9	0.14306583
114	0x3e24cd54	0.16093951
115	0x3e67b040	0.22625828
116	0xbdaa0030	-0.08300817
117	0x3e146fd3	0.14495783
118	0xbe9cc1c0	-0.3061657
119	0x3df3e77c	0.119093865
120	0x3ddb1466	0.1069725
121	0x3a7dae10	0.00096771214
122	0x3f26d34e	0.65166175
123	0xbde27db8	-0.11059135
124	0xbb714954	-0.0036817389
125	0x3e2c36bd	0.16817756
126	0xbe3cd67f	-0.18441199
127	0x3e24b116	0.16083178
128	0x3d4cd056	0.050003372
129	0xbe14bfee	-0.1452634
130	0xbe1e3055	-0.15448125
131	0x3d3276c3	0.04357029
132	0xbd6cdda0	-0.057828546
133	0x3e1dd1e6	0.15412101
134	0xbdc1177e	-0.09428309
135	0x3d5f139b	0.054462057
136	0x3cef1358	0.029184029
137	0x3d23f7a7	0.0400311
138	0x3bb15319	0.0054115173
139	0x3ca8dd27	0.020613266
140	0x3e67c7d9	0.2263483
141	0x3e374a23	0.17899375
142	0xbd838045	-0.0642095
143	0xbd3059f7	-0.043054547
144	0xbd608fe3	-0.05482472
145	0xbb89fd5f	-0.0042111124
146	0xbe88f80e	-0.2675175
147	0x3b186654	0.0023254352
148	0xbdaf3f41	-0.085569866
149	0x3e0349b4	0.12821084
150	0xbea83b5c	-0.32857788
151	0x3d8cbe7e	0.06872271
152	0xbcaa73e7	-0.02080722
153	0x3e4d2340	0.20032978
154	0x3d802105	0.06256298
155	0xbd61f72f	-0.055167373
156	0xbab17b02	-0.0013540688
157	0xbda0b5f3	-0.07847204
158	0x3d2f77cb	0.042838853
159	0xbceeb656	-0.029139679
160	0xbc916dc2	-0.017752532
161	0x3cddecef	0.027090518
162	0xbebbb315	-0.36660066
163	0x3d9cab68	0.07649881
164	0xbdde7da2	-0.10863806
165	0xbdb6b555	-0.08921305
166	0xbd4b2dc3	-0.04960419
167	0x3e6009d3	0.21878748
168	0xbe398de1	-0.18120529
169	0xbd089e77	-0.03335425
170	0xbe7e8573	-0.24855594
171	0xbbc61d98	-0.0060460083
172	0x3e1f007a	0.15527526
173	0xbd3556c9	-0.044272218
174	0xbe1d9368	-0.15388262
175	0x3e736085	0.23767288
176	0x3c0f73df	0.008755653
177	0x3ca4b87a	0.020107497
178	0xbf1b7c7c	-0.60736823
179	0xbc316172	-0.010826455
180	0x3e4e8a4d	0.20169945
181	0xbdbd537a	-0.092444375
182	0x3ca5b46c	0.020227633
183	0x3dc82e3d	0.09774444
184	0xbd31dede	-0.043425433
185	0x3d3f98e2	0.04677666
186	0xbe86a94c	-0.26301038
187	0xbc5f7e5a	-0.013640964
188	0x3e39f7c3	0.1816092
189	0x3a2589fa	0.00063148106
190	0x3ececc83	0.40390405
191	0xbdff4790	-0.12464821
192	0x3ca59eda	0.020217348
193	0xbde36502	-0.1110325
194	0x3e4ce8ff	0.20010756
195	0xbd9555e7	-0.07291775
196	0x3c380e7e	0.011233924
197	0x3e501713	0.20321302
198	0xbe5bde55	-0.21471532
199	0xbcaa7362	-0.020806972
200	0x3d6f2a55	0.05838998
201	0xbe0c8f32	-0.137265
202	0x3ea8b015	0.3294684
203	0xbddb83db	-0.10718509
204	0xbbbfa855	-0.005848924
205	0xbd1f961d	-0.03896152
206	0xbcba4f82	-0.02274299
207	0x3da10d26	0.07863836
208	0xbdc0f740	-0.09422159
209	0x3dcfa05f	0.1013801
210	0xbd9e5ab6	-0.077321455
211	0x3de8e08d	0.11370955
212	0xbdf7b2af	-0.12094628
213	0xbd573358	-0.0525392
214	0xbdf2649b	-0.11835595
215	0xbde33d6c	-0.110957
216	0x3df93895	0.12168995
217	0x3ce7938a	0.028268594
218	0xbe5ba67e	-0.2145023
219	0xbe0ca80c	-0.1373598
220	0xbdf53e59	-0.119747825
221	0x3e0986ed	0.13430376
222	0xbeaf1bad	-0.34200802
223	0xbdf425e7	-0.11921292
224	0x3e3c0081	0.18359567
225	0x3e01c816	0.12673983
226	0xbe0dbf84	-0.13842589
227	0x3d735026	0.059402607
228	0x3cf431d3	0.029808914
229	0xbd27a5a0	-0.040929437
230	0xbc5be495	-0.013421197
231	0x3d8ad4bf	0.06778859
232	0x3e6d2a4e	0.23160669
233	0x3d6f72de	0.058459155
234	0xbdbd260e	-0.09235774
235	0xbd9b9e5e	-0.075985655
236	0x3c74c8f8	0.014940493
237	0xbdc9e5cb	-0.09858283
238	0x3e9a029c	0.30080116
239	0x3c8ad18b	0.016945621
240	0xbdb48e9e	-0.088162646
241	0x3e1b320a	0.15155807
242	0x3eea3612	0.45744377
243	0x3e230a40	0.15921879
244	0xbd7d9be1	-0.061916236
245	0x3e0031bd	0.12518974
246	0xbeafd8e9	-0.34345177
247	0x3cb8bb7a	0.022550333
248	0x3d895053	0.06704774
249	0xbd895a48	-0.06706673
250	0x3ece79fd	0.40327445
251	0xbd799694	-0.060934618
252	0x3e1bf78f	0.15231155
253	0x3dcf59ae	0.10124527
254	0x3c60f69e	0.013730673
255	0xbc4ba42c	-0.012429278

weight_hh_l0 f4 [128, 32]
0	0x3daa53b7	0.083167486
1	0xbe540845	-0.2070628
2	0x3dfaf51c	0.12253782
3	0x3e729711	0.2369044
4	0x3d77ea11	0.060525957
5	0xbcd1a6dc	-0.02559226
6	0xbddfc041	-0.109253414
7	0xbdb9395f	-0.09044146
8	0xbb1495f8	-0.0022672396
9	0x3c1b1b6a	0.009466985
10	0xbe53de76	-0.20690331
11	0x3d16e119	0.036835764
12	0xbe8c80f3	-0.2744213
13	0x3de7c9ac	0.11317763
14	0xbcb2d5b8	-0.021830425
15	0x3ebd0bbf	0.36923024
16	0x3cbf0dc6	0.023321997
17	0x3d6819f9	0.056665394
18	0x3bb2bf5c	0.0054549407
19	0x3dcc4181	0.099734314
20	0x3d3b5f16	0.045744978
21	0xbe0bd54b	-0.13655584
22	0x3d113ca9	0.03545824
23	0xbe1c06b3	-0.1523693
24	0x3d83bf7f	0.06433009
25	0x3e7c0a92	0.24613407
26	0xbdebc2c4	-0.11511758
27	0x3e85b27c	0.26112735
28	0x3d4650d8	0.048416942
29	0xbe18b808	-0.14913952
30	0x3b135e2e	0.0022486555
31	0x3cc7a1ff	0.024369238
32	0xbe40d6f3	-0.18831997
33	0x3e0b8a03	0.13626866
34	0xbd095e0e	-0.033536963
35	0xbedad537	-0.42740795
36	0xbc06fabe	-0.0082384925
37	0xbc584bd7	-0.013201675
38	0xbe499612	-0.19686154
39	0xbe840ba5	-0.25790134
40	0x3dab6e43	0.0837064
41	0xbdd9e322	-0.10639025
42	0x3c6e77b0	0.014554903
43	0x3d1f39cc	0.03887348
44	0x3e75967a	0.23983184
45	0x3d9d848c	0.07691297
46	0x3e5b6b32	0.2142761
47	0xbd1df8eb	-0.038567465
48	0xbe57d7de	-0.2107844
49	0x3ea5e795	0.32403246
50	0x3e4b9b8c	0.19883555
51	0xbeadd8e3	-0.33954534
52	0x3e13f68a	0.14449516
53	0xbd06189c	-0.032738313
54	0x3e1688c7	0.14700614
55	0x3e746475	0.23866446
56	0xbe19b15c	-0.15009063
57	0xbdfae4ad	-0.12250648
58	0xbc92cc4f	-0.017919688
59	0x3cf35973	0.029705739
60	0xbe8f025b	-0.27931485
61	0x3e327fdf	0.17431591
62	0xbda56490	-0.080758214
63	0x3db93d4d	0.09044895
64	0xbdb7954e	-0.089640245
65	0x3da010e3	0.07815721
66	0x3d79e5bb	0.061010104
67	0x3e54b5fe	0.2077255
68	0xbd10d2b1	-0.03535718
69	0x3d2b305c	0.041794166
70	0x3d9e313a	0.07724233
71	0xbe2f38fa	-0.17111579
72	0xbdce001f	-0.10058617
73	0xbd835779	-0.064131685
74	0xbd17460f	-0.036932047
75	0x3d53fadc	0.05175291
76	0xbdf7d677	-0.12101453
77	0xbe46724d	-0.1937954
78	0x3cf10b41	0.029424312
79	0x3c876058	0.016525432
80	0x3c6c5fd5	0.014427145
81	0xbc8b9612	-0.017039333
82	0xbc3b4201	-0.011429311
83	0xbdc2d69d	-0.095135905
84	0x3da5890e	0.08082782
85	0xbe39b45d	-0.1813521
86	0x3df306b6	0.118665144
87	0x3dd20296	0.102543995
88	0x3d21e4a2	0.039524682
89	0xbde87144	-0.11349729
90	0xbd9791d6	-0.07400863
91	0xbcff6b58	-0.031179115
92	0x3ccc5af6	0.024945717
93	0xbdc1ae85	-0.09457115
94	0xbd33456e	-0.043767385
95	0x3e34071b	0.17580836
96	0x3e08331a	0.13300744
97	0x3db70db6	0.08938162
98	0x3e2fe41e	0.17176864
99	0xbeab3a99	-0.33443144
100	0xbe239041	-0.15972997
101	0x3eb34894	0.3501631
102	0x3dd66a91	0.10469545
103	0x3cee8db6	0.029120307
104	0x3cf1960f	0.029490499
105	0xbdf17329	-0.11789543
106	0x3c64f68c	0.013974797
107	0x3e4ef69f	0.20211266
108	0xbe8f2fd7	-0.27966186
109	0x3bc0b737	0.005881216
110	0xbebd444e	-0.36966175
111	0xbe2068af	-0.15664934
112	0xbe4a7e78	-0.19774806
113	0xbdafc519	-0.08582515
114	0xbd5e0335	-0.054202277
115	0x3d0e105d	0.034683574
116	0x3de93b8e	0.11388312
117	0x3da44528	0.08021003
118	0xbe53e181	-0.20691492
119	0xbe979f14	-0.29613554
120	0x3dddd191	0.10830987
121	0x3e07af76	0.13250527
122	0x3cc7a6dd	0.024371559
123	0x3f148a15	0.58023196
124	0xbd24c754	-0.040229157
125	0xbbb81763	-0.0056180223
126	0xbe611848	-0.21981919
127	0xbe91f2ec	-0.28505647
128	0x3d86eda8	0.06588298
129	0xbd2f4197	-0.04278716
130	0x3e73b54b	0.23799627
131	0xbdc2dbf0	-0.09514606
132	0x3d718c32	0.05897159
133	0xbca6e02d	-0.020370567
134	0x3ec31aeb	0.38106474
135	0x3d53334c	0.051562592
136	0xbd3f8af8	-0.04676339
137	0x3e6d4a09	0.23172773
138	0xbe51c5e3	-0.20485644
139	0xbe889447	-0.26675627
140	0xbe0938c8	-0.13400567
141	0x3c800e3c	0.015631787
142	0xbdb6ce23	-0.08926036
143	0x3e05d210	0.13068414
144	0x3e4bf70d	0.19918461
145	0xbeb1631b	-0.34645924
146	0x3c9d0b4e	0.01917043
147	0xbe26fcb9	-0.16307344
148	0xbe17cf7a	-0.1482524
149	0xbbd04d0a	-0.00635684
150	0xbe83dd86	-0.25754946
151	0xbe8523c8	-0.2600386
152	0x3da4fc48	0.08055931
153	0x3e104bf8	0.1409148
154	0xbd25bcc3	-0.04046322
155	0x3e286cfb	0.16447823
156	0x3e7f0d81	0.24907495
157	0xbe061dfe	-0.13097379
158	0x3e85983a	0.26092702
159	0xbe507b9d	-0.20359655
160	0x3c9c2992	0.019062791
161	0x3e726a3c	0.23673338
162	0xbd525365	-0.051349062
163	0xbe0c40e4	-0.13696629
164	0x3dae4b67	0.085104756
165	0x3c8e8006	0.01739503
166	0xbe03c9ba	-0.12869921
167	0x3d0a4983	0.033761512
168	0xbdd0aee9	-0.101896115
169	0x3dd08530	0.101816535
170	0x3da55682	0.08073141
171	0x3d624a96	0.055246912
172	0x3e3a3b38	0.18186653
173	0xbda49a61	-0.08037258
174	0xbd1ed678	-0.038778752
175	0x3ea27385	0.3172876
176	0xbe01f23c	-0.12690061
177	0x3d999efb	0.07501026
178	0x3db4e0a3	0.088319086
179	0xbccda091	-0.025100978
180	0x3d9c32d2	0.07626881
181	0xbaa021e0	-0.0012217127
182	0x3e2d4307	0.169201
183	0x3e7da046	0.2476817
184	0x3db9486c	0.090470165
185	0x3dea9546	0.11454253
186	0x3da96087	0.08270364
187	0xbdfbadbf	-0.12288999
188	0x3d00e296	0.03146609
189	0x3e372770	0.17886138
190	0xbd61e8b4	-0.055153564
191	0xbd570ad2	-0.052500553
192	0x3b8de44a	0.0043301927
193	0xbe0c8e5c	-0.13726181
194	0xbcd7b5b8	-0.026331767
195	0x3c22fdf0	0.009948239
196	0xbe25853d	-0.16164108
197	0xbda97bde	-0.08275579
198	0x3e1072ff	0.14106368
199	0x3dedd46a	0.116127804
200	0xbc9ecd61	-0.019385042
201	0xbdac0b36	-0.08400576
202	0xbe2bede0	-0.16789961
203	0x3c82afdf	0.015953002
204	0xbf22e26d	-0.6362675
205	0xbddd14cc	-0.10794982
206	0xbe6048db	-0.21902792
207	0x3e5d16e7	0.21590768
208	0x3e617301	0.22016527
209	0xbe85ed51	-0.2615762
210	0x3d925c7d	0.07146547
211	0xbde01ec3	-0.10943367
212	0xbe1458f4	-0.14487058
213	0xbb6f92d8	-0.0036556032
214	0xbe0f2624	-0.13979393
215	0xbc9523eb	-0.018205604
216	0x3e8781b5	0.26466146
217	0x3c689f0a	0.014198074
218	0xbdb29de6	-0.08721523
219	0xbe990962	-0.2988997
220	0xbe188ee8	-0.14898264
221	0x3c1d2e7d	0.009593603
222	0xbded694a	-0.11592348
223	0x3d2f94e0	0.042866588
224	0x3e79e015	0.24401887
225	0x3d83ac37	0.06429332
226	0x3d0c469a	0.03424702
227	0x3d167bb2	0.03673906
228	0xbda74e93	-0.08169284
229	0xbe53fe1b	-0.20702402
230	0x3e3ddd4c	0.1854145
231	0xbd8c03bf	-0.06836652
232	0x3e6a9c4c	0.22911185
233	0x3e63f1d3	0.22260217
234	0xbe3b0215	-0.18262513
235	0x3d91f331	0.07126463
236	0xbe8c18e9	-0.27362755
237	0x3dae5576	0.08512394
238	0x3da12ad3	0.07869496
239	0x3e4219cb	0.18955152
240	0x3e422b9c	0.18961948
241	0xbd857793	-0.065169476
242	0x3d55bb7a	0.052180745
243	0x3dba9188	0.09109789
244	0xbda25850	-0.079270005
245	0x3b287cc4	0.0025709132
246	0xbe869501	-0.26285556
247	0xbd80ac5b	-0.06282874
248	0xbd1acfa7	-0.03779569
249	0x3e1a9058	0.15094125
250	0x3dd955ea	0.1061209
251	0x3db28612	0.08716978
252	0x3e0568b8	0.13028228
253	0x3d939a1c	0.072071284
254	0x3d920a87	0.07130914
255	0xbd8a80f6	-0.067628786

bias_ih_l0 f4 [128]
0	0xbc892b59	-0.016744303
1	0xbe57d65f	-0.2107787
2	0x3dc4984d	0.095993616
3	0x3d3d5cb9	0.046231005
4	0xbda0a1a9	-0.07843334
5	0x3c039729	0.008031645
6	0x3e5f8cd9	0.21831073
7	0xbd47ce07	-0.048780467
8	0x3e46e98e	0.19425032
9	0x3e3c75a3	0.1840425
10	0xbdc60cb7	-0.09670394
11	0xbe27e0f2	-0.16394404
12	0xbd7b3e8d	-0.06133895
13	0x3e18b588	0.14912999
14	0x3dabd5bd	0.08390377
15	0xbdbeb623	-0.093120836
16	0x3d2ffb7f	0.042964455
17	0x3e224aef	0.15848897
18	0xbd084f98	-0.03327903
19	0x3e61416e	0.21997616
20	0x3d9d729b	0.07687875
21	0xbe689dc6	-0.22716436
22	0x3ccc1eaa	0.024916966
23	0x3e175272	0.14777544
24	0x3cb28af5	0.021794776
25	0x3d1438da	0.03618703
26	0x3d9bd10b	0.07608231
27	0x3e01b64a	0.12667194
28	0x3e24ad3b	0.16081707
29	0xbdce30d2	-0.100679055
30	0x3cd9ec82	0.026602034
31	0x3df87dfa	0.12133403
32	0xbcdf0752	-0.02722517
33	0xbd44ac18	-0.048015684
34	0xbcba6c68	-0.02275677
35	0xbd875dd8	-0.06609696
36	0x3e5b63ea	0.21424833
37	0xbdb0cf57	-0.08633297
38	0x3e387671	0.18013932
39	0x3e56a54c	0.20961493
40	0xbe2cb98a	-0.16867653
41	0x3d018ed7	0.031630363
42	0x3a985192	0.001162099
43	0xbcbd10fd	-0.02307939
44	0x3e8aa2c0	0.27077293
45	0x3e44e09a	0.19226304
46	0x3e56213a	0.20911112
47	0xbe4ea7ee	-0.20181248
48	0xbd866a3b	-0.065632306
49	0xbd29f383	-0.041491996
50	0x3de37ddf	0.111079924
51	0xbdc273f2	-0.09494771
52	0xbe1ea956	-0.15494284
53	0xbe4b6ffa	-0.19866934
54	0xbe16a79f	-0.1471238
55	0x3c425944	0.011862103
56	0x3e80aa55	0.25129953
57	0xbda2d8f7	-0.07951539
58	0xbdb4ad88	-0.08822161
59	0x3d2cae44	0.04215838
60	0xbd2fe915	-0.042946894
61	0xbc3683f4	-0.0111398585
62	0x3d9dd011	0.07705701
63	0x3e258e1c	0.16167492
64	0x3b6a1100	0.00357157
65	0xbca535fc	-0.020167343
66	0xbe075daf	-0.13219331
67	0xbd4ae0db	-0.049530845
68	0x3d1cf9d8	0.038324207
69	0x3d63c04a	0.055603303
70	0xbe17301d	-0.14764448
71	0x3e1fa36b	0.15589683
72	0xbddc11cd	-0.10745583
73	0x3e2712f2	0.16315821
74	0x3e1c4065	0.1525894
75	0xbd6f3ca4	-0.05840744
76	0x3d11b22e	0.035570316
77	0x3d89b9e6	0.067249104
78	0x3e10a874	0.1412676
79	0x3d4bfa0a	0.049799003
80	0xbdbec27d	-0.093144394
81	0xbe047c60	-0.1293807
82	0x3e8cdbfd	0.27511588
83	0xbd18d259	-0.03730998
84	0x3d0bb603	0.034109127
85	0xbddc4934	-0.1075615
86	0x3db435c1	0.08799315
87	0xbe36fa6d	-0.17868967
88	0x3c273d93	0.0102075515
89	0x3e026696	0.12734446
90	0xbd88e089	-0.06683452
91	0x3e152fd1	0.14569022
92	0xbe0f6723	-0.14004187
93	0x3dbb0d0a	0.091333464
94	0x3dbd26c8	0.092359126
95	0x3d86164f	0.06547224
96	0x3d4cc6a6	0.049994133
97	0x3e18eb45	0.14933498
98	0x3e28627a	0.16443816
99	0x3e940286	0.28908175
100	0x3e50d75d	0.20394655
101	0x3e71154c	0.2354328
102	0xbc79466c	-0.015214544
103	0x3c549684	0.012975339
104	0x3e0de396	0.13856348
105	0xbc0a021f	-0.008423357
106	0xbdcd54da	-0.1002595
107	0x3da23db8	0.07921928
108	0x3e135903	0.14389424
109	0x3b1995c9	0.0023435226
110	0xbc040a1b	-0.00805905
111	0xbd0e8c39	-0.034801695
112	0x3e15b72f	0.1462066
113	0x3c021bda	0.007941211
114	0x3e0a8079	0.13525571
115	0x3dee52ba	0.116368726
116	0xbdaf0787	-0.085463576
117	0xbd147177	-0.03624102
118	0x3e08eb27	0.13370954
119	0xbc5f36f2	-0.01362394
120	0xbd572e47	-0.052534368
121	0xbd8c8d6d	-0.06862912
122	0x3ac247a6	0.0014822378
123	0x3dfa4429	0.12220032
124	0x3e87bf4e	0.2651314
125	0xbcd43381	-0.025903465
126	0xba3c22c1	-0.00071768096
127	0xbd984473	-0.07434931

bias_hh_l0 f4 [128]
0	0x3defb233	0.11703911
1	0xbce2bd41	-0.027678134
2	0xbda10cf0	-0.07863796
3	0x3dc4ddad	0.09612594
4	0x3e4c8d1a	0.19975701
5	0xbdfe6bbf	-0.12422895
6	0x3e266cba	0.16252413
7	0xbb1a8336	-0.0023576743
8	0x3e5f9461	0.21833946
9	0x3dab8906	0.083757445
10	0xbcb845e3	-0.022494262
11	0xbda4cecd	-0.080472566
12	0xbde2d3c7	-0.110755496
13	0x3df7ef66	0.121062085
14	0x3dba38ef	0.090928905
15	0xbd74829e	-0.05969488
16	0x3e42bdf0	0.19017768
17	0x3e0be9f7	0.1366347
18	0x3d89b864	0.06724623
19	0xbcb29e76	-0.021804076
20	0xbdba660c	-0.09101495
21	0xbe1daf5b	-0.15398924
22	0xbd772d9d	-0.060346235
23	0x3d9f6bfd	0.07784269
24	0x3da74d3e	0.0816903
25	0x3e6b1b28	0.22959578
26	0x3da9591d	0.0826895
27	0x3de283aa	0.11060269
28	0x3e41e315	0.18934281
29	0xbdbad8f5	-0.091234125
30	0xbd646ff5	-0.055770833
31	0x3da2f5e7	0.079570584
32	0xbdb40b0e	-0.08791171
33	0xbe2fc037	-0.17163168
34	0xbe11e2ea	-0.14246717
35	0x3e714ed3	0.23565225
36	0x3e9bfdf3	0.30467185
37	0x3da0e182	0.07855512
38	0x3da50cc2	0.08059074
39	0x3e0440c1	0.12915327
40	0xbb8bb7bf	-0.0042638476
41	0x3bb7416e	0.0055925166
42	0x3d547157	0.0518659
43	0x3e0362b0	0.12830615
44	0x3e29e214	0.16590148
45	0x3e2a17e3	0.16610675
46	0x3d9f5218	0.0777933
47	0x3dc4b90d	0.09605608
48	0x3dc038c4	0.09385827
49	0xbd33286e	-0.04373973
50	0x3d84e88a	0.06489666
51	0x3d05409a	0.032532312
52	0x3d3b4a89	0.04572538
53	0xbe2cf7f7	-0.16891466
54	0xbd5bee38	-0.05369398
55	0x3e2906ac	0.16506451
56	0xbd9f8637	-0.07789271
57	0x3e0cb621	0.13741352
58	0x3e40af8d	0.18816967
59	0xbe00b931	-0.12570645
60	0x3e76823d	0.2407312
61	0x3e11cfbb	0.14239399
62	0x3c87e781	0.016589882
63	0xbdf7eaf6	-0.12105362
64	0x3d368053	0.044555973
65	0x3e1ed3db	0.15510504
66	0x3d9366ae	0.07197319
67	0x3c0d4ea3	0.0086247055
68	0x3de38fdb	0.11111423
69	0xbe288a3e	-0.16458985
70	0xbd861a5f	-0.06547999
71	0x3e4ae9c2	0.19815734
72	0x3de5e8fe	0.1122608
73	0xbd8e451e	-0.06946777
74	0xbd036007	-0.032074
75	0x3e2c3a12	0.16819027
76	0x3da7388c	0.08165082
77	0xbe198f23	-0.14996009
78	0x3e514b1c	0.20438808
79	0x3d930c67	0.071801
80	0xbe4460c2	-0.19177535
81	0x3d77bd81	0.06048346
82	0x3e201a71	0.15635087
83	0xbe018a4e	-0.12650415
84	0xbe1954e2	-0.14973786
85	0x3e1467c6	0.14492711
86	0x3dc40d42	0.09572841
87	0xbe4b164a	-0.19832721
88	0xbd1f899b	-0.03894959
89	0xbdbac5f0	-0.09119785
90	0xbc207452	-0.009793358
91	0x3e4bad5b	0.19890349
92	0xbe36ef29	-0.1786467
93	0x3e4822e6	0.19544563
94	0xbb61ab93	-0.0034434542
95	0xbe343e63	-0.17601924
96	0x3dc76483	0.09735968
97	0x3e1e43f4	0.1545561
98	0x3ea30f10	0.3184743
99	0x3dc68b4c	0.096945375
100	0x3e85d394	0.26137984
101	0x3d556704	0.052100196
102	0xbe0b01c8	-0.13574898
103	0x3deca0a0	0.11554074
104	0x3bb91982	0.0056487927
105	0xbc763748	-0.0150278285
106	0xbd82e10a	-0.06390579
107	0x3e1d49b6	0.1536015
108	0xbd560ab5	-0.052256305
109	0x3e52764d	0.2055294
110	0xbd172e9d	-0.03690969
111	0xbe14089b	-0.14456408
112	0xbc8f58b2	-0.017498348
113	0xbd2eb585	-0.04265358
114	0x3d4a13c0	0.04933524
115	0x3e4a49de	0.1975474
116	0xbd2bcf2c	-0.04194562
117	0xbda8e4f4	-0.08246794
118	0xbdc48c90	-0.09597123
119	0x3e2fe22c	0.17176121
120	0x3e8e838a	0.2783473
121	0x3e425abc	0.18979925
122	0x3e394c73	0.1809557
123	0x3e365e94	0.17809516
124	0x3ddd9132	0.108187094
125	0x3d80ea92	0.06294741
126	0x3d7937fa	0.0608444
127	0x3e1919f8	0.14951313

weight_ih_l0 f4 [128, 2]
0	0x3d46c37a	0.048526265
1	0xbdd1975a	-0.10233946
2	0xbdae7e1f	-0.085201494
3	0xbe15b709	-0.14620604
4	0xbe1f6001	-0.15563966
5	0xbd84eec4	-0.064908534
6	0x3e082abc	0.13297552
7	0xbdcdd140	-0.10049677
8	0xbde280b6	-0.11059706
9	0xbe09a4bd	-0.13441749
10	0xbd86cd8f	-0.06582176
11	0xbde8f531	-0.113748915
12	0x3da97cbf	0.082757466
13	0x3d581e40	0.052763224
14	0x3dccab1d	0.09993575
15	0x3e26cc19	0.16288795
16	0x3e1d8e76	0.15386376
17	0x3dbf6667	0.093457036
18	0xbe21ecfd	-0.1581306
19	0xbc9c5527	-0.019083573
20	0x3d90223e	0.07037781
21	0x3e5b0183	0.21387295
22	0x3ddfa912	0.109209195
23	0xbe10e67e	-0.14150426
24	0x3e0cbf70	0.13744903
25	0xbbe541ad	-0.0069963546
26	0xbd6e482e	-0.058174305
27	0xbd2fd83d	-0.04293083
28	0x3ddef5a4	0.10886696
29	0xbdb1b7cd	-0.08677635
30	0x3d91f8e8	0.07127553
31	0x3e2dfd82	0.16991237
32	0xbd36951c	-0.044575796
33	0xbd99996e	-0.074999675
34	0x3d962945	0.0733209
35	0x3ccf6a53	0.025319254
36	0xbcf6a129	-0.030106144
37	0x3cbaee07	0.022818578
38	0x3e1533ef	0.14570592
39	0xbd23da12	-0.04000289
40	0x3e013522	0.12617925
41	0x3df002f1	0.11719311
42	0x3e1f5d33	0.15562896
43	0x3e59a086	0.21252641
44	0x3e1801bd	0.14844413
45	0x3e281811	0.1641543
46	0x3e2cfca2	0.16893247
47	0xbce04216	-0.027375262
48	0x3e2550d4	0.16144115
49	0x3e20de6e	0.1570985
50	0xbda062e8	-0.07831365
51	0xbd3e3aba	-0.046442725
52	0xbdc3ddf7	-0.09563821
53	0xbe201730	-0.15633845
54	0xbd9f3f32	-0.077757254
55	0x3e12e63c	0.1434564
56	0x3d9ca114	0.07647911
57	0xbd37857c	-0.044805035
58	0x3e1d1053	0.15338258
59	0xb9774991	-0.00023583161
60	0xbd6f4ead	-0.05842464
61	0xbdfee119	-0.12445278
62	0xbcd0be42	-0.025481347
63	0xbe125201	-0.14289095
64	0x3ed03594	0.40665877
65	0x3dbc7d28	0.09203559
66	0x3d72293d	0.05912136
67	0x3e44754b	0.19185369
68	0xbb22bc97	-0.0024831647
69	0x3e3284a7	0.17433415
70	0x3d737a7d	0.059442986
71	0x3e072a1d	0.13199659
72	0xbd8d9ff9	-0.06915278
73	0x3cd0a62e	0.025469866
74	0x3e2d07cc	0.16897506
75	0xbdaa8b52	-0.083273545
76	0xbe0d53d5	-0.1380151
77	0xbe6e5a3c	-0.23276609
78	0xbd8b537e	-0.06803034
79	0x3d5e5ca8	0.054287583
80	0x3dd95129	0.10611183
81	0xbd58c489	-0.052921806
82	0x3d003c34	0.031307414
83	0x3e199b28	0.15000594
84	0x3dbb2fa8	0.09139949
85	0xbd704d0a	-0.05866722
86	0x3dfa8f7b	0.12234398
87	0xbcd5091f	-0.026005326
88	0x3df5b8e3	0.11998155
89	0x3c8b69de	0.017018255
90	0x3de17b6b	0.11009868
91	0x3d5e534d	0.05427866
92	0x3e000661	0.12502433
93	0xbc92244c	-0.017839573
94	0xbce9965e	-0.028514083
95	0x3d2cbec1	0.042174105
96	0x3d39daf8	0.04537484
97	0xbd97e28a	-0.07416256
98	0xbba09481	-0.0049005155
99	0x3d80cabe	0.0628867
100	0xbe1daa4c	-0.15396994
101	0xbd12e21b	-0.035860162
102	0x3ca6803d	0.02032482
103	0xbd1c8b3a	-0.038218714
104	0x3dac09b7	0.084002905
105	0x3de48207	0.11157613
106	0x3e1f8279	0.15577115
107	0x3dee5556	0.1163737
108	0xbd1e18c4	-0.038597837
109	0x3dc63298	0.09677619
110	0x3cc7d9a4	0.024395771
111	0x3c81a6de	0.015826639
112	0x3d1f02f5	0.03882118
113	0x3e234c40	0.15947056
114	0x3e0ec915	0.13943894
115	0x3e3e53d4	0.18586665
116	0xbcd3e29e	-0.025864895
117	0x3d3cb1c4	0.046067968
118	0x3e15e264	0.14637142
119	0xbb886316	-0.0041622026
120	0xbd2372b2	-0.039904304
121	0x3df93aed	0.12169442
122	0xbc513a68	-0.012770273
123	0x3d0ccd2e	0.034375362
124	0x3de6d9f9	0.11272044
125	0xbdb30d78	-0.08742803
126	0xbde54b23	-0.11195972
127	0x3dcc470e	0.0997449
128	0xbe2112f3	-0.15729885
129	0xbe069584	-0.13142973
130	0x3e60ba91	0.2194617
131	0x3e248bdc	0.16068977
132	0x3d0d5500	0.03450489
133	0xbe497541	-0.19673635
134	0x3e2b4f1e	0.167294
135	0x3cae67e5	0.021289775
136	0x3e174c50	0.14775205
137	0xbceb216b	-0.028702458
138	0x3e6872b0	0.227
139	0x3e3f6d8b	0.18694131
140	0xbd72ebf3	-0.05930705
141	0x3c283630	0.010266826
142	0xbe15aad2	-0.14615944
143	0xbbc075ff	-0.005873441
144	0x3ded48f0	0.11586177
145	0xbaf4d35d	-0.0018678714
146	0xbdc3eb46	-0.09566359
147	0x3dcc9aa7	0.09990435
148	0x3c7dff9b	0.015502836
149	0x3d6dc328	0.058047444
150	0xbde1d44f	-0.11026823
151	0xbc9392b5	-0.018014291
152	0xbd78ab3d	-0.06071018
153	0x3e299d08	0.16563809
154	0x3e1035d5	0.14083035
155	0xbd87329a	-0.06601448
156	0x3d850e7e	0.06496905
157	0xbc97c7ea	-0.018527944
158	0x3db937d7	0.09043854
159	0xbd4ef961	-0.050530795
160	0xbd6700e5	-0.056397337
161	0xbe86c1c3	-0.26319703
162	0xbdf94611	-0.12171567
163	0x3e313e27	0.17308865
164	0x3e16097b	0.14652054
165	0xbdb30ab8	-0.08742279
166	0x3cabe1e3	0.020981735
167	0xbdc06e2d	-0.09396014
168	0x3e4ee4b0	0.20204425
169	0x3e67b004	0.22625738
170	0xbe6b36ec	-0.2297017
171	0x3c5e358f	0.013562574
172	0x3daaa4b5	0.083321966
173	0x3e4b6ed5	0.19866498
174	0xbd1fb639	-0.03899214
175	0x3bf70d0f	0.0075393985
176	0xbdf25317	-0.118322544
177	0xbd78d92e	-0.060753994
178	0xbdb3bda8	-0.087764084
179	0x3dd61670	0.10453498
180	0x3cf9f3ed	0.03051182
181	0x3d66b59e	0.056325547
182	0xbb8356ce	-0.0040081507
183	0xbd6b3d75	-0.057431657
184	0x3d24045c	0.04004322
185	0x3df1e6ed	0.11811624
186	0xbcf59345	-0.02997745
187	0x3dc941ff	0.09827041
188	0x3d1fca4b	0.03901128
189	0x3e24f686	0.16109666
190	0xbdd83332	-0.1055664
191	0xbe5e1354	-0.2168706
192	0x3cbb8575	0.022890786
193	0xbdaeebc4	-0.085410625
194	0x3dd06b49	0.10176713
195	0x3d953b81	0.0728674
196	0x3bfb5a2f	0.007670663
197	0x3dd6922b	0.10477098
198	0x3e401241	0.18756963
199	0xbd0859a2	-0.033288606
200	0xbce0828b	-0.027405998
201	0xbd8c06c7	-0.0683723
202	0x3e319473	0.17341785
203	0xbd23f919	-0.04003248
204	0xbd56c433	-0.052433204
205	0x3df9042d	0.121589996
206	0x3d8dd87b	0.06926056
207	0x3dec1f31	0.11529387
208	0x3e7a717c	0.24457353
209	0x3e03d287	0.12873279
210	0x3e60f592	0.21968678
211	0x3e3117a3	0.17294173
212	0x3d399b23	0.045313966
213	0x3c9e2673	0.019305443
214	0x3e1385f9	0.14406575
215	0x3e2939d7	0.1652597
216	0x3b63f166	0.0034781336
217	0x3d427f04	0.047484413
218	0x3e2792e7	0.16364633
219	0x3d1d59ec	0.038415834
220	0x3e3b57b3	0.18295173
221	0x3da8d0d2	0.08242954
222	0xba68d2a5	-0.0008881486
223	0x3e0fee62	0.1405578
224	0xbd8a10df	-0.06741499
225	0x3e4b42bc	0.19849676
226	0x3dc2f47d	0.09519289
227	0x3cb33f7c	0.021880858
228	0xbe4b9cc9	-0.19884028
229	0xbdf536ee	-0.11973368
230	0x3e3373b2	0.17524603
231	0x3cc35952	0.023846302
232	0xbafac8c3	-0.0019133318
233	0xbdd03408	-0.10166174
234	0xbc8c0e45	-0.017096648
235	0xbdd860c8	-0.105653346
236	0xbdeb18e0	-0.11479354
237	0x3e611c29	0.21983398
238	0x3dc3a58e	0.095530614
239	0x3e30416e	0.1721246
240	0xbe36d367	-0.17854081
241	0xbe366c23	-0.17814688
242	0x3cd02884	0.025409944
243	0x3e477eb0	0.19481921
244	0x3bf890a5	0.0075856023
245	0x3e29cacd	0.16581269
246	0x3e499095	0.1968406
247	0xbdeb8530	-0.11500013
248	0xbc6b9ec8	-0.014381118
249	0x3e085f71	0.13317658
250	0x3e23333d	0.15937515
251	0xbd8c7cf0	-0.068597674
252	0x3df05cb2	0.1173643
253	0xbd22aed5	-0.039717514
254	0x3e8b95bb	0.27262673
255	0x3e907b5d	0.2821912

weight_hh_l0 f4 [128, 32]
0	0xbd8124bb	-0.06305834
1	0xbdd991b7	-0.10623496
2	0xbdbf4050	-0.093384385
3	0xbe6e8a7c	-0.23295015
4	0x3e2d408f	0.16919158
5	0x3d160cad	0.036633182
6	0x3d0efefd	0.034911145
7	0x3e3c7ccb	0.1840698
8	0x3bcd7360	0.0062698573
9	0x3e8e4e7c	0.27794254
10	0xbbc1b7e0	-0.005911812
11	0x3e2a9df3	0.16661815
12	0x3db3d55d	0.0878093
13	0xbdb5a66d	-0.08869634
14	0x3db2625f	0.08710169
15	0xbe8dc60f	-0.2769017
16	0xbd17876c	-0.036994383
17	0x3e73acf9	0.23796453
18	0xbcd3006f	-0.025757043
19	0xbde7c0cd	-0.11316071
20	0x3ded663f	0.115917675
21	0xbd3678c8	-0.04454878
22	0x3dde29d1	0.108478196
23	0x3cd65191	0.02616194
24	0x3e19987b	0.14999573
25	0x3b8a604a	0.0042229043
26	0xbe19f80c	-0.15036029
27	0x3e869cef	0.26291606
28	0x3c9f1059	0.019416975
29	0xbcb98e2b	-0.022650799
30	0xbdd9df9f	-0.106383555
31	0x3dced268	0.100987256
32	0xbe16556f	-0.14681028
33	0x3dd34950	0.103167176
34	0xbd86821e	-0.06567787
35	0xbdb27f71	-0.08715714
36	0x3e8097a0	0.2511568
37	0x3c600674	0.013673414
38	0x3df2e709	0.11860473
39	0xbe403c90	-0.18773103
40	0x3d1bc18b	0.038026374
41	0x3e0bfa39	0.13669671
42	0xbe264f2e	-0.16241142
43	0xbdc2fbb4	-0.09520665
44	0x3cba3e20	0.022734702
45	0xbe87a351	-0.26491788
46	0x3d4a41f7	0.049379315
47	0x3e2c2e20	0.1681447
48	0xbbe77301	-0.00706327
49	0xbe505438	-0.20344627
50	0x3e75f843	0.24020486
51	0x3d165343	0.0367005
52	0xbbfbafd9	-0.007680875
53	0xbe747709	-0.23873533
54	0x3e3fd0b3	0.18731956
55	0xbe737791	-0.2377608
56	0xbe85db9e	-0.26144117
57	0x3e1d4a40	0.15360355
58	0x3dd9042d	0.105964996
59	0x3e69078f	0.2275679
60	0x3e56d6f6	0.20980439
61	0x3e0afe46	0.1357356
62	0x3e9992b3	0.29994735
63	0xbda26375	-0.07929126
64	0xbe98de53	-0.2985712
65	0x3e04a92c	0.12955159
66	0xbd7e3c31	-0.06206912
67	0xbd30fd36	-0.04321023
68	0x3d82a11c	0.063783854
69	0xbdb70c27	-0.08937865
70	0xbd26a438	-0.040683955
71	0xbd6b447c	-0.05743836
72	0xbe4f4008	-0.2023927
73	0x3c00df51	0.007865743
74	0xbc87bbbb	-0.016569009
75	0x3e3144ae	0.17311355
76	0x3d70e8ee	0.05881589
77	0x3d18277f	0.03714704
78	0xbd0f8f7c	-0.035048947
79	0x3da3fb49	0.08006913
80	0x3ca79cfe	0.020460602
81	0xbe54a234	-0.20765
82	0xbcccee3b	-0.02501594
83	0x3db23b32	0.08702697
84	0x3cc984cf	0.02459946
85	0x3dc8f59f	0.098124735
86	0x3cd611d9	0.026131557
87	0x3e4dba3b	0.20090573
88	0x3d448177	0.04797503
89	0xbdd76f3f	-0.105192654
90	0xbd4030fd	-0.04692172
91	0xbdacee77	-0.08443921
92	0x3e1b7ac5	0.15183552
93	0x3cef54ff	0.029215334
94	0xbe1392df	-0.14411496
95	0x3e29e2e9	0.16590466
96	0xbca35100	-0.019936085
97	0xbe11c6f0	-0.14236045
98	0x3dafb9be	0.085803494
99	0xbd0206ae	-0.03174465
100	0x3e2dd6be	0.16976449
101	0x3d874d63	0.06606557
102	0xbe0b1e66	-0.13585815
103	0x3d9f6627	0.07783156
104	0x3e35b3ca	0.17744365
105	0xbcd06f6e	-0.025443759
106	0xbbaf6d59	-0.0053536114
107	0xbda304e5	-0.07959918
108	0x3e6c3df9	0.23070516
109	0x3c3f4384	0.011673812
110	0x3e3acc2a	0.18241945
111	0xbdaef3fa	-0.085426286
112	0xbc980143	-0.01855529
113	0x3e12f3f9	0.1435088
114	0x3eb19858	0.34686542
115	0x3dd57759	0.104231544
116	0x3e5d341e	0.21601912
117	0xbe31af18	-0.17351949
118	0x3e832664	0.25615227
119	0x3dc413d0	0.095740914
120	0xbea2ea8a	-0.31819564
121	0x3d3fddcb	0.046842378
122	0x3e236b91	0.15959002
123	0x3ceadb7e	0.028669115
124	0xbb696b99	-0.0035617112
125	0x3e46eb37	0.19425665
126	0xbb49c246	-0.0030785962
127	0xbe62a276	-0.22132286
128	0xbd9f65f8	-0.07783121
129	0xbc853d46	-0.016264569
130	0xbdb4b205	-0.08823017
131	0xbe1c58f8	-0.15268314
132	0x3e4d9489	0.20076193
133	0x3e210107	0.15723048
134	0xbd96b7d1	-0.07359279
135	0x3ce6bed0	0.028167158
136	0x3d6f737c	0.058459744
137	0xbbbce2c3	-0.005764337
138	0xbdfc6b21	-0.12325121
139	0xbe0f141e	-0.13972518
140	0xbe044fd8	-0.12921083
141	0xbd89abda	-0.06722231
142	0x3dc2b25b	0.09506675
143	0xbde9d56c	-0.1141766
144	0xbe2780ab	-0.16357677
145	0x3cef56de	0.029216226
146	0x3e699955	0.22812398
147	0xbdcaa5c8	-0.098949015
148	0x3e4f2e5f	0.20232533
149	0x3daedc16	0.08538072
150	0xbe2470b6	-0.16058621
151	0xbdb385aa	-0.08765729
152	0xbc1e6464	-0.00966749
153	0xbd8dd79f	-0.06925892
154	0xbda1805e	-0.07885812
155	0x3be1e5bf	0.006893843
156	0x3dc9b677	0.098492555
157	0x3dba4d76	0.09096806
158	0xbd92bb44	-0.07164624
159	0xbe19dc8b	-0.15025537
160	0xbe1a1851	-0.15048338
161	0x3e1036e9	0.14083447
162	0xbdc5396c	-0.09630093
163	0x3e41906e	0.18902752
164	0xbc33e11c	-0.010978963
165	0xbe10cc90	-0.14140534
166	0xbb01f30f	-0.0019828712
167	0xbda48ced	-0.08034692
168	0xbdd7dc09	-0.10540015
169	0x3e16de14	0.14733154
170	0xbcae5020	-0.021278441
171	0x3d5cdc55	0.053921062
172	0xbd907680	-0.07053852
173	0xbe419016	-0.1890262
174	0xbd361982	-0.04445792
175	0xbd46b036	-0.04850789
176	0xbd169a93	-0.036768507
177	0xbe0de9a8	-0.13858664
178	0x3da11fc7	0.07867389
179	0xbe063898	-0.13107526
180	0x3e1b2d59	0.15154018
181	0xbb99b58c	-0.0046908315
182	0x3e5e6847	0.21719466
183	0xbdd0629d	-0.10175059
184	0xbe569757	-0.20956169
185	0x3e33ca8f	0.17557739
186	0x3e647a6d	0.22312327
187	0x3e22a820	0.15884447
188	0x3db9baba	0.090688184
189	0x3e2ae002	0.16687015
190	0x3be17067	0.0068798545
191	0xbe23cb9d	-0.15995641
192	0x3d9a8389	0.075446196
193	0x3d3f5aab	0.046717327
194	0x3b73f225	0.0037223187
195	0xbbbd7466	-0.005781698
196	0xbcc1fc8a	-0.02367999
197	0x3db25412	0.087074414
198	0x3cf57e78	0.029967532
199	0xbe59ae7d	-0.21257968
200	0x3e4e630d	0.20154972
201	0x3d9560f7	0.07293885
202	0xbdbb9ae3	-0.09160402
203	0xbe36d229	-0.17853607
204	0x3e0af837	0.13571249
205	0xbc95c056	-0.01828019
206	0xbd439766	-0.047751807
207	0xbc01d685	-0.007924681
208	0x3ddac9c5	0.10683016
209	0x3e53e47e	0.20692632
210	0xbc082775	-0.008310189
211	0xbe493fcc	-0.19653243
212	0xbc93d84d	-0.018047476
213	0xbdb3e9a6	-0.08784799
214	0x3e43c8f8	0.19119632
215	0xbd508326	-0.050906323
216	0xbe10f95f	-0.14157628
217	0x3e4ff63c	0.20308775
218	0xbd832894	-0.06404224
219	0xbd258f40	-0.040419817
220	0xbda3ff0e	-0.08007632
221	0x3ceeb79f	0.029140292
222	0x3d436064	0.047699347
223	0x3c8e68af	0.017383901
224	0x3de02624	0.10944775
225	0xbb6bddeb	-0.0035990428
226	0xbbf94464	-0.0076070298
227	0x3e844102	0.25830847
228	0x3d92ff9c	0.0717766
229	0x3e26fe12	0.16307858
230	0xbe4327c8	-0.19058144
231	0xbe441247	-0.19147597
232	0xbd95b8ec	-0.07310662
233	0x3c811004	0.015754707
234	0xbe02be14	-0.12767822
235	0xbe08e43a	-0.13368312
236	0x3e241e49	0.16027178
237	0x3d5f656e	0.05454009
238	0xbdff27f4	-0.12458792
239	0xbda25c74	-0.0792779
240	0xbe0ec03a	-0.13940516
241	0xbdd6421f	-0.1046183
242	0xbcbff48b	-0.023432037
243	0x3a962f63	0.0011458214
244	0xbd95e409	-0.07318885
245	0xbd892f66	-0.06698494
246	0xbcc74de3	-0.024329131
247	0x3d856933	0.06514206
248	0xbe8bea6f	-0.27327296
249	0x3da22484	0.07917121
250	0xbc8d0ecf	-0.017218975
251	0x3dbc0e71	0.09182442
252	0x3e3379b6	0.17526898
253	0xbe114249	-0.14185442
254	0x3df63513	0.12021842
255	0xbd9b31c6	-0.07577853

bias_ih_l0 f4 [128]
0	0x3c6ca536	0.014443686
1	0x3c2f239f	0.010689645
2	0x3e072f2a	0.13201585
3	0x3e25d339	0.16193856
4	0x3e3161ba	0.17322436
5	0x3d4eacea	0.050457872
6	0x3e51c17f	0.20483969
7	0xbc660c67	-0.014041043
8	0x3e15a7d4	0.14614803
9	0xbcaee042	-0.021347169
10	0x3e92482b	0.28570685
11	0x3dcdbc83	0.100457214
12	0x3df759e1	0.1207769
13	0x3c3383cc	0.010956716
14	0xbc9051b1	-0.017617078
15	0x3e62f657	0.22164284
16	0x3d46fc92	0.048580714
17	0xbe110159	-0.1416067
18	0x3e30897d	0.17239948
19	0xbd908cc0	-0.07058096
20	0xbd9529b5	-0.072833456
21	0x3e038d2c	0.12846822
22	0x3dff8f6b	0.12478527
23	0x3e52e246	0.20594129
24	0x3d6bfc30	0.05761355
25	0xbdb2d5ea	-0.08732207
26	0x3e04c749	0.12966646
27	0xbd3cb314	-0.04606922
28	0xbc03aab6	-0.008036306
29	0x3d9b7e1c	0.07592413
30	0x3dc6fe47	0.09716468
31	0xbde791c2	-0.11307098
32	0x3dc399ee	0.09550844
33	0x3e467f68	0.19384539
34	0x3e382d6f	0.17986082
35	0x3e622900	0.22085953
36	0x3df32ec1	0.11874152
37	0xbdfbfee8	-0.12304479
38	0x3e294dae	0.16533539
39	0xbc75998c	-0.014990222
40	0xbdbb0b0a	-0.09132965
41	0x3da96874	0.08271876
42	0x3e0c57e2	0.137054
43	0x3da54088	0.08068949
44	0x3cfc8d06	0.030828964
45	0x3d4db789	0.05022386
46	0x3d4233e6	0.047412775
47	0x3e16005b	0.14648573
48	0xbd1cc001	-0.038269047
49	0x3e3084d7	0.17238174
50	0x3e52b07b	0.20575134
51	0x3c386e99	0.011256837
52	0x3e0c351d	0.13692136
53	0x3e0a3a4d	0.13498802
54	0x3e02c504	0.12770468
55	0x3e4b24c0	0.19838238
56	0x3e56eafe	0.2098808
57	0xbd8c601e	-0.068542704
58	0x3e515feb	0.20446746
59	0xbe0cf5b1	-0.13765599
60	0x3e12b0fd	0.14325328
61	0x3d19a894	0.037514284
62	0x3e8cc873	0.2749668
63	0xbd8173fc	-0.063209504
64	0xbdc1563c	-0.09440276
65	0x3ce8db06	0.028424751
66	0x3cffe032	0.031234834
67	0xbde69893	-0.1125957
68	0x3cc779dd	0.024350101
69	0xbd843e91	-0.06457246
70	0xbc01667b	-0.007897968
71	0xbda9f7c0	-0.08299208
72	0xbe38bf1a	-0.1804165
73	0xbe762fe0	-0.240417
74	0xbe7c6bb4	-0.2465046
75	0xbd25fa93	-0.04052217
76	0xbd84de5c	-0.06487724
77	0x3dbb7ea9	0.09155018
78	0x3cf83c81	0.030302288
79	0x3cf045e6	0.029330205
80	0xbe66620e	-0.22498342
81	0xbd9cb81d	-0.07652304
82	0x3e48389f	0.19552849
83	0xbe3d5f64	-0.1849342
84	0x3bf80a53	0.00756959
85	0xbde44dd6	-0.111476585
86	0x3dec2b2b	0.11531671
87	0xbddc5167	-0.10757714
88	0x3db28f9f	0.087188
89	0xbb725b13	-0.0036980554
90	0x3e3d238f	0.18470596
91	0x3e21f791	0.15817095
92	0x3c9cf8a8	0.019161537
93	0xbb2ab9d0	-0.0026050694
94	0x3e50ba09	0.20383467
95	0xbe27df4f	-0.16393779
96	0x3e658bd0	0.22416615
97	0x3de80d52	0.11330666
98	0xbc29df1f	-0.010368138
99	0x3c2979eb	0.010344009
100	0x3e114d86	0.14189729
101	0xbdd7891f	-0.10524201
102	0x3d7cc3e1	0.061710242
103	0xbc9a8053	-0.018860018
104	0x3dfb791b	0.122789584
105	0xbd0c9b6a	-0.034327902
106	0x3d935a01	0.07194901
107	0x3d8ba8d6	0.06819312
108	0x3dc5e4e6	0.096627995
109	0x3e07377c	0.1320476
110	0xbcbee773	-0.023303723
111	0x3d5e23f6	0.054233514
112	0x3e42a83b	0.19009487
113	0x3e60c532	0.21950224
114	0x3c14ef77	0.009090296
115	0x3e349be1	0.17637588
116	0x3d814d44	0.063135654
117	0xbd2a02c2	-0.041506536
118	0x3c76a87f	0.015054821
119	0x3e1c7987	0.15280734
120	0x3e5cc52a	0.21559587
121	0x3d806f06	0.06271176
122	0x3d02a4e7	0.031895544
123	0x3a55a019	0.00081491616
124	0xbd88caf1	-0.06679333
125	0x3dfac442	0.122444645
126	0xbcf50e66	-0.029914092
127	0x3e15b017	0.14617954

bias_hh_l0 f4 [128]
0	0xbc325cca	-0.01088638
1	0x3baedefe	0.0053366413
2	0xbe1b6a94	-0.15177375
3	0x3e7dd960	0.24789953
4	0xbe1f7dce	-0.15575334
5	0x3d2debd7	0.042461243
6	0x3e73c5a1	0.23805858
7	0xbc0cf971	-0.008604393
8	0x3e3780e2	0.17920259
9	0x3dfb33b9	0.12265725
10	0x3e148f3b	0.14507763
11	0xbdbdcf30	-0.092680335
12	0x3e560aea	0.20902601
13	0x3e3d4708	0.18484128
14	0xbd27ad02	-0.040936477
15	0x3e345871	0.17611863
16	0x3d690359	0.05688796
17	0xbe38a970	-0.18033385
18	0xbd0f7141	-0.035020117
19	0xbd0dea52	-0.034647293
20	0xbd75eaca	-0.060038365
21	0xbdcbded3	-0.0995461
22	0xbc9e732f	-0.019342033
23	0xbe043ecc	-0.1291458
24	0x3e3efac5	0.18650348
25	0x3e16e953	0.14737444
26	0x3dd88df1	0.10573948
27	0x3e0bc144	0.13647944
28	0x3cb77f21	0.022399487
29	0x3d82527a	0.063633874
30	0x3e25b237	0.16181265
31	0x3e004ec1	0.12530042
32	0x3e92de89	0.28685406
33	0x3ad8efd4	0.0016550967
34	0x3e7dcc12	0.24784878
35	0x3dd0bac3	0.10191872
36	0xbddfa645	-0.10920385
37	0x3cb63d60	0.022246063
38	0x3e089a3d	0.13340087
39	0xbbcd024e	-0.0062563783
40	0xbc928a3e	-0.017888185
41	0x3e41e71e	0.1893582
42	0x3d4f3e0b	0.05059628
43	0x3cee29c9	0.02907266
44	0x3c6cfc55	0.0144644575
45	0x3dd62a54	0.10457292
46	0xbd3bd00e	-0.045852713
47	0x3b0f46bd	0.0021862232
48	0xbdcaf916	-0.099107906
49	0xbd083fae	-0.033263855
50	0xbe004b9a	-0.1252884
51	0xbe0335b0	-0.12813449
52	0x3e76dd26	0.24107799
53	0x3e3852ab	0.18000285
54	0xbe0f41a2	-0.1398988
55	0xbd60fb49	-0.054927144
56	0x3e725584	0.23665434
57	0xbd57f3b7	-0.05272266
58	0xbc2491a9	-0.010044494
59	0x3d013701	0.031546596
60	0x3d8a9cfd	0.067682244
61	0xbd0dccd7	-0.03461918
62	0x3b888869	0.004166652
63	0x3ce6ed00	0.028189182
64	0x3b5d24bd	0.0033743822
65	0x3dcabba8	0.09899074
66	0x3d31910d	0.04335122
67	0xbe215ef0	-0.15758872
68	0x3da11d91	0.078669675
69	0x3e117f2b	0.14208667
70	0xbd4048ba	-0.046944357
71	0x3d3687d4	0.04456313
72	0xbe15439b	-0.1457657
73	0xbd9092fd	-0.07059286
74	0xbe313297	-0.17304455
75	0x3d40c84e	0.047066025
76	0xbd0842d7	-0.03326687
77	0xbe51a7da	-0.20474187
78	0xbe03b83c	-0.12863249
79	0xbe142d31	-0.14470364
80	0xbe6a4690	-0.2287848
81	0x3d9c274a	0.07624681
82	0x3d0fd89e	0.03511869
83	0xbe47aece	-0.19500276
84	0x3cd6720c	0.026177429
85	0xbe5ae7aa	-0.21377435
86	0x3dea1382	0.11429502
87	0x3d65b921	0.056084756
88	0xbe35f49b	-0.17769091
89	0xbd9738cb	-0.07383879
90	0x3c956004	0.01823426
91	0xbd1ad163	-0.037797343
92	0xbdddca46	-0.10829596
93	0x3d66267e	0.056189053
94	0x3e85c8b7	0.26129696
95	0x3cb7fec4	0.022460349
96	0x3e3f4796	0.18679652
97	0x3e6fc1b0	0.2341373
98	0x3e79bea3	0.24389128
99	0xbd530e0f	-0.05152708
100	0xbcb8d4dd	-0.022562439
101	0x3e07cb05	0.1326104
102	0xbd223d38	-0.039609164
103	0x3c914fe5	0.017738292
104	0x3e4c807b	0.19970886
105	0xbdf3c858	-0.11903447
106	0x3e0e1fe8	0.13879359
107	0x3d098e66	0.033583067
108	0x3e109545	0.14119442
109	0xbba3ca64	-0.004998492
110	0x3d4f3be8	0.05059424
111	0xbbfa039a	-0.007629824
112	0xbd73f42d	-0.059559036
113	0xbd68ac87	-0.05680516
114	0x3bc58409	0.0060277027
115	0x3e364794	0.17800742
116	0xbd0893df	-0.033344146
117	0xbd098898	-0.03357753
118	0x3e2c9cf3	0.16856746
119	0xbd72c039	-0.05926535
120	0xbd918ebf	-0.07107305
121	0xbd91da55	-0.07121722
122	0xbd43d4d9	-0.04781041
123	0x3e165b40	0.14683247
124	0x3e52930c	0.20563906
125	0x3e032fd2	0.12811211
126	0xbd2a8ff0	-0.041641176
127	0x3ea0d300	0.3141098

weight f4 [1, 32]
0	0x3cb06fbe	0.021537658
1	0xbde30de7	-0.11086636
2	0x3e246281	0.16053201
3	0x3de92899	0.113846965
4	0xbdb3acfb	-0.08773228
5	0xbd7161a4	-0.058931008
6	0xbe3b9d09	-0.18321623
7	0xbdaf4caf	-0.08559548
8	0x3db647b5	0.08900396
9	0x3dfe2ebb	0.12411257
10	0x3e62455c	0.22096771
11	0xbdf01044	-0.117218524
12	0x3e16e08f	0.147341
13	0x3e183bbc	0.14866537
14	0x3e05b473	0.13057117
15	0x3e387244	0.18012339
16	0x3d1e349a	0.038624384
17	0x3e0981fe	0.13428494
18	0xbe0f3681	-0.13985635
19	0xbe22b5f5	-0.15889724
20	0xbda24a0a	-0.07924278
21	0x3d7d46fa	0.061835267
22	0x3df5d682	0.12003805
23	0xbe11aa66	-0.14225158
24	0x3e006187	0.12537204
25	0x3df16d7f	0.11788463
26	0xbdc3df08	-0.09564024
27	0xbe211c3f	-0.15733431
28	0x3e2cb292	0.16864994
29	0x3e688bee	0.22709629
30	0xbde2978d	-0.11064062
31	0x3d2ca960	0.042153716
