checkpoints/highD_trajectron_model.pt (torch, 23455 bytes, 10 tensors)

weight_ih_l0 f4 [128, 2]
0	0x3c10c249	0.008835384
1	0x3e8a51f8	0.27015662
2	0x3ee84a66	0.45369262
3	0x3e49e930	0.1971786
4	0x3ebe61f4	0.37184107
5	0x3e2590aa	0.16168466
6	0x3b83c5d6	0.0040213866
7	0x3e50c919	0.20389213
8	0x3cae60d6	0.02128641
9	0xbdfb5504	-0.12272075
10	0xb99ec2b8	-0.00030281185
11	0x3d70b860	0.058769584
12	0x3e49b1a1	0.19696666
13	0x3e0a378b	0.1349775
14	0x3c9f4ac0	0.019444823
15	0x3e42c0cf	0.19018863
16	0x3d53f68b	0.051748794
17	0x3e2afb51	0.16697432
18	0x3c994dce	0.018713858
19	0x3e1d3662	0.15352777
20	0x3d6f0d0b	0.058362048
21	0x3e06cae3	0.13163333
22	0x3d5dae5b	0.054121356
23	0x3d81f863	0.06346204
24	0x3f811d80	1.0087128
25	0x3e9a7846	0.30169886
26	0x3c52ebeb	0.01287363
27	0x3ceb364b	0.028712412
28	0x3c0f1e72	0.008735286
29	0x3e4812a8	0.19538367
30	0x3e15ec84	0.14641005
31	0x3eb91aa6	0.36153144
32	0x3d457099	0.048203085
33	0x3e0ed04f	0.13946651
34	0x3aa0a51f	0.0012256241
35	0x3e45ac1d	0.19303937
36	0x3ca55bfc	0.020185463
37	0x3d444a86	0.047922634
38	0x3cea1de6	0.02857871
39	0x3df55dd4	0.11980787
40	0x3bb0d967	0.00539701
41	0x3de22d05	0.11043743
42	0x3bccc489	0.0062490148
43	0x3e236b45	0.15958889
44	0x3e5b0627	0.21389066
45	0x3e1b3297	0.15156017
46	0x3c1853ac	0.009297293
47	0xbd722263	-0.059114825
48	0x3af832ba	0.0018936016
49	0x3d1fcfc7	0.03901651
50	0x3d5ad0a9	0.05342165
51	0x3e24d53c	0.16096967
52	0x3d1a873b	0.037726622
53	0x3e4248c5	0.18973072
54	0xbb857e97	-0.0040739286
55	0x3df70b8a	0.12062748
56	0x3a0d18fc	0.0005382446
57	0x3de04a3f	0.10951661
58	0xba2846b3	-0.00064192264
59	0x3dc16939	0.09443898
60	0x3e5634d8	0.20918596
61	0x3e9a2a53	0.30110416
62	0x3db2a380	0.087225914
63	0x3ea2ab94	0.3177153
64	0x3cd6f61f	0.026240407
65	0x3d519530	0.051167667
66	0x3c12647c	0.00893509
67	0x3db72852	0.08943237
68	0x3beec0e6	0.007286179
69	0x3e18c3de	0.14918467
70	0x3cdbdfa4	0.026840039
71	0xbca0a89c	-0.01961165
72	0x3ba27ade	0.0049584946
73	0x3db6c688	0.089245856
74	0x3a0d727e	0.0005395784
75	0x3e146060	0.14489889
76	0x3cdb48b8	0.026768073
77	0x3d721b30	0.05910796
78	0xbb964ad8	-0.004586559
79	0x3dc0e859	0.09419317
80	0x3d589465	0.052875895
81	0x3d12a2c0	0.03579974
82	0x3d8b103d	0.067902066
83	0x3d4b3add	0.049616683
84	0xbbe9038a	-0.0071110176
85	0x3e5c957c	0.21541399
86	0x3e4f79bf	0.20261286
87	0x3df909d7	0.1216008
88	0x3ca625a6	0.020281624
89	0x3d673cc7	0.056454446
90	0x3a954c21	0.0011390486
91	0x3e500e7b	0.20318024
92	0x3c0556d2	0.008138375
93	0x3bfc3c20	0.007697597
94	0x3c50d605	0.012746339
95	0x3df16011	0.11785901
96	0x3ba13f9d	0.0049209134
97	0xbcbf59c3	-0.023358231
98	0x3c86c702	0.016452316
99	0x3e3c24a1	0.18373348
100	0x3d11d447	0.035602834
101	0xbd2178d8	-0.039421886
102	0x3bedc591	0.0072562178
103	0x3ddcfba6	0.10790186
104	0x3acdadc4	0.0015692045
105	0xbd9dfe94	-0.077145725
106	0x3b351691	0.0027631859
107	0x3e0179eb	0.12644164
108	0xbc179737	-0.009252361
109	0x3e54bd42	0.20775321
110	0x3b9edf7b	0.0048484183
111	0xbd492dbd	-0.049115885
112	0x3c75dc00	0.015006065
113	0x3daa0432	0.083015814
114	0x3ce26377	0.02763532
115	0x3eaa7aeb	0.33296904
116	0x3d085a69	0.033289347
117	0x3d2a12b9	0.04152176
118	0x3d022bea	0.03178016
119	0x3dc3c2ca	0.095586374
120	0x3ca83eee	0.02053782
121	0x3c139fbc	0.009010252
122	0x3c9d0ee1	0.019172134
123	0x3e0d9535	0.13826449
124	0xbb4f1ba9	-0.003160218
125	0x3df5a5ca	0.119945124
126	0xbb01635b	-0.0019743058
127	0x3d66ec0f	0.056377467
128	0x3f30a942	0.69008267
129	0x3dfa199c	0.12211916
130	0x3d80d172	0.062899485
131	0xbd9f5e08	-0.07781607
132	0xbddcd18e	-0.10782157
133	0x3dd3c98f	0.103411786
134	0x3e060198	0.13086545
135	0x3da7754c	0.081766695
136	0x3c7f613e	0.015587149
137	0x3c2a2554	0.010384876
138	0xbcad3226	-0.021142077
139	0xbd3ad90d	-0.045617152
140	0x3ccb9294	0.024850167
141	0xbd01853b	-0.0316212
142	0xbb10aee7	-0.0022076906
143	0x3dca83cb	0.09888419
144	0xbe99381a	-0.29925615
145	0xbdb874a5	-0.09006623
146	0x3e394edb	0.18096487
147	0xbcbf9243	-0.023385173
148	0xbc9e1f55	-0.01930205
149	0x3da88428	0.08228332
150	0x3d66f7df	0.056388732
151	0xbe6e30c6	-0.23260793
152	0xbc896721	-0.016772809
153	0xbd7cd4d7	-0.061726417
154	0xbd439820	-0.0477525
155	0x3df377d5	0.118880905
156	0xbac439e8	-0.0014970871
157	0xbe502397	-0.20326076
158	0xbce62cbd	-0.028097505
159	0xbcd662d5	-0.026170174
160	0x3c69ccbc	0.014270004
161	0xbddd7e41	-0.10815097
162	0x3d983013	0.074310444
163	0xbdf8df78	-0.12151998
164	0x3d050ff1	0.032485906
165	0x3dcfb5b0	0.10142076
166	0xbb66ab10	-0.0035197176
167	0x3e2632bf	0.16230296
168	0x3d6eca3a	0.058298327
169	0xbe227ed6	-0.15868697
170	0xbcb09b02	-0.021558288
171	0xbd3a6734	-0.04550858
172	0xbc6a52cf	-0.01430197
173	0xbe271586	-0.16316804
174	0x3c347f67	0.011016703
175	0xbe3b121e	-0.1826863
176	0x3d1c028b	0.038088363
177	0x3a018b9e	0.0004941764
178	0x3cee7e2a	0.029112894
179	0xbd0bdb8f	-0.034144934
180	0xbcd63854	-0.026149906
181	0x3c0023d8	0.007821046
182	0xbde63cff	-0.11242103
183	0x3e35edca	0.1776649
184	0x3c107ec0	0.008819282
185	0x3d97b6a1	0.074078806
186	0x3d9c43bf	0.07630109
187	0xbdbb577b	-0.09147545
188	0x3cbc04de	0.02295154
189	0x3c83da04	0.016095169
190	0xbc51287f	-0.012766003
191	0xbd0c118c	-0.03419642
192	0x3c92571b	0.0178638
193	0x3e5d411b	0.21606867
194	0x3e36a757	0.17837273
195	0x3e58706d	0.21136637
196	0x3d010ead	0.031508137
197	0x3e6d23c8	0.2315818
198	0x3df3a23a	0.11896177
199	0x3e854d44	0.26035511
200	0x3de1a6df	0.11018156
201	0x3de1539c	0.11002275
202	0x3df33c65	0.11876754
203	0x3e36de8f	0.17858337
204	0x3cd70e95	0.02625207
205	0x3e33a997	0.17545162
206	0x3de26fed	0.110565044
207	0x3e5d7919	0.21628226
208	0x3ce72072	0.028213713
209	0x3e5215aa	0.20516077
210	0x3bbf7da4	0.005843835
211	0x3e5f40b4	0.21802026
212	0x3c59156e	0.013249738
213	0x3e542c0f	0.20719932
214	0x3cb1f0d4	0.021721281
215	0x3e2aea4b	0.16690938
216	0x3cd4584a	0.025921006
217	0x3e3bc2c0	0.1833601
218	0x3e2ea025	0.17053278
219	0x3e310e40	0.17290592
220	0x3cc32957	0.023823423
221	0x3e3d7e42	0.18505195
222	0x3c3eb6c4	0.011640254
223	0x3e924214	0.2856604
224	0x3de39e8a	0.11114223
225	0x3ebfd70e	0.3746876
226	0x3c2e9a08	0.010656841
227	0x3e4129ec	0.18863648
228	0x3dc8d0a9	0.09805424
229	0x3e395510	0.18098855
230	0x3e93237f	0.2873802
231	0x3e1f8625	0.15578516
232	0x3eaff651	0.34367612
233	0x3e5c6b38	0.21525276
234	0x3e1d3732	0.15353087
235	0x3e3c1fe1	0.18371536
236	0x3c97883a	0.018497575
237	0x3e414b06	0.18876275
238	0x3ed0703a	0.40710622
239	0xbce9d7d4	-0.028545298
240	0x3c2df632	0.01061778
241	0x3e70840b	0.2348787
242	0x3d211d4d	0.039334584
243	0x3e2bb147	0.16766845
244	0x3dc1ae9c	0.09457132
245	0x3dfe7050	0.12423766
246	0x3f192d32	0.5983459
247	0x3e5110ed	0.20416613
248	0x3c94760f	0.018122701
249	0x3e6b0d1e	0.22954223
250	0x3d8a1b24	0.06743458
251	0x3e192df8	0.14958942
252	0x3c730557	0.014832816
253	0x3db922c8	0.09039837
254	0x3d14a33f	0.036288496
255	0x3e3cf8b1	0.18454243

weight_hh_l0 f4 [128, 32]
0	0x3e5a519c	0.21320194
1	0x3eb44889	0.3521159
2	0xbe615ff5	-0.22009261
3	0xbe3ac666	-0.18239745
4	0x3e332506	0.17494592
5	0xbe076af5	-0.13224395
6	0x3dc32507	0.09528547
7	0xbcb1cf6a	-0.021705348
8	0xbe1698d9	-0.14706744
9	0x3f047826	0.5174583
10	0xbe0a5798	-0.13509977
11	0x3e19ba2e	0.15012428
12	0xbdf193ec	-0.11795792
13	0xbe01c363	-0.1267219
14	0x3eb047ab	0.34429678
15	0xbe226af9	-0.1586112
16	0x3ec4ef4b	0.38463816
17	0x3e077cf8	0.13231266
18	0xbf05d29d	-0.52274495
19	0xbec3b60d	-0.3822483
20	0x3cb31fdb	0.021865776
21	0x3d423f91	0.047423903
22	0xbea9c614	-0.33158934
23	0x3e9ab098	0.30212855
24	0xb9adf22a	-0.00033177558
25	0x3d50b4d2	0.050953694
26	0xbe79962b	-0.24373691
27	0xbeea1cf1	-0.45725206
28	0xbe129d76	-0.14317879
29	0x3e0b2d12	0.13591412
30	0x3e593a74	0.21213704
31	0xbde660e3	-0.112489484
32	0xbc53a63c	-0.012918051
33	0x3f33e90e	0.7027749
34	0xbddf0d34	-0.1089119
35	0xbe080d64	-0.13286358
36	0x3e461408	0.19343579
37	0xbed7f1a9	-0.4217656
38	0x3e818a60	0.25300884
39	0xbe2af39f	-0.16694497
40	0x3ed7760a	0.42082244
41	0x3f1f2e0e	0.6217965
42	0x3b88144d	0.0041528107
43	0xbc55c382	-0.013047101
44	0xbe96c6bf	-0.29448506
45	0xbd9cc472	-0.076546565
46	0x3e2e5421	0.1702428
47	0xbe9622c8	-0.2932341
48	0x3bb4ab28	0.0055135675
49	0x3de8fec2	0.11376716
50	0x3ce38b06	0.027776252
51	0xbdb03287	-0.08603387
52	0xbdd00d93	-0.10158839
53	0xbcc2fafc	-0.02380132
54	0xbd9afc47	-0.07567649
55	0x3e82ec8b	0.25571093
56	0x3ece82e9	0.40334252
57	0x3e54ea6b	0.20792548
58	0xbdb0485c	-0.086075515
59	0x3c1a84ee	0.009431107
60	0x3e341280	0.17585182
61	0x3eb5500d	0.35412636
62	0x3e716a54	0.23575717
63	0xbe800083	-0.2500039
64	0x3edf09ad	0.4356207
65	0x3eba476e	0.36382622
66	0xbdaf4788	-0.085585654
67	0xbe3ef5e0	-0.18648481
68	0x3e2ab3ff	0.16670226
69	0xbebce764	-0.36895287
70	0xbe062c55	-0.13102849
71	0xbe5d5129	-0.21612991
72	0xbdef92c5	-0.11697916
73	0x3f0b6145	0.54445297
74	0x3e7404d8	0.23829973
75	0xbe31da7a	-0.17368498
76	0xbe403245	-0.18769176
77	0xbe31bcea	-0.17357221
78	0xbe04064b	-0.12893026
79	0x3cecebcb	0.028921029
80	0xbeae833d	-0.34084502
81	0x3d67d4e9	0.05659953
82	0x3d45f0a2	0.04832519
83	0xbf014335	-0.50493175
84	0xbd94034e	-0.07227193
85	0xbef2ce7c	-0.4742316
86	0xbe6fc04d	-0.234132
87	0x3e77d1e6	0.24201164
88	0x3dac2e6d	0.084072925
89	0xbe196ed2	-0.14983681
90	0xbe8f25cc	-0.27958524
91	0xbe331d1a	-0.1749157
92	0x3e5e68d5	0.21719678
93	0x3dc27d8a	0.09496601
94	0x3d9ab991	0.07554925
95	0xbdc452fa	-0.09586139
96	0xbf019319	-0.5061508
97	0x3e288e98	0.16460645
98	0xbe0382e3	-0.12842898
99	0xbe464141	-0.1936083
100	0xbd292351	-0.041293446
101	0xbd91e283	-0.07123282
102	0x3d58f446	0.052967332
103	0x3e448afa	0.1919364
104	0x3d9e6406	0.07733922
105	0x3e5a47bc	0.21316427
106	0x3df07e5a	0.1174285
107	0x3f228079	0.63477284
108	0xbf22678c	-0.6343925
109	0xbd0ff596	-0.03514632
110	0x3f22758c	0.6346061
111	0xbe7bfacf	-0.24607395
112	0x3d4eb9d2	0.05047018
113	0x3f4bdddf	0.79635423
114	0x3c09bf29	0.008407393
115	0xbe80979f	-0.25115678
116	0x3e1d2c03	0.1534882
117	0x3e39e828	0.18154967
118	0xbe5a6b4d	-0.21329994
119	0x3e88dc57	0.26730606
120	0x3da7caaf	0.08192956
121	0x3e03349f	0.12813042
122	0xbde2d859	-0.11076421
123	0x3e158d1a	0.14604607
124	0xbee40053	-0.44531497
125	0x3e4e564b	0.20150106
126	0x3e19a8f1	0.15005852
127	0xbeef36c6	-0.46721476
128	0xbc37f34a	-0.011227438
129	0xbea5194a	-0.32245857
130	0x3eb1d847	0.3473532
131	0x3e03fe0e	0.12889883
132	0x3ebbead9	0.36702612
133	0xbec48116	-0.38379735
134	0xbe0c6660	-0.13710928
135	0x3cc511c1	0.024056317
136	0xbe69a985	-0.22818573
137	0xbef881f1	-0.48536637
138	0x3f1a2380	0.6021042
139	0xbe598f3e	-0.21246049
140	0xbe0ff98e	-0.14060041
141	0x3e796faf	0.2435901
142	0xbe47133b	-0.1944093
143	0xbf23846e	-0.63873947
144	0xbe87545b	-0.26431546
145	0xbf1ffd68	-0.6249604
146	0x3e8e1f68	0.27758336
147	0xbdd76d32	-0.10518874
148	0xbe9ff5d1	-0.3124223
149	0xbe8c8569	-0.27445534
150	0xbcec4dde	-0.028845724
151	0x3da11487	0.078652434
152	0xbe5d1a9c	-0.21592182
153	0x3ddc859a	0.1076767
154	0xbe57aae1	-0.21061279
155	0x3e950c89	0.29111126
156	0xbd858cc2	-0.06520988
157	0xbef0fa99	-0.4706619
158	0x3f56ecc3	0.8395502
159	0xbf34e861	-0.7066708
160	0xbe193037	-0.14959799
161	0x3cd4b3d5	0.025964657
162	0x3e338f40	0.17535114
163	0xbe9bf756	-0.3046214
164	0xbdc8ebfb	-0.09810635
165	0xbdbac9b5	-0.09120504
166	0xbf00b3b6	-0.5027422
167	0xbe7aa7a4	-0.24478012
168	0x3d9dac33	0.0769886
169	0xbdbddd40	-0.09270716
170	0xbf24a8e8	-0.6432023
171	0xbe32a00c	-0.17443866
172	0x3daaaa12	0.083332196
173	0xbca75b36	-0.020429235
174	0x3e03960b	0.12850206
175	0x3d86f2f4	0.065893084
176	0x3f1dfa4e	0.6171006
177	0xbe17e7ac	-0.1483447
178	0x3e9d6b6b	0.30746016
179	0xbe075bbf	-0.13218592
180	0xbcf11043	-0.0294267
181	0xbe8c7709	-0.27434567
182	0x3e438989	0.19095434
183	0x3e8bd3cf	0.27310035
184	0xbf4ce6e7	-0.8003983
185	0xbd720aa0	-0.059092164
186	0x3d285d2b	0.041104477
187	0xbe10dd4a	-0.14146915
188	0x3ea95423	0.33072004
189	0x3e871dbb	0.2638987
190	0x3e0c5962	0.13705972
191	0xbf072915	-0.5279706
192	0x3f76491a	0.96205294
193	0x3dd46924	0.103716165
194	0xbd96a857	-0.07356327
195	0xbbc247ac	-0.005928954
196	0xbdd5e9c2	-0.104449764
197	0xbe884ad7	-0.26619598
198	0xbf2a8ecc	-0.6662414
199	0xbe9077eb	-0.2821649
200	0xbe165631	-0.14681317
201	0xbde2d294	-0.11075321
202	0x3ec6731b	0.38759694
203	0xbf0837fe	-0.5321044
204	0xbd768605	-0.060186405
205	0x3f10a3ba	0.56499827
206	0xbe92941c	-0.28628623
207	0x3ecab1a3	0.3958865
208	0xbd919b31	-0.071096785
209	0xbea0cd91	-0.31406835
210	0xbed9ab9b	-0.42513737
211	0xbf84bb99	-1.036975
212	0x3d996ab0	0.07491052
213	0xbf195a72	-0.59903634
214	0x3f14c32b	0.581103
215	0x3e78bb8d	0.24290295
216	0xbe892303	-0.26784524
217	0xbf3341c4	-0.70022225
218	0xbe53840c	-0.2065584
219	0xbdf4cac3	-0.11952736
220	0x3f0d569d	0.55210286
221	0xbf0190a5	-0.50611335
222	0x3e6688b9	0.22513093
223	0xbe4093c9	-0.18806376
224	0x3ffdf497	1.9840268
225	0xbdceb885	-0.10093788
226	0xbda6fc2e	-0.08153568
227	0x3dc14918	0.0943777
228	0x3dc28fd4	0.09500089
229	0xbd6c5141	-0.057694677
230	0xbd3630cc	-0.04448013
231	0xbce1ef78	-0.027580008
232	0xbde80b5f	-0.11330294
233	0x3de4be64	0.11169127
234	0xbca26cf9	-0.019827353
235	0x3df742c1	0.12073279
236	0xbe6f5265	-0.23371275
237	0xbdbed7d6	-0.09318511
238	0xbe0afff1	-0.13574196
239	0xbe0f6fac	-0.14007443
240	0x3d2a597d	0.04158925
241	0x3e0ca26e	0.13733837
242	0x3e6479e9	0.2231213
243	0x3d122964	0.035684004
244	0x3c8ec642	0.017428521
245	0xbe2084a5	-0.156756
246	0xbec4089a	-0.38287812
247	0xbdb74c96	-0.089501545
248	0x3df7a0f2	0.12091245
249	0x3e1bbe43	0.15209298
250	0xbe6d94f0	-0.23201346
251	0xbd024ccd	-0.031811524
252	0x3ec757ad	0.3893408
253	0x3e1fe1aa	0.15613428
254	0x3d5e4159	0.05426154
255	0xbe5739f6	-0.21018204

bias_ih_l0 f4 [128]
0	0xbdec8c87	-0.11550241
1	0xbf889d92	-1.0673087
2	0xbf456a8f	-0.7711572
3	0x3e4f6afe	0.20255658
4	0xbf0a0058	-0.53906775
5	0x3e9775b9	0.29582003
6	0x3e65c3e0	0.22438002
7	0x3e5aade3	0.21355395
8	0x3e31fc3c	0.17381376
9	0xbe129f75	-0.1431864
10	0x3c95af47	0.018272055
11	0xbde819b8	-0.113330305
12	0xbe267f2a	-0.16259447
13	0x3ecf1892	0.40448433
14	0x3e18a1e1	0.14905502
15	0x3f7cb50e	0.9871377
16	0xbe32e91e	-0.1747174
17	0x3dbaa7ff	0.09114074
18	0x3d76d1b1	0.06025857
19	0x3ecc84c6	0.39945048
20	0x3deeb028	0.11654693
21	0x39e77ef3	0.00044154338
22	0xbf3de520	-0.7417774
23	0xbb8aefb3	-0.00424
24	0x3dcdcce4	0.100488454
25	0xbf7c4007	-0.985352
26	0xbe5f9574	-0.21834356
27	0x3e6c02ef	0.23047994
28	0x3d42da28	0.04757133
29	0xbb8bfb6d	-0.0042719156
30	0x3dc580d5	0.096437134
31	0xbf00d8e8	-0.5033097
32	0x3ea41f54	0.3205515
33	0xbe3ad8ac	-0.18246716
34	0x3c8c6672	0.017138693
35	0x3e584718	0.2112087
36	0xbd925324	-0.07144764
37	0x3e31b364	0.17353588
38	0x3e3a4705	0.18191154
39	0x3dcc15a9	0.09965069
40	0xbe078254	-0.1323331
41	0x3e23dde8	0.1600262
42	0xbb272d4c	-0.0025509177
43	0xbd80e30b	-0.06293305
44	0x3e2b402f	0.16723703
45	0xbd0bd538	-0.034138888
46	0x3e1b4d41	0.15166189
47	0xbe73b400	-0.23799133
48	0xbd800d45	-0.06252531
49	0xbeafe81a	-0.34356767
50	0x3de3a7a8	0.11115962
51	0x3e5d1c68	0.21592867
52	0xbd7c18d4	-0.061547115
53	0xbcb26325	-0.021775791
54	0xbdda6754	-0.106642395
55	0xbc108c94	-0.008822579
56	0xbdcb435f	-0.099249594
57	0x3ee9e7e9	0.45684746
58	0xbe6573a9	-0.22407402
59	0x3ceb1bdd	0.02869981
60	0xbc801d85	-0.015639076
61	0xbbe4f74f	-0.0069874893
62	0x3e076928	0.13223708
63	0xbd088e7b	-0.033339005
64	0xbf725090	-0.9465418
65	0xbf1c4311	-0.61039835
66	0xbcd9e969	-0.026600556
67	0x3e797faf	0.24365114
68	0xbc7766f0	-0.015100226
69	0x3e5287f7	0.20559679
70	0xbee6e75a	-0.45098382
71	0xbe43fd1b	-0.19139521
72	0xbe49b96f	-0.19699644
73	0xbf2a7be3	-0.66595286
74	0x3e14fd9d	0.14549871
75	0xbea60cce	-0.32431644
76	0x3e8d2985	0.2757074
77	0x3eada63b	0.33915886
78	0xbeb664a0	-0.35623646
79	0x3f45f2e6	0.7732376
80	0x3d8bb383	0.068213485
81	0xbf390f22	-0.72288716
82	0xbd558f58	-0.052138656
83	0xbdb386c9	-0.087659426
84	0xbedbaf01	-0.42906955
85	0xbe2461a5	-0.16052873
86	0xbd2e810b	-0.042603534
87	0x3dcf16a2	0.10111739
88	0xbf868592	-1.0509512
89	0xbf3f3490	-0.7468958
90	0x3def5abf	0.1168723
91	0xbd810a6e	-0.063008174
92	0x3d9e1d7b	0.07720467
93	0xbf47261e	-0.7779254
94	0xbd9633aa	-0.07334073
95	0xbdb0ff59	-0.08642454
96	0x3ea2464a	0.3169425
97	0xbf754b54	-0.95818067
98	0xbea5a942	-0.32355696
99	0x3f76acb2	0.9635726
100	0x3d19571e	0.037436597
101	0x3e05af5b	0.13055174
102	0x3da596f9	0.080854364
103	0x3ea56a52	0.32307678
104	0x3e51d080	0.20489693
105	0x3e18e180	0.14929771
106	0xbe2cd7c9	-0.1687919
107	0x3d2a452e	0.04156988
108	0x3e9d6c2b	0.30746588
109	0xbedfeb74	-0.43734324
110	0xbcf39529	-0.029734211
111	0x3eddd56f	0.433269
112	0xbea2177d	-0.31658545
113	0x3d4a9b66	0.049464606
114	0x3ec3a1ba	0.38209325
115	0x3f77af21	0.967516
116	0xbf9ff5f5	-1.2496935
117	0xbea55cd0	-0.32297373
118	0x3defb364	0.11704138
119	0x3e9f1dbd	0.31077376
120	0x3cf3af5d	0.029746706
121	0x3e5f6733	0.21816711
122	0xbe00f0e6	-0.12591895
123	0xbf830ecb	-1.023889
124	0xbca8c1d0	-0.02060023
125	0x3e735fef	0.23767065
126	0x3e86b9cd	0.2631363
127	0xbde27326	-0.11057119

bias_hh_l0 f4 [128]
0	0xbdad78a0	-0.08470273
1	0xbf9f19b4	-1.2429719
2	0xbf646dbf	-0.8922996
3	0xbd8b0612	-0.06788267
4	0xbf126f85	-0.57201415
5	0x3d820df2	0.06350316
6	0x3e440c42	0.19145301
7	0x3e1e4ce8	0.15459025
8	0x3e62cdb3	0.2214878
9	0xbeb80f9f	-0.35949418
10	0xbde3ccc2	-0.11123039
11	0xbded308c	-0.11581525
12	0xbe874db3	-0.26426467
13	0x3e4d36ff	0.2004051
14	0x3e799eed	0.24377032
15	0x3f9b7862	1.2146113
16	0xbd98f146	-0.07467894
17	0x3e9edc9b	0.31027684
18	0x3dcf7906	0.10130505
19	0x3eba0f32	0.36339718
20	0x3e6e8f57	0.23296867
21	0xbda3a60d	-0.07990656
22	0xbf22130f	-0.6331033
23	0x3e3d6a5b	0.18497603
24	0x3e2a3daf	0.16625093
25	0xbf745c7f	-0.9545364
26	0xbe4af88a	-0.19821373
27	0x3e82c01c	0.25537193
28	0x3e88d5d1	0.2672563
29	0x3e92d44a	0.2867759
30	0x3d60f986	0.054925464
31	0xbf2137d9	-0.6297584
32	0x3e3a15f3	0.18172435
33	0xbec49aed	-0.3839945
34	0xbdd7a3d5	-0.10529295
35	0x3e1c7b95	0.15281518
36	0x3e2d22fe	0.1690788
37	0x3dfd4b40	0.123678684
38	0x3d4e59a3	0.050378453
39	0x3e23888d	0.15970059
40	0x3d1c87ad	0.038215328
41	0x3ea3d289	0.31996563
42	0x3e2494df	0.16072415
43	0x3deaf492	0.11472429
44	0xbd98e897	-0.07466238
45	0x3e086f08	0.13323605
46	0x3d8386ce	0.06422196
47	0x3c5f20f6	0.013618698
48	0xbd596b40	-0.053080797
49	0xbe8a21bb	-0.2697886
50	0x3db6926b	0.08914646
51	0x3e0b7b66	0.13621292
52	0x3e8a33a7	0.26992533
53	0x3de27055	0.11056582
54	0x3d80b332	0.06284179
55	0x3d9470f2	0.07248105
56	0x3d665657	0.056234684
57	0x3e6af54a	0.22945133
58	0xbded9560	-0.11600757
59	0xbd9fd72f	-0.07804715
60	0xbc3012f0	-0.010746703
61	0xbd353fd0	-0.04425031
62	0x3d4fb45b	0.05070911
63	0x3e03c197	0.12866817
64	0xbf68688f	-0.90784544
65	0xbf384d06	-0.7199253
66	0x3dd53cef	0.10412013
67	0x3eb88c31	0.36044458
68	0xba17b5e4	-0.00057872967
69	0x3e90bfd0	0.2827134
70	0xbecff8df	-0.4061956
71	0x3ccba353	0.024858152
72	0xbb002a71	-0.0019556547
73	0xbf34a0fd	-0.7055815
74	0x3e7c2bfd	0.24626155
75	0xbe17f6fb	-0.1484031
76	0x3e013467	0.12617646
77	0x3eeab18d	0.45838585
78	0xbe8126e2	-0.25224978
79	0x3f251d12	0.6449748
80	0x3c590c4b	0.01324756
81	0xbf314dd3	-0.69259375
82	0xbde30066	-0.1108406
83	0xbe931649	-0.2872794
84	0xbf01168f	-0.50425047
85	0xbddb3e0b	-0.10705193
86	0xbbfdd964	-0.0077468622
87	0x3d41b7f5	0.047294576
88	0xbf4a357a	-0.7898785
89	0xbf6be168	-0.9214082
90	0x3e7f11cb	0.24909131
91	0x3d9d23f2	0.07672872
92	0x3e251e2c	0.16124791
93	0xbf2fb23e	-0.6863135
94	0xbe58bb49	-0.21165194
95	0x3dad0f36	0.08450167
96	0x3ea9c679	0.33159235
97	0xbf848d94	-1.0355706
98	0xbbb4b51d	-0.0055147544
99	0x3f6c4150	0.9228716
100	0x3dd81aa2	0.10551955
101	0x3e4cc259	0.19996013
102	0x3ed8a830	0.42315817
103	0x3eaa1963	0.33222494
104	0x3c6b1b88	0.014349826
105	0x3b9f2cc1	0.00485763
106	0x3d812bbc	0.0630717
107	0x3e64d383	0.2234631
108	0x3e396265	0.18103941
109	0xbf125b70	-0.5717077
110	0x3df467b6	0.11933844
111	0x3e6066fa	0.21914282
112	0xbe9a215f	-0.30103585
113	0x3e206142	0.15662101
114	0x3e99d79c	0.3004731
115	0x3f8d4e52	1.1039526
116	0xbf932971	-1.1497022
117	0xbdbae8d4	-0.0912644
118	0x3eab3ee8	0.3344643
119	0x3e0e2b7e	0.13883778
120	0xbdaced4b	-0.084436975
121	0x3eb270e7	0.34851763
122	0xbe0c3b8f	-0.13694595
123	0xbf845275	-1.0337664
124	0x38d5ef2d	0.000102011814
125	0x3d0bfa48	0.034174234
126	0x3e87155d	0.26383486
127	0x3cd02a0b	0.025410673

weight_ih_l0 f4 [32, 2]
0	0xbe14658c	-0.14491862
1	0x3ecc9c95	0.39963213
2	0x3cf3b61a	0.029749919
3	0xbde13b2a	-0.10997613
4	0x3c0a8c7e	0.0084563475
5	0xbb82d0a5	-0.0039921575
6	0xbb8e3cd3	-0.004340747
7	0x3d605977	0.05477282
8	0x3d00721a	0.031358816
9	0xbd07c471	-0.033146325
10	0x3f009b0b	0.50236577
11	0x3e4d4fd2	0.2004998
12	0x3e891a3a	0.26777822
13	0x3e29e003	0.1658936
14	0xbb24dd5f	-0.0025156362
15	0xbd58c13c	-0.052918658
16	0x3dec51cb	0.11539038
17	0xbe02e155	-0.1278127
18	0x3d18e469	0.037327204
19	0xbec713b7	-0.3888223
20	0x3d23adbe	0.039960615
21	0xbd722d89	-0.059125457
22	0x3ebe1948	0.37128663
23	0x3dc4c3b3	0.09607639
24	0xbe18551e	-0.1487622
25	0x3e53b1c3	0.2067328
26	0x3f287688	0.65805864
27	0x3c9ab9cc	0.018887423
28	0xbe5ce105	-0.21570213
29	0x3de5e19d	0.11224673
30	0x3e6ad2ac	0.22931927
31	0xbdece037	-0.11566203
32	0x3dc8e252	0.09808792
33	0xbe3f638d	-0.1869032
34	0xbed7ab27	-0.42122766
35	0xbdb6d824	-0.08927944
36	0x3ab41381	0.0013738723
37	0xbb55a882	-0.003260166
38	0xbeb59dae	-0.35471863
39	0x3d33d868	0.043907553
40	0x3c84af64	0.016196914
41	0xbdb712f3	-0.08939161
42	0x3ee17edb	0.44042096
43	0x3e2b6bb4	0.16740304
44	0xbec0aceb	-0.37631926
45	0xbe61a3cb	-0.22035138
46	0x3ed18455	0.40921274
47	0x3d50744c	0.05089216
48	0xbd4eaa26	-0.050455235
49	0xbd9e4a91	-0.07729066
50	0x3d8d325c	0.06894371
51	0xbd10ad99	-0.035321806
52	0x3d80b01a	0.06283589
53	0x3deb59b1	0.11491717
54	0x3e519d1d	0.2047009
55	0x3f08e2dc	0.5347116
56	0x3dde05a2	0.10840918
57	0xbccdb593	-0.025110995
58	0x3d16564f	0.036703404
59	0x3e89e1de	0.26930135
60	0x3da2cd3f	0.07949304
61	0x3cc01b1a	0.023450423
62	0x3f5cfe7a	0.863258
63	0x3e2b1e15	0.16710694

weight_hh_l0 f4 [32, 8]
0	0xbe167533	-0.14693145
1	0xbdde54f6	-0.10856049
2	0xbdb549ff	-0.08852004
3	0x3e9aab72	0.30208927
4	0x3e6ace07	0.22930156
5	0x3d6ee3e9	0.05832282
6	0xbe9ed7b4	-0.31023943
7	0x3e824cf4	0.25449336
8	0xbeaab827	-0.33343622
9	0xbefeda39	-0.49775866
10	0x3f15aed3	0.58469886
11	0x3d9e0bd4	0.077171
12	0x3f084e27	0.5324425
13	0x3e2826fe	0.16421124
14	0xbee0fd3a	-0.43943197
15	0x3e712aca	0.23551479
16	0x3f0ed4fa	0.55793726
17	0xbcffd581	-0.031229736
18	0x3f6149a2	0.8800298
19	0x3f402697	0.75058883
20	0xbc9fc111	-0.01950124
21	0xbf7a6b30	-0.97819805
22	0x3cb1cdf7	0.021704657
23	0xbf9b9703	-1.215546
24	0x3deb3f3d	0.11486671
25	0xbe364981	-0.17801477
26	0x3f726e6c	0.9469974
27	0xbeae58c7	-0.34052107
28	0xbf0b6070	-0.54444027
29	0xbe51a950	-0.20474744
30	0x3e8ea426	0.2785961
31	0x3ea0f32f	0.31435534
32	0xbec0b865	-0.37640682
33	0xbf01d9f0	-0.5072317
34	0x406543ab	3.5822551
35	0x3f3a5081	0.7277909
36	0xbecf9dc3	-0.4055005
37	0xbf5ec191	-0.8701411
38	0x3e0f331c	0.1398434
39	0xbef8fbf5	-0.48629728
40	0xbe3edecb	-0.18639676
41	0x3e5e4305	0.21705253
42	0x3d8d63b8	0.069037855
43	0x3c0cf9a2	0.008604439
44	0x3e251a0e	0.1612322
45	0x3e285c45	0.16441448
46	0xbe1a6d1e	-0.15080687
47	0xbdab2868	-0.08357316
48	0xbe43ea9e	-0.19132468
49	0x3cf92d1e	0.030417021
50	0x3dabbb16	0.08385293
51	0xbeafc7df	-0.34332177
52	0xbea2e803	-0.31817636
53	0x3eca708a	0.39538985
54	0x3c904d43	0.017614966
55	0x3f0c0f3a	0.54710734
56	0x3e8402c3	0.25783357
57	0x3e2dd9df	0.16977642
58	0xbebc2828	-0.36749387
59	0xbf183137	-0.59450096
60	0xbed64881	-0.4185219
61	0x3ee6d43a	0.4508379
62	0xbe46dd8a	-0.19420448
63	0x3f15bd54	0.58492017
64	0x3e8b669a	0.27226716
65	0x3cf88bb2	0.03034005
66	0x3e10f4bf	0.14155863
67	0xbe1c397f	-0.15256308
68	0x3ddcbab9	0.10777802
69	0x3e321f94	0.17394859
70	0xbebb9095	-0.36633745
71	0x3ec32c74	0.38119853
72	0xbe302e7c	-0.17205232
73	0xbe1759de	-0.14780375
74	0x3ea31865	0.3185455
75	0x3dadfaa4	0.084950715
76	0x3e9afbd3	0.30270252
77	0xbea824b6	-0.32840508
78	0x3e088c06	0.13334665
79	0x3d132052	0.035919495
80	0x3ef322ed	0.47487584
81	0x3e7a575f	0.24447392
82	0xbe7d108a	-0.2471334
83	0xbecee602	-0.40409857
84	0x3dd7260e	0.10505305
85	0x3f0787ca	0.5294157
86	0x3ebe84c2	0.3721066
87	0xbe0c4a31	-0.13700177
88	0xbeb55618	-0.35417247
89	0xbe8574b0	-0.26065588
90	0xbf595443	-0.848942
91	0xbec5c825	-0.3862926
92	0xbe172bbc	-0.14762777
93	0x3f0e24b1	0.55524737
94	0x3e8d09f8	0.27546668
95	0x3f26de0f	0.65182585
96	0x3e870ed5	0.26378503
97	0x3ea9d10b	0.331673
98	0x3ee6b9bf	0.45063588
99	0x3ed873be	0.42275804
100	0xbecdb5e2	-0.40177828
101	0xbeadfd4a	-0.33982307
102	0x3d69f791	0.057120863
103	0xbf5e99e9	-0.869536
104	0xbeb01e78	-0.34398246
105	0xbeaba8a3	-0.33527097
106	0x3e9742ee	0.2954325
107	0x3ea6edaa	0.32603198
108	0x3d004e42	0.031324632
109	0x3c17d6d7	0.00926753
110	0xbeb2e74b	-0.34942088
111	0xbda68c46	-0.08132224
112	0x3eb4996b	0.352733
113	0xbf56e828	-0.8394799
114	0x3e5f62fa	0.218151
115	0x3ce2bef7	0.02767895
116	0xbf0b39be	-0.5438498
117	0x3e5f55e6	0.21810111
118	0xbeb5c712	-0.3550344
119	0x3e996196	0.29957265
120	0xbe17ccee	-0.14824268
121	0xbf001e49	-0.5004621
122	0x3ee250cf	0.44202277
123	0xbd2e2585	-0.04251625
124	0x3e72e979	0.23721875
125	0xbe825fcb	-0.2546371
126	0x3e5d9b49	0.21641268
127	0x3d3c9b2e	0.04604643
128	0x3e927841	0.2860737
129	0xbe4b34d6	-0.19844374
130	0x3ec5d5a6	0.38639563
131	0xbe82117f	-0.25403973
132	0xbe397b23	-0.18113379
133	0x3e628383	0.2212048
134	0xbebf4208	-0.37355065
135	0x3ead4726	0.33843344
136	0x3ea74dde	0.32676595
137	0x3e21568c	0.15755671
138	0xbcbebf44	-0.023284562
139	0xbeae1231	-0.33998254
140	0x3c341afc	0.010992762
141	0xbe2e8ecc	-0.1704666
142	0x3e7d13d3	0.24714594
143	0xbe17034b	-0.1474735
144	0x3dd8bdf3	0.10583105
145	0xbe2af02b	-0.1669318
146	0x3ea86cef	0.3289561
147	0xbf2659c9	-0.6498075
148	0xbf01e445	-0.50738937
149	0x3f331be9	0.6996446
150	0xbe1f18a2	-0.1553674
151	0x3fa01d30	1.2508907
152	0xbea22514	-0.31668913
153	0xbe605bf4	-0.21910077
154	0x3f1a6ef5	0.60325557
155	0xbd84719d	-0.064669825
156	0xbe60afea	-0.21942106
157	0xbdb4f549	-0.08835847
158	0xbe29bbf2	-0.16575602
159	0xbed6d879	-0.4196203
160	0x3e8d510b	0.27600893
161	0xbe0da2f4	-0.13831693
162	0x3f273536	0.6531557
163	0xbf55f531	-0.8357726
164	0xbe8bb7d9	-0.27288702
165	0x3f1f046b	0.62116116
166	0xbeb94d59	-0.36191824
167	0x3e6f1b86	0.23350343
168	0xbe80dc7b	-0.25168213
169	0xbe87ed95	-0.26548448
170	0xbe93836c	-0.28811204
171	0xbe46a6fd	-0.19399638
172	0x3d2e8376	0.04260584
173	0xbd92e008	-0.07171637
174	0xbdf1f198	-0.118136585
175	0x3d8efee0	0.06982207
176	0x3e2e06f1	0.16994835
177	0xbea720bc	-0.32642162
178	0x3e9252b8	0.28578734
179	0xbea02417	-0.31277534
180	0xbea45db3	-0.32102737
181	0xbd78d53e	-0.06075024
182	0x3e2d1e1f	0.16906022
183	0xbe9d8ac9	-0.30769947
184	0xbe42a575	-0.1900843
185	0xbd20dbb3	-0.03927202
186	0x3c980e48	0.018561497
187	0xbec0ce15	-0.37657228
188	0x3ea14bf6	0.31503266
189	0xbd3cde4d	-0.04611044
190	0xbe3bfeb3	-0.18358879
191	0x3eb6309e	0.35583967
192	0x3d486758	0.04892668
193	0xbed1abfc	-0.40951526
194	0x3f7635b3	0.9617569
195	0xbd250327	-0.04028621
196	0x3e319068	0.17340243
197	0xbe8652d8	-0.2623508
198	0xbe114f41	-0.14190389
199	0x3ed5036e	0.4160418
200	0x3eda6ab9	0.42659548
201	0xbe42ea09	-0.1903459
202	0x3e1d2687	0.15346728
203	0xbe92cdd3	-0.28672656
204	0xbd809918	-0.062792
205	0xbd98d5b1	-0.074626334
206	0x3c25a14d	0.010109258
207	0x3ecf99b7	0.40546963
208	0x3e59679e	0.21230933
209	0xbe9bf98a	-0.3046382
210	0xbcd51cd2	-0.02601472
211	0x3d467b2a	0.048457302
212	0x3d604a08	0.0547581
213	0x3eea19b7	0.45722744
214	0xbdbbea3e	-0.091755375
215	0xb9e4df1f	-0.00043653787
216	0xbdc41d57	-0.09575909
217	0xbe4a0218	-0.19727361
218	0xbfbeb5a1	-1.4899179
219	0x3ed44283	0.41456994
220	0xbec179a4	-0.37788117
221	0xbded4d3d	-0.11586998
222	0xbed311f3	-0.41224632
223	0x3e3711a3	0.17877822
224	0x3e9622f4	0.29323542
225	0xbea76a6c	-0.3269838
226	0x3fdc49b6	1.7209995
227	0x3f64d75c	0.8939111
228	0x3ebd5db7	0.3698556
229	0xbefc5a71	-0.4928775
230	0x3f4a5efc	0.79051185
231	0xbf560839	-0.83606297
232	0x3da92870	0.08259666
233	0x3c792558	0.015206657
234	0xbe0d65b1	-0.13808323
235	0x3d5a703a	0.053329684
236	0x3e7e9ed9	0.24865283
237	0x3e64160e	0.22274038
238	0xbcc63be2	-0.024198476
239	0x3e680396	0.22657618
240	0xbe93f22c	-0.288957
241	0xbf318303	-0.69340533
242	0x3eb2bfae	0.34911865
243	0x3d903ccd	0.07042847
244	0x3e7ea2e0	0.2486682
245	0x3ed53caf	0.4164786
246	0xbd9bad01	-0.07601357
247	0x3f0c476e	0.54796493
248	0x3ea6d917	0.325875
249	0xbe8bffa8	-0.27343488
250	0xbea8da79	-0.3297918
251	0x3e218ee4	0.15777165
252	0xbe8011ae	-0.2501349
253	0xbe2a5522	-0.16634038
254	0xbe9c8f70	-0.30578184
255	0x3e4b1fe7	0.19836389

bias_ih_l0 f4 [32]
0	0x3d76fbfe	0.060298912
1	0x3e0dcbc3	0.1384726
2	0x3dcc14ba	0.09964891
3	0xbefc1317	-0.49233314
4	0x3d3cddaf	0.04610985
5	0x3f3ec0b6	0.74512804
6	0x3ea12551	0.31473783
7	0xbc88c480	-0.016695261
8	0xbd9fe75a	-0.07807799
9	0x3dd03948	0.101671755
10	0x3f65995b	0.89687127
11	0x3f0fd9e8	0.56191874
12	0xbe2a6cea	-0.1664311
13	0x3e01cd33	0.12675934
14	0x3f06a90a	0.52601683
15	0x3e7d00a5	0.24707277
16	0xbe204f16	-0.15655169
17	0xbe066041	-0.13122655
18	0xbf8396fb	-1.028045
19	0xbe6b0364	-0.22950512
20	0x3d32802c	0.043579265
21	0x3e0c1fe4	0.1368404
22	0xbea78679	-0.32719782
23	0x3e610a77	0.21976648
24	0x3ed306c7	0.41216108
25	0x3e7858c0	0.24252605
26	0xbdf7d2dd	-0.12100766
27	0xbe22c7aa	-0.15896478
28	0xbeff98f3	-0.49921378
29	0x3f03057a	0.5118023
30	0xbd7e8c5a	-0.06214557
31	0x3e5f17eb	0.21786468

bias_hh_l0 f4 [32]
0	0xbda77c05	-0.08177952
1	0xbdf6c5ff	-0.120494835
2	0x3bbca50d	0.0057569803
3	0xbee73b19	-0.45162275
4	0x3cc7beae	0.024382915
5	0x3e5a5aef	0.21323751
6	0x3e724eae	0.23662826
7	0xbe521fc7	-0.20519935
8	0xbe5749be	-0.21024224
9	0xbe15cd11	-0.14629008
10	0x3faee9c5	1.3665091
11	0x3d307974	0.043084577
12	0xbec33ff7	-0.3813474
13	0xbe627aa8	-0.22117102
14	0x3d618f50	0.055068314
15	0xbeacf903	-0.3378373
16	0x3e74f5a4	0.2392183
17	0xbe0da509	-0.13832487
18	0xbf78eed9	-0.9723945
19	0xbec56d2c	-0.38559854
20	0x3dc6f2a7	0.09714251
21	0x3e2031ee	0.15644047
22	0x3dad904c	0.08474788
23	0x3e426f20	0.18987703
24	0x3edb4623	0.42826948
25	0x3e637645	0.22213085
26	0x3ef6701b	0.48132405
27	0xbe84feab	-0.25975546
28	0xbceffd64	-0.02929563
29	0xbba128d8	-0.004918199
30	0x3d022410	0.031772673
31	0x3e33ec38	0.17570579

weight f4 [2, 40]
0	0x40e8bc72	7.2730036
1	0x40e1134e	7.0336065
2	0xc0e0f303	-7.0296645
3	0x40e429b7	7.130092
4	0x40e1b1db	7.052961
5	0xc0e32013	-7.0976653
6	0x40e26020	7.074234
7	0x40e951d2	7.291238
8	0xc0e1c7e6	-7.0556517
9	0x40df235b	6.973066
10	0xc0e61e48	-7.1911964
11	0x40e4c473	7.1489806
12	0xc0e9e1c5	-7.3088098
13	0xc0dffb9f	-6.9994655
14	0xc0e39406	-7.1118193
15	0xc0e6899c	-7.204298
16	0x40deee35	6.966578
17	0x40ea6028	7.324238
18	0x40dd6d15	6.9195657
19	0x40e55d9d	7.1676774
20	0x40dfcdce	6.9938726
21	0xc0e9d42e	-7.307151
22	0xc0e5f269	-7.185841
23	0xc0e40b4a	-7.126378
24	0x40e3a0f8	7.1133995
25	0x40e66269	7.199513
26	0xc0e0a604	-7.0202656
27	0xc0df1d3f	-6.97232
28	0x40e30133	7.0938964
29	0x40e51845	7.1592126
30	0x40e5c971	7.18084
31	0xc0e1badf	-7.0540614
32	0x3e99a8e4	0.30011666
33	0xc084db04	-4.1517353
34	0x40ea34ac	7.3189297
35	0xc0e063d6	-7.012187
36	0x40e13430	7.0376205
37	0x40e17d5a	7.0465517
38	0xc09880b3	-4.7657104
39	0x40dfbc75	6.991755
40	0x3fe3d7cb	1.780023
41	0xbcb3876b	-0.021915158
42	0xbdef38ef	-0.11680781
43	0x3fa0dd4b	1.2567533
44	0x3eccf895	0.40033403
45	0xbf930297	-1.1485165
46	0x3e9473f2	0.2899471
47	0x3fd61a51	1.6726781
48	0xbf98e5a2	-1.1945078
49	0xbd581811	-0.052757327
50	0x3f22ba0e	0.63565147
51	0xbf84c83c	-1.0373607
52	0xbfc2b638	-1.5211859
53	0x3f729c24	0.947695
54	0xbfc1a7a2	-1.5129282
55	0xbf567b54	-0.83781934
56	0xbf892a6a	-1.0716069
57	0xbef62935	-0.48078313
58	0x3fa3f1e1	1.280819
59	0x3fbc5d10	1.47159
60	0xbf4e8e5b	-0.8068597
61	0xc00eefe2	-2.2333913
62	0xbfe03b58	-1.751811
63	0xbf77c251	-0.9678088
64	0xbee4ad91	-0.4466367
65	0xbf3a971b	-0.7288682
66	0xbf58e0b5	-0.84717876
67	0x3e6a5c4e	0.22886774
68	0x3fd32a67	1.6497315
69	0xbf0242b9	-0.5088306
70	0x3f99b4b3	1.200827
71	0xc03c1230	-2.93861
72	0xbec11845	-0.3771383
73	0x3f4042be	0.7510184
74	0xbf519aa6	-0.818766
75	0xbf8a069c	-1.0783267
76	0x3e1d6f96	0.15374598
77	0x3fbccad6	1.4749401
78	0xbf817fd7	-1.0117139
79	0x3f353bf0	0.7079458

bias f4 [2]
0	0x40de4831	6.9463124
1	0x3f870000	1.0546875
