checkpoints/NGSIM_trajectron_model.pt (torch, 23519 bytes, 10 tensors)

weight_ih_l0 f4 [128, 2]
0.20510985 -0.094660796 0.0011531843 0.2983853 -0.01691417 0.36797598 0.005503874 0.15267175
-0.01488777 0.036746908 0.035750978 0.18263409 -0.017449096 0.21622247 0.08902443 0.35355547
0.13926788 0.34534553 -0.01027053 0.08053073 0.039692115 -0.088158384 0.010209208 0.36574587
0.00062939164 0.04092611 0.03269721 0.08307708 0.15834397 0.29774863 -0.010414821 0.0392134
0.021809896 0.027398316 0.11560913 0.2592856 0.001137123 0.09636715 0.0041810237 0.06978362
-0.005660425 0.28795835 -0.0029075257 -0.06406611 0.28117695 0.21421736 -0.011835581 0.08295072
0.09123296 0.3982291 0.028514888 0.19001243 7.32414e-05 -0.08022853 0.058464933 -0.26565465
-0.0320415 0.20546792 0.16105007 0.22976893 0.1928322 0.26799375 0.206334 0.4410556
0.072329454 0.098644584 0.005150412 0.16296113 0.0709318 -0.08030972 0.2551116 0.03104607
0.06951718 -0.07956885 0.12688966 0.0924276 0.041094325 -0.14047346 0.025311565 0.15145582
0.15375878 0.31110457 0.026531799 -0.02120221 0.007588032 0.060921874 0.12493916 0.12664223
0.005132035 0.08841986 -0.00783079 0.22425161 0.030305741 -0.0047965785 0.046493918 0.040557817
0.00867293 -0.02968309 0.00036845385 -0.017690275 0.055036142 0.0405328 0.0020105725 -0.006272447
0.099204615 0.20507939 0.0773109 0.08047445 0.021056032 -0.08165813 0.04624772 0.12617557
0.039246816 0.082859114 0.02477783 -0.024294997 0.15995073 -1.987005e-05 0.10658417 0.010216813
0.008298992 0.24630988 0.01718824 -0.0205985 0.015202034 -0.12723784 0.03352808 -0.07646469
0.097941786 -0.010279945 -0.14256263 -0.117972754 0.06340488 0.00880386 0.22933447 0.0976343
0.061030388 0.03178425 -0.23695956 -0.12249567 -0.08544932 0.27926686 -0.1275774 -0.39283198
-0.102008134 -0.0019819413 -0.1160005 0.16197439 0.09422674 -0.023097735 -0.12007329 -0.1462492
-0.07647999 -0.0036452431 -0.09615256 0.059129715 0.06485299 -0.10896312 -0.0038321968 0.29517254
-0.091402166 0.04169835 0.0437429 -0.04462052 0.036452584 -0.080863476 0.115002654 0.23552898
-0.08577467 -0.1754774 -0.039834112 -0.11305565 -0.09575762 0.18369853 0.011561277 -0.2333697
-0.06536903 -0.097840354 -0.18098108 0.07599966 0.04035115 0.04867497 0.00076459796 0.24831133
-0.0042335307 0.14136373 -0.20066513 -0.30377567 0.044266295 -0.17271347 0.15849556 -0.09562281
0.26228255 0.13318738 0.25741777 0.41162765 0.023539567 0.18164328 0.20954615 0.16082193
0.08363743 -0.06210778 0.012067492 0.23203722 0.058476064 0.40844864 0.060695175 0.024284631
0.015417659 0.1910714 0.040674895 0.18792467 0.14987472 0.0032356444 0.022578247 0.18764845
0.27491316 0.3201888 0.0842359 0.20587401 0.21042314 0.23434314 0.2963732 0.43303624
0.21293013 0.26421478 0.23925628 0.3569006 0.051658046 0.22118874 0.27870476 0.47939524
0.17140228 0.5362905 0.1511453 0.0053089773 0.05485363 0.08572826 0.029356379 0.26141343
0.026517691 0.21312623 0.20117249 0.23556449 0.25504184 -0.014404555 0.06463594 0.017919887
0.14556032 0.109508105 0.09537752 0.13580355 0.07694084 0.08443421 0.06458952 -0.023778794
00000000: 5108 523e 85dd c1bd 7226 973a f5c5 983e
00000010: 968f 8abc 5967 bc3e d759 b43b fc55 1c3e
00000020: d5eb 73bc ed83 163d 9e6f 123d 6e04 3b3e
00000030: 68f1 8ebc 6c69 5d3e 7152 b63d 3905 b53e
00000040: 3d9c 0e3e 21d1 b03e ba45 28bc 4ced a43d
00000050: 3394 223d 628c b4bd 8644 273c 0b43 bb3e
00000060: c2fd 243a 23a2 273d 82ed 053d 5124 aa3d
00000070: ec24 223e 8272 983e eda2 2abc 3b9e 203d
00000080: abaa b23c 6f72 e03c 7bc4 ec3d 15c1 843e
00000090: 840b 953a 245c c53d f800 893b b7ea 8e3d
000000a0: 167b b9bb 476f 933e 308c 3ebb 1835 83bd
000000b0: 6df6 8f3e cc5b 5b3e 06ea 41bc 11e2 a93d
000000c0: 59d8 ba3d afe4 cb3e 0e98 e93c 9e92 423e
000000d0: 2d99 9938 db4e a4bd ed78 6f3d e303 88be
000000e0: f33d 03bd 2f66 523e 4fea 243e 8c48 6b3e
000000f0: ce75 453e 7a36 893e 3849 533e 0ad2 e13e
00000100: 7721 943d 2c06 ca3d cac4 a83b 48df 263e
00000110: b144 913d 6c79 a4bd fd9d 823e 5454 fe3c
00000120: 065f 8e3d fef4 a2bd 5def 013e ae4a bd3d
00000130: 8652 283d 46d8 0fbe 335a cf3c 3c17 1b3e
00000140: f172 1d3e 1949 9f3e 3759 d93c 42b0 adbc
00000150: 07a5 f83b 3789 793d 1ae0 ff3d 80ae 013e
00000160: a12a a83b 7915 b53d b74c 00bc 37a2 653e
00000170: bf43 f83c 9e2c 9dbb 6870 3e3d f41f 263d
00000180: e818 0e3c f429 f3bc 0a2d c139 32eb 90bc
00000190: 946d 613d b905 263d cfc3 033b 1989 cdbb
000001a0: ca2b cb3d 5500 523e 2d55 9e3d cacf a43d
000001b0: b37d ac3c 613c a7bd 406e 3d3d 2b34 013e
000001c0: 45c1 203d 0ab2 a93d e0fa ca3c 4d06 c7bc
000001d0: 20ca 233e 9cae a6b7 cd48 da3d 6b64 273c
000001e0: 7ff8 073c a838 7c3e 5ace 8c3c 2fbe a8bc
000001f0: f411 793c a34a 02be bd54 093d 8599 9cbd
00000200: b495 c83d 376d 28bc f0fb 11be b39b f1bd
00000210: 6bda 813d 113e 103c a8d6 6a3e 7ef4 c73d
00000220: 00fb 793d 3430 023d 87a5 72be 03df fabd
00000230: 0e00 afbd 11fc 8e3e a6a3 02be 4621 c9be
00000240: a4e9 d0bd 75e3 01bb ac91 edbd 9ddc 253e
00000250: f3f9 c03d 7637 bdbc fce8 f5bd 5ac2 15be
00000260: 8aa1 9cbd 08e5 6ebb a2eb c4bd 0032 723d
00000270: a5d1 843d 0e28 dfbd 9825 7bbb db20 973e
00000280: 0f31 bbbd e4cb 2a3d c12b 333d 02c4 36bd
00000290: 4e4f 153d c09b a5bd 8386 eb3d 822e 713e
000002a0: a1aa afbd 59b0 33be 1829 23bd b889 e7bd
000002b0: 921c c4bd 781b 3c3e 836b 3d3c 77f8 6ebe
000002c0: 33e0 85bd 8660 c8bd 1b53 39be b6a5 9b3d
000002d0: 3f47 253d 685f 473d 4d6f 483a 5345 7e3e
000002e0: 6eb9 8abb a7c1 103e 297b 4dbe 7c88 9bbe
000002f0: 9350 353d cddb 30be a94c 223e e4d5 c3bd
00000300: e649 863e 4662 083e 43cc 833e dcc0 d23e
00000310: 0dd6 c03c b200 3a3e 4493 563e 81ae 243e
00000320: 1a4a ab3d ba64 7ebd bbb6 453c 2a9b 6d3e
00000330: 9984 6f3d 2e20 d13e 819b 783d 90f0 c63c
00000340: 599a 7c3c 39a8 433e b89a 263d 536f 403e
00000350: c278 193e 1b0d 543b 04f6 b83c ea26 403e
00000360: 6bc1 8c3e c9ef a33e df83 ac3d a3d0 523e
00000370: 2a79 573e a6f7 6f3e 3abe 973e edb6 dd3e
00000380: 5b0a 5a3e 2947 873e 99ff 743e adbb b63e
00000390: 6397 533d 4d7f 623e 64b2 8e3e 4b73 f53e
000003a0: 1484 2f3e 564a 093f d5c5 1a3e eef6 ad3b
000003b0: 33ae 603d 4c92 af3d ca7c f03c fbd7 853e
000003c0: a13b d93c c33d 5a3e 2900 4e3e d137 713e
000003d0: d894 823e 1501 6cbc d95f 843d bacc 923c
000003e0: c40d 153e c945 e03d 4a55 c33d 1610 0b3e
000003f0: 2993 9d3d d8eb ac3d 8347 843d bfcb c2bc

weight_hh_l0 f4 [128, 32]
0.096272804 -0.011120368 -0.051484596 0.15103668 0.085642405 -0.35628694 0.50004256 -0.30080307
-0.17912245 -0.08872221 0.07583421 -0.58043605 0.12058522 -0.12094439 0.0042226147 0.1992823
0.015041042 0.011006621 -0.0055293627 0.21683349 -0.50903296 -0.16927049 0.16799982 -0.13480693
-0.12920706 0.000113043294 0.12248328 -0.0072104074 0.16374584 0.018004172 -0.37382823 0.07710673
-0.3356342 0.15869999 0.20114924 -0.112037234 0.03353525 0.16273671 0.663246 0.13252115
0.11491051 -0.20848988 -0.3941248 0.31849444 -0.114732616 -0.049473632 0.122538924 -0.20236921
0.02277573 0.08545826 0.26206353 -0.054122467 -0.030155456 -0.7542836 -0.016535105 -0.2998047
0.18137723 0.24701048 0.022020156 -0.101518214 -0.22890233 0.089664936 0.003027067 -0.11995684
-0.051363457 -0.14256124 0.35364774 0.014717354 -0.12454963 -0.0045520053 0.5035814 -0.21618392
0.26818803 0.40778813 0.031973656 0.08063414 -0.23755977 0.25650716 -0.19952089 0.12880825
0.26106432 0.10539109 -0.18714556 0.1248377 0.14035784 -0.043611635 -0.036946725 0.32370073
0.02211447 0.043789692 -0.14116216 -0.085864246 0.08537644 -0.18635114 -0.062445536 0.02348357
-0.0578995 0.0070842905 -0.048971854 0.1138831 0.22627783 -0.024876527 -0.15480764 -0.16877249
-0.02917498 -0.0629923 -0.0063744946 0.038874805 0.026201835 0.013717836 0.1279885 0.07514962
-0.16935119 0.11959693 0.033682685 0.14481367 -0.087311685 -0.08965443 -0.06521768 -0.0015215919
-0.15870303 0.022420771 0.22171311 0.22894086 -0.016136514 0.08701244 -0.08304158 0.14895627
-0.09443715 -0.19470395 0.109589756 0.056280077 0.002188115 -0.35500714 -0.109197 -0.17016004
-0.22204567 -0.16615567 0.16136241 -0.4618002 -0.12888378 -0.21651298 0.097734615 0.47659075
0.21836464 0.1002751 -0.04370584 0.15078586 0.0016050169 -0.07682656 0.017500741 0.0806646
-0.0009702127 0.041621488 -0.13336669 -0.13512662 0.3192882 -0.014728713 -0.18050848 0.103214785
-0.06910872 -0.03702883 -0.07890631 0.1475961 0.05425922 -0.2315955 0.32444558 -0.061917208
-0.31985137 0.1328269 -0.018333418 0.12635618 0.06551298 -0.24266148 -0.053962402 0.13586529
-0.24709085 0.19585763 0.21846801 0.11413748 0.00051452836 0.079672605 0.1814977 0.050597608
-0.25190082 -0.05175694 0.016828824 -0.0692736 0.020283218 -0.11782202 -0.06078075 -0.031333048
0.20369235 -0.17949902 -0.12989433 0.03317562 0.1232521 -0.4627488 0.15034918 -0.35015598
-0.44357207 0.059782952 0.068142 -0.33958325 0.2575957 -0.084919505 0.20472986 0.44124338
-0.17247236 -0.015488035 0.15543982 0.48547447 -1.0810447 -0.2373594 0.06337428 -0.19231221
-0.3280335 -0.17597525 0.12200427 0.42803502 0.28812838 -0.10232582 0.11367869 0.087287724
-0.07104466 0.09735025 0.0071327696 -0.040046945 -0.02372256 -0.041358653 0.20624475 0.044105038
0.11944029 0.12263329 0.2004983 0.1277542 0.047771413 0.051817797 -0.2236556 0.2787359
0.12184547 -0.24059428 -0.0062772622 0.09415598 -0.38196155 -0.068785034 0.23036188 -0.17588905
-0.20916219 -0.19447778 0.09241849 -0.03845998 0.2598075 -0.07090865 0.01857121 -0.09234015
00000000: ad2a c53d 3432 36bc 83e1 52bd 5ca9 1a3e
00000010: 4965 af3d 3e6b b6be ca02 003f dc02 9abe
00000020: e06b 37be fdb3 b5bd f74e 9b3d 7597 14bf
00000030: 62f5 f63d b1b1 f7bd dc5d 8a3b a910 4c3e
00000040: b46e 763c 1d55 343c a82f b5bb 9909 5e3e
00000050: fc4f 02bf 3e55 2dbe 2508 2c3e d40a 0abe
00000060: db4e 04be a811 ed38 84d8 fa3d 4845 ecbb
00000070: fdac 273e 7c7d 933c 6a66 bfbe 22ea 9d3d
00000080: 3fd8 abbe 4082 223e 11fa 4d3e c773 e5bd
00000090: 425c 093d 74a4 263e 7dca 293f a0b3 073e
000000a0: 3456 eb3d 5f7e 55be baca c9be b411 a33e
000000b0: eff8 eabd dda4 4abd b0f5 fa3d e039 4fbe
000000c0: 2b94 ba3c bd04 af3d 312d 863e 85af 5dbd
000000d0: 9308 f7bc bb18 41bf a174 87bc 0080 99be
000000e0: f4ba 393e 51f0 7c3e 9d63 b43c c8e8 cfbd
000000f0: 5f65 6abe 40a2 b73d c261 463b efab f5bd
00000100: 7d62 52bd 93fb 11be 5111 b53e 0f21 713c
00000110: e013 ffbd fd28 95bb b6ea 003f 515f 5dbe
00000120: f14f 893e 9bc9 d03e cff6 023d 8323 a53d
00000130: de42 73be e854 833e 344f 4cbe 4fe6 033e
00000140: 39aa 853e 49d7 d73d 16a3 3fbe e8aa ff3d
00000150: f7b9 0f3e 1da2 32bd 7355 17bd 1abc a53e
00000160: 6829 b53c d25c 333d d08c 10be 98d9 afbd
00000170: d8d9 ae3d d5d2 3ebe e4c6 7fbd 9e60 c03c
00000180: 0728 6dbd 5623 e83b b696 48bd 8b3b e93d
00000190: 60b5 673e dcc9 cbbc e585 1ebe b2d2 2cbe
000001a0: 5e00 efbc 1b02 81bd 23e1 d0bb 303b 1f3d
000001b0: 3ba5 d63c c6c0 603c 6b0f 033e 0be8 993d
000001c0: 666a 2dbe 3cef f43d dbf6 093d 094a 143e
000001d0: 78d0 b2bd be9c b7bd d990 85bd 2770 c7ba
000001e0: 0c83 22be c4ab b73c c308 633e 796f 6a3e
000001f0: b930 84bc 9433 b23d b411 aabd fe87 183e
00000200: 4468 c1bd 7960 47be 9870 e03d f085 663d
00000210: 7a66 0f3b 7fc3 b5be ada2 dfbd 6f3e 2ebe
00000220: f15f 63be b624 2abe 303c 253e 1371 ecbe
00000230: 1cfa 03be 94b5 5dbe 1629 c83d b403 f43e
00000240: fb9a 5f3e 085d cd3d e504 33bd 9c67 1a3e
00000250: 6e5f d23a 3e57 9dbd b75d 8f3c 7b33 a53d
00000260: df55 7eba 4b7b 2a3d 4791 08be a25e 0abe
00000270: be79 a33e b350 71bc 37d7 38be 4662 d33d
00000280: df88 8dbd 8bab 17bd a299 a1bd 6f23 173e
00000290: ea3e 5e3d 5f27 6dbe bb1d a63e e69c 7dbd
000002a0: 8fc3 a3be c603 083e f72f 96bc 8463 013e
000002b0: ab2b 863d 407c 78be ae07 5dbd 4520 0b3e
000002c0: 6205 7dbe e78e 483e 14b6 5f3e e9c0 e93d
000002d0: 6ae1 063a 642b a33d 88da 393e 703f 4f3d
000002e0: 25f9 80be 16ff 53bd 9adc 893c 51df 8dbd
000002f0: fe28 a63c ac4c f1bd 3cf5 78bd 1557 00bd
00000300: ba94 503e 97ce 37be 0503 05be 29e3 073d
00000310: 996b fc3d 69ed ecbe 23f5 193e a547 b3be
00000320: e11b e3be f8de 743d 088e 8b3d dbdd adbe
00000330: 95e3 833e 47ea adbd b4a4 513e a7ea e13e
00000340: 989c 30be 87c1 7dbc 9e2b 1f3e 1c90 f83e
00000350: ac5f 8abf 580e 73be 60ca 813d 7eed 44be
00000360: 02f4 a7be db32 34be 60dd f93d 6827 db3e
00000370: 9085 933e 3390 d1bd 5fd0 e83d e8c3 b23d
00000380: dd7f 91bd 915f c73d 02ba e93b 4408 24bd
00000390: d055 c2bc b167 29bd d331 533e 7ca7 343d
000003a0: 1c9d f43d 2a27 fb3d 6d4f 4d3e ffd1 023e
000003b0: f5ab 433d e63e 543d f905 65be 79b6 8e3e
000003c0: 1e8a f93d 595e 76be 7eb1 cdbb dad4 c03d
000003d0: 7790 c3be 2bdf 8cbd fce3 6b3e 421c 34be
000003e0: 9d2e 56be 2f25 47be e845 bd3d 3688 1dbd
000003f0: 7d05 853e 8e38 91bd a622 983c d51c bdbd

bias_ih_l0 f4 [128]
0.13313092 0.21379188 0.26204923 0.22664525 -0.008735827 0.38448465 0.27006212 0.16824773
0.2109405 0.2420085 -0.06758806 0.2945023 0.10679857 0.025965285 0.1876861 0.07691537
0.14832912 0.017818043 0.122157656 0.039446317 0.3552888 -0.06390845 -0.21050298 0.3057468
0.58266425 -0.15205194 -0.020250078 -0.2387177 0.14816542 0.07271143 -0.3438133 0.31954303
-0.14021194 0.03998531 0.08992094 -0.026517939 0.07877745 0.07823469 -0.008674808 0.2523202
-0.00967791 0.1582609 0.03687057 0.002611691 0.1863002 0.13306472 -0.08834852 0.18849799
0.015157182 -0.041229405 0.15180881 0.26571083 0.09917913 -0.028406568 0.11815346 0.0042682174
0.03973976 0.052237336 0.14013755 -0.0022403228 0.29787582 0.07724223 0.101026155 0.032964688
0.1137904 0.71931475 -0.38032517 -0.122292094 0.09300766 -0.0077321935 -0.2441576 -0.12912497
0.5134809 0.23950005 -0.20288722 -0.17805794 0.58654255 0.28458855 -0.12496465 0.09645502
0.6139821 -0.313625 -0.06988207 0.22089534 0.39869386 0.066226974 0.13979253 -0.19307709
0.5002486 0.1287427 -0.16404426 0.20900385 0.17434148 -0.060781326 -0.2933988 -0.6436693
0.007737375 0.34245086 0.021439899 0.28708845 0.10239549 0.2831969 0.3803879 0.10445045
0.18906613 0.030148407 0.102174565 0.20383817 0.033189546 0.27051085 0.17278832 0.39355457
0.32397056 -0.01432489 0.21742019 0.39815003 -0.62310207 0.25764546 0.039868746 0.0974958
0.279826 0.044813454 -0.08104691 0.24653417 0.18316095 0.08449025 -0.010208049 -0.014624899
00000000: 7953 083e 42ec 5a3e 512b 863e b115 683e
00000010: b720 0fbc 2cdb c43e 9545 8a3e 2249 2c3e
00000020: c900 583e 14d1 773e 9c6b 8abd 01c9 963e
00000030: 35b9 da3d 26b5 d43c c930 403e ce85 9d3d
00000040: 97e3 173e 25f7 913c cb2d fa3d 7692 213d
00000050: 6ae8 b53e 6fe2 82bd 188e 57be d88a 9c3e
00000060: 7c29 153f 81b3 1bbe 7ee3 a5bc 6a72 74be
00000070: adb8 173e bbe9 943d 4c08 b0be 259b a33e
00000080: b893 0fbe a3c7 233d 7828 b83d 263c d9bc
00000090: 1256 a13d 8239 a03d c820 0ebc 1d30 813e
000000a0: 1990 1ebc 250f 223e 9805 173d e728 2b3b
000000b0: 7bc5 3e3e 1e42 083e 12f0 b4bd 9e05 413e
000000c0: d455 783c 2ae0 28bd c573 1b3e 400b 883e
000000d0: 6d1e cb3d e4b4 e8bc 71fa f13d 67dc 8b3b
000000e0: 29c6 223d d1f6 553d 3880 0f3e 61d2 12bb
000000f0: 2e83 983e 2d31 9e3d cde6 ce3d fb05 073d
00000100: f10a e93d 0325 383f fbb9 c2be 4774 fabd
00000110: cd7a be3d 575e fdbb 7304 7abe 5639 04be
00000120: 7c73 033f 803f 753e abc1 4fbe d254 36be
00000130: a727 163f 97b5 913e 77ed ffbd 368a c53d
00000140: ee2d 1d3f 7593 a0be 551e 8fbd 6332 623e
00000150: 9a21 cc3e 02a2 873d c625 0f3e 00b6 45be
00000160: 4b10 003f 20d5 033e 38fb 27be 1b05 563e
00000170: 9386 323e d7f5 78bd 5e38 96be 83c7 24bf
00000180: ce89 fd3b b855 af3e baa2 af3c 42fd 923e
00000190: bab4 d13d 2fff 903e 34c2 c23e 1eea d53d
000001a0: 8d9a 413e cbf9 f63c e640 d13d f4ba 503e
000001b0: c3f1 073d 6680 8a3e 6cef 303e fc7f c93e
000001c0: 78df a53e f2b2 6abc 66a3 5e3e 52da cb3e
000001d0: 9e83 1fbf 1bea 833e 694d 233d e1ab c73d
000001e0: 5a45 8f3e 508e 373d ecfb a5bd 7473 7c3e
000001f0: 8b8e 3b3e 3909 ad3d a93f 27bc 469d 6fbc

bias_hh_l0 f4 [128]
0.05626357 0.14887875 0.16433777 0.17147535 0.1886299 0.04026634 0.28685147 0.4581553
0.2594253 -0.015249124 -0.045897253 0.20227434 0.18135947 0.0055160816 0.037589435 0.061275646
0.08696037 0.10200593 0.2495123 0.09204446 0.29280984 -0.09885034 -0.2986114 0.11704501
0.25155973 -0.05827222 0.22077572 -0.11633736 -0.012151963 0.03374125 -0.3053928 0.15028675
-0.06720688 -0.12711298 0.19073121 0.24725729 0.05254355 -0.08495506 0.011519076 0.20822729
-0.018633982 -0.070818566 -0.059412017 -0.11648175 0.024825554 0.11333439 0.11793191 0.07691902
0.116559826 0.086253285 0.044698 0.12585977 -0.042220768 0.1685348 0.32790008 0.05717568
0.0496921 0.15324348 -0.056745276 -0.22977187 0.11831555 0.15266587 0.14996159 0.13611585
0.078111775 0.9255016 -0.55200523 -0.12170738 -0.08652032 -0.004451753 -0.028238507 -0.07842853
0.66800344 0.06895067 -0.08634092 -0.44643608 0.44436693 0.39709958 0.06160856 0.2923232
0.38217548 -0.28087386 -0.08265763 0.16290715 0.47162297 0.03785016 0.14156517 -0.10038062
0.41574022 0.36332524 -0.1291874 0.25187543 0.2004448 -0.19656125 -0.3017942 -0.3526048
0.09503525 0.51322097 0.12921597 0.039113022 0.24091892 0.135178 0.4265499 0.06679331
0.08350199 0.14452718 -0.06468178 0.046324182 -0.08174371 0.1781152 0.086965695 0.3578145
0.17782955 -0.09625285 0.13931835 0.35505193 -0.3249648 -0.023604441 0.06693977 0.16608284
0.33899346 -0.14635825 -0.07057414 -0.071423054 -0.109721415 0.09118524 0.035203088 0.074278414
00000000: a174 663d ac73 183e 2948 283e 3c97 2f3e
00000010: 3228 413e 51ee 243d 32de 923e 5593 ea3e
00000020: 65d3 843e 76d7 79bc c2fe 3bbd 0121 4f3e
00000030: 4cb6 393e 3fc0 b43b 61f7 193d 2cfc 7a3d
00000040: 4718 b23d 7ce8 d03d 2780 7f3e ce81 bc3d
00000050: 2ceb 953e 0c72 cabd 98e3 98be 4bb5 ef3d
00000060: 70cc 803e daae 6ebd 0813 623e 4842 eebd
00000070: 0719 47bc 4434 0a3d 725c 9cbe c5e4 193e
00000080: c3a3 89bd e829 02be 0b4f 433e 0431 7d3e
00000090: e837 573d ebfc adbd 82ba 3c3c 8939 553e
000000a0: 4ba6 98bc 5309 91bd 045a 73bd fc8d eebd
000000b0: f65e cb3c dc1b e83d 4986 f13d b887 9d3d
000000c0: ebb6 ee3d 90a5 b03d 4015 373d 62e1 003e
000000d0: afef 2cbd 6394 2c3e 85e2 a73e 0c31 6a3d
000000e0: f289 4b3d dceb 1c3e bc6d 68bd 5149 6bbe
000000f0: 6c4f f23d 7154 1c3e 888f 193e f461 0b3e
00000100: 11f9 9f3d aced 6c3f 3750 0dbf b841 f9bd
00000110: 9131 b1bd 03e0 91bb 7154 e7bc 239f a0bd
00000120: 4602 2b3f 0236 8d3d 82d3 b0bd 4593 e4be
00000130: 1084 e33e a350 cb3e 4259 7c3d 63ab 953e
00000140: 81ac c33e b3ce 8fbe 6748 a9bd 22d1 263e
00000150: 9178 f13e c508 1b3d 76f6 103e 5b94 cdbd
00000160: e7db d43e c405 ba3e b449 04be d1f5 803e
00000170: 6741 4d3e 5a47 49be c584 9abe 9e88 b4be
00000180: d7a1 c23d 7362 033f 3151 043e fa34 203d
00000190: 73b3 763e 1a6c 0a3e c064 da3e eeca 883d
000001a0: 1703 ab3d effe 133e e277 84bd 6dbe 3d3d
000001b0: 3f69 a7bd d563 363e 121b b23d 7633 b73e
000001c0: f318 363e 3720 c5bd 78a9 0e3e 5ec9 b53e
000001d0: c961 a6be 1a5e c1bc b817 893d 9f11 2a3e
000001e0: 8d90 ad3e f0de 15be 2d89 90bd 4046 92bd
000001f0: 9fb5 e0bd 54bf ba3d 1d31 103d 481f 983d

weight_ih_l0 f4 [32, 2]
0.077107325 0.3082122 0.03731175 0.09558147 -0.0013992741 0.20457678 -0.013335653 0.1084291
-0.0077807195 0.0055405744 0.052093733 0.18265702 -0.03718175 0.4650975 0.044461373 -0.00990713
0.09128466 0.0619125 0.025200093 0.1442428 0.055302106 -0.071178444 0.068441786 0.348293
0.08762839 0.19607626 0.24537139 -0.0014384583 0.08931312 0.29048133 0.013968996 0.000114589944
0.00545294 0.3885544 -0.19875716 -0.30358002 -0.014333921 0.032956235 -0.46529284 -0.071564935
-0.24733701 -0.2377824 0.0010367691 -0.0076070204 -0.3950786 -0.08597175 -0.0034872028 0.0068885987
0.038589537 0.41239953 0.07270803 0.18161131 0.31250712 0.14428577 0.22678423 0.4733779
0.15746455 -0.03332899 0.067061774 0.14234883 0.51241803 0.14035398 0.07484788 0.26332304
00000000: 72ea 9d3d fdcd 9d3e 35d4 183d 38c0 c33d
00000010: d967 b7ba 937c 513e c87d 5abc 1310 de3d
00000020: 68f5 febb b58d b53b 3d60 553d 710a 3b3e
00000030: e44b 18bd 4221 ee3e 211d 363d 8451 22bc
00000040: 74f3 ba3d f697 7d3d 6d70 ce3c 62b4 133e
00000050: 7684 623d 01c6 91bd 352b 8c3d 7653 b23e
00000060: 8376 b33d 37c8 483e a342 7b3e a78a bcba
00000070: cce9 b63d f8b9 943e 37de 643c 0250 f038
00000080: 93ae b23b 9af0 c63e ff86 4bbe d76e 9bbe
00000090: d2d8 6abc 1efd 063d dd3a eebe a390 92bd
000000a0: ea45 7dbe 3b7d 73be 33e4 873a 5044 f9bb
000000b0: be47 cabe f511 b0bd 8e89 64bb c1b9 e13b
000000c0: 1010 1e3d 0826 d33e f3e7 943d 51f8 393e
000000d0: ef00 a03e a6bf 133e 203a 683e 975e f23e
000000e0: 633e 213e fb83 08bd af57 893d e4c3 113e
000000f0: d42d 033f f4b8 0f3e d849 993d 47d2 863e

weight_hh_l0 f4 [32, 8]
-0.08024855 -0.009069786 -0.36708447 0.105558805 0.1875607 0.065828994 0.41677034 -0.08461385
0.734348 0.06252292 0.28081915 0.032540992 -0.26618296 0.5796964 -0.0021115853 0.37032717
0.14340794 -0.14913926 -0.1176813 -0.41252905 0.060916077 0.26274717 -0.33971778 -0.015402353
0.07127315 0.39185128 -0.38397467 -0.496044 -0.13133143 0.4596944 0.22943169 -0.14898704
0.37089685 -0.036960922 -0.22851934 -0.082576014 -0.19632797 0.17831632 -0.2033252 -0.24069835
-0.13061066 -0.37107113 -0.1445478 0.25346786 0.15003064 0.5181233 -0.047555767 0.3069535
0.11923417 0.41899034 -0.5171792 -0.23013262 0.057509236 0.3686187 -0.22403508 -0.2375236
-0.0663255 0.13720043 -0.33204252 -0.16858867 -0.10035875 -0.46281853 -0.22292253 0.26636872
0.17265 0.3442311 -0.5476449 0.30393293 -0.13734129 0.12868741 0.22746213 -0.3453056
0.44381273 -0.03775814 0.20281911 -0.27012333 -0.47301826 0.3354867 -0.03474883 -0.0053425147
0.657276 0.1276177 -0.65369505 -0.3696198 -0.048630252 -0.41203418 -0.11139209 -0.3581059
0.25144428 -0.18753298 -0.39132726 0.1363127 0.09606504 -0.022565776 -0.09186373 -0.16960435
0.07327308 -0.031399757 0.057412162 -0.322368 -0.28441358 0.024372436 -0.4612577 0.27001876
0.025755638 -0.037848193 0.08454831 0.014621611 0.08529079 0.25534615 -0.20364562 0.28867742
0.12878662 0.020909298 -0.29813594 0.09418815 -0.33621234 0.10098443 0.12431388 -0.06318555
0.39056277 -0.7125401 0.12954979 -0.16549999 0.057049334 0.16154806 0.14577937 -0.36445147
0.18272105 -0.1919221 -0.018801134 -0.28935978 -0.25968045 0.066831045 -0.069658905 -0.16128509
-0.30897918 0.27593756 -0.32252625 -0.09012237 0.47240198 -0.30132335 -0.19512221 -0.23136695
-0.16805527 0.27202365 0.434664 0.44339162 -0.07426891 -0.67857665 -0.2563834 -0.43360016
-0.17686439 0.3529535 0.05260128 -0.1126517 0.31714278 0.17218472 0.08596675 0.006237475
-0.021001462 0.35718444 0.14216344 -0.24342632 -0.18317471 0.17481802 -0.24800287 0.20461228
0.13362283 -0.1605559 0.12346661 -0.4966457 -0.38317296 0.14167343 -0.28544417 0.0047086277
-0.23851445 0.214419 -0.21609463 0.21173576 0.0122024 0.029869929 0.28008848 0.17938289
-0.21975192 0.14872238 0.710417 0.13530679 -0.20308872 -0.21044528 0.16726501 -0.116402045
0.21270724 -0.77197963 -0.1151915 -0.67367744 -0.3889561 0.045786887 -0.2969044 -0.54198354
0.6894399 -0.5153967 -0.2967013 -0.3506214 -0.35088858 0.71914995 -0.3355241 -0.1259665
0.55172145 -0.3120075 -0.07450016 -0.29732332 -0.40369147 0.08000981 -0.42994854 -0.06378749
0.2771892 -0.40765443 -0.43361554 0.069247104 -0.51929474 0.03163401 0.07722398 0.0950276
0.51921713 -0.26745597 -0.26872507 -0.13209699 0.06379885 0.5061668 -0.38989928 0.04908797
0.52908534 -1.3657833 0.1144304 -0.2078393 -0.40898746 0.0072180233 -0.29314357 -0.48706043
0.16099642 -0.47120333 0.08521771 -0.2538215 -0.023089347 -0.13855062 -0.3643289 -0.17308299
-0.18254896 -0.14495577 -0.5673684 -0.15529501 0.098778605 0.54721916 0.14783375 -0.4678284
00000000: 5a59 a4bd 7199 14bc 7ff2 bbbe 372f d83d
00000010: ea0f 403e 5ad1 863d ec62 d53e 074a adbd
00000020: 3bfe 3b3f 040c 803d 87c7 8f3e b449 053d
00000030: 2249 88be fc66 143f 8662 0abb 869b bd3e
00000040: 88d9 123e f6b7 18be e502 f1bd 0237 d3be
00000050: 2383 793d cc86 863e 7def adbe 275a 7cbc
00000060: a8f7 913d bba0 c83e 5498 c4be 7bf9 fdbe
00000070: bf7b 06be 105d eb3e 24f0 6a3e 0f90 18be
00000080: 31e6 bd3e 5664 17bd f900 6abe 9d1d a9bd
00000090: 330a 49be 8e98 363e 7b34 50be a179 76be
000000a0: cdbe 05be 09fd bdbe 5704 14be 8ac6 813e
000000b0: a2a1 193e bba3 043f d6c9 42bd 0229 9d3e
000000c0: 0b31 f43d e785 d63e db65 04bf e3a7 6bbe
000000d0: ce8e 6b3d 97bb bc3e 7469 65be 6339 73be
000000e0: aad5 87bd 457e 0c3e 7a01 aabe 82a2 2cbe
000000f0: e388 cdbd 8df6 ecbe ce45 64be 7b61 883e
00000100: 29cb 303e 0f3f b03e 7532 0cbf 199d 9b3e
00000110: 32a3 0cbe a2c6 033e d5eb 683e e5cb b0be
00000120: 6c3b e33e 48a8 1abd d0af 4f3e 9b4d 8abe
00000130: 732f f2be eac4 ab3e ca54 0ebd 4310 afbb
00000140: 3d43 283f 37ae 023e 8f58 27bf ce3e bdbe
00000150: 8430 47bd 25f6 d2be 8921 e4bd a859 b7be
00000160: 4ebd 803e a508 40be 0c5c c8be 8e95 0b3e
00000170: bfbd c43d dddb b8bc 0d23 bcbd c3ac 2dbe
00000180: 3210 963d 089d 00bd 0429 6b3d 6b0d a5be
00000190: a89e 91be b4a8 c73c f829 ecbe e63f 8a3e
000001a0: 7dfd d23c b506 1bbd aa27 ad3d 7b8f 6f3c
000001b0: f0ac ae3d bbbc 823e 7a88 50be 87cd 933e
000001c0: a4e0 033e fa49 ab3c 46a5 98be b7e5 c03d
000001d0: 0624 acbe edd0 ce3d 4798 fe3d 6d67 81bd
000001e0: d8f7 c73e 0769 36bf b3a8 043e d478 29be
000001f0: 90ac 693d db6c 253e 3047 153e 6299 babe
00000200: 3a1b 3b3e 3a87 44be d604 9abc f726 94be
00000210: d6f4 84be b7de 883d 54a9 8ebd eb27 25be
00000220: 8532 9ebe b047 8d3e 2922 a5be 1492 b8bd
00000230: acde f13e 0e47 9abe 1ece 47be 75eb 6cbe
00000240: ae16 2cbe af46 8b3e 488c de3e 3a04 e33e
00000250: 4c1a 98bd 33b7 2dbf af44 83be d700 debe
00000260: f01b 35be 52b6 b43e 7174 573d efb5 e6bd
00000270: 8a60 a23e 3151 303e 560f b03d bc63 cc3b
00000280: 420b acbc e1e0 b63e 4b93 113e c044 79be
00000290: 2792 3bbe 7f03 333e 77f4 7dbe e285 513e
000002a0: 6cd4 083e c468 24be 10dc fc3d 5848 febe
000002b0: 3f2f c4be d712 113e bd25 92be d54a 9a3b
000002c0: 223d 74be a890 5b3e e947 5dbe 42d1 583e
000002d0: 93ec 473c c8b1 f43c c267 8f3e 26b0 373e
000002e0: a606 61be ae4a 183e e3dd 353f dd8d 0a3e
000002f0: 7df6 4fbe f87e 57be 8547 2b3e 3264 eebd
00000300: edcf 593e 75a0 45bf 85e9 ebbd 2076 2cbf
00000310: 4125 c7be 088b 3b3d db03 98be 6fbf 0abf
00000320: 227f 303f 0af1 03bf 3ce9 97be a684 b3be
00000330: aba7 b3be 361a 383f d1c9 abbe 5dfd 00be
00000340: 9e3d 0d3f 72bf 9fbe 8a93 98bd c33a 98be
00000350: a6b0 cebe 2fdc a33d 3722 dcbe 04a3 82bd
00000360: beeb 8d3e 15b8 d0be db02 debe 6dd1 8d3d
00000370: 80f0 04bf aa92 013d 9b27 9e3d d59d c23d
00000380: 6aeb 043f fdef 88be 5596 89be 6f44 07be
00000390: f9a8 823d 2694 013f e1a0 c7be 7810 493d
000003a0: 2372 073f fdd1 aebf 7c5a ea3d d3d3 54be
000003b0: ce66 d1be 2b85 ec3b ea16 96be fc5f f9be
000003c0: 3fdc 243e 9041 f1be 9f86 ae3d e4f4 81be
000003d0: df25 bdbc 37e0 0dbe 5189 babe ab3c 31be
000003e0: 1dee 3abe 496f 14be 0e3f 11bf a805 1fbe
000003f0: 704c ca3d 8e16 0c3f bb61 173e 3487 efbe

bias_ih_l0 f4 [32]
-0.14132805 0.42207047 -0.6761739 0.52731663 -0.53664935 0.23786983 0.27692 0.33461148
-0.13331287 0.13344641 0.37495023 0.19721249 0.19838853 -0.009461453 0.3263384 -0.07506232
0.007643005 -0.18505387 0.59830815 -0.30690026 -0.044006705 -0.35817397 -0.234135 0.38571668
0.20930745 0.10173366 0.38115174 -0.03965763 0.1312281 -0.008052839 0.1895532 0.08541554
00000000: 4db8 10be 9f19 d83e bc19 2dbf 39fe 063f
00000010: da61 09bf 2694 733e 75c8 8d3e 3252 ab3e
00000020: 2b83 08be 2da6 083e 7af9 bf3e 12f2 493e
00000030: 5d26 4b3e 3604 1bbc d415 a73e 46ba 99bd
00000040: 2c72 fa3b c37e 3dbe b92a 193f 0822 9dbe
00000050: 6040 34bd 9462 b7be 16c1 6fbe a87c c53e
00000060: b154 563e bd59 d03d 5226 c33e 0a70 22bd
00000070: a960 063e 0ef0 03bc 3c1a 423e 58ee ae3d

bias_hh_l0 f4 [32]
-0.09567315 0.35078293 -0.16890207 0.26689675 -0.082939155 0.08445304 0.19078392 0.42180923
0.014462088 0.049300157 0.14622767 -0.21815875 -0.14522427 -0.069040634 0.059651688 0.27889904
-0.13370766 -0.19889012 0.62628055 -0.56352264 -0.025519898 -0.78361726 -0.6158503 0.7417279
0.488389 0.17358086 -0.075017445 0.27785492 -0.0446408 0.21990149 0.22521141 0.1752719
00000000: 49f0 c3bd d299 b33e aaf4 2cbe b1a6 883e
00000010: 01dc a9bd b7f5 ac3d dc5c 433e 61f7 d73e
00000020: 65f2 6c3c f6ee 493d b5bc 153e 0265 5fbe
00000030: acb5 14be 2d65 8dbd 5455 743d dbcb 8e3e
00000040: a9ea 08be daa9 4bbe ec53 203f 0543 10bf
00000050: 1b0f d1bc 249b 48bf 5ea8 1dbf e1e1 3d3f
00000060: 1f0e fa3e 2ebf 313e bfa2 99bd 0043 8e3e
00000070: 46d9 36bd db2d 613e d29d 663e 7a7a 333e

weight f4 [2, 40]
1.9991558 -1.963818 2.2974503 1.9586949 2.051456 -2.2134402 -2.1481547 -2.0820603
-2.3043513 -2.1801753 2.1480505 -2.1843386 -2.3038025 -2.0494258 2.0230505 2.166522
-2.2202826 2.0672765 2.0512326 2.164669 -2.0213873 -2.0971837 -2.081383 -2.1696362
-2.1860476 -1.9957505 2.1446912 2.1938105 2.2560828 -2.0068011 2.0629706 2.157076
2.3384635 -2.155017 -2.0011203 -2.17028 -2.1023524 2.299543 -2.2741604 -2.1203077
0.38288027 -0.36063588 0.12889144 0.36726883 0.32613888 -0.59488195 2.020456 -0.4875143
-0.120339565 0.056830015 0.2637996 -0.9123134 0.13746239 0.12536511 0.021388331 0.4904008
0.085982755 -0.16279007 -0.14708942 0.5448477 -1.6018305 -0.3839033 0.27960527 -0.5108619
-0.8218865 -0.28498045 0.28767627 -0.048338052 0.42805767 -0.4133544 -0.5903246 0.07630679
1.1116073 -1.228384 0.15629464 -0.58135676 -0.37059608 0.010832799 -0.7086754 0.21424852
00000000: 56e4 ff3f 635e fbbf 6d09 1340 84b6 fa3f
00000010: 0e4b 0340 01a9 0dc0 5e7b 09c0 7a40 05c0
00000020: 7e7a 13c0 fe87 0bc0 a979 0940 34cc 0bc0
00000030: 8071 13c0 cb29 03c0 a979 0140 4ca8 0a40
00000040: 1c19 0ec0 424e 0440 6547 0340 f089 0a40
00000050: 695e 01c0 4238 06c0 6135 05c0 52db 0ac0
00000060: 34e8 0bc0 c174 ffbf 9f42 0940 6467 0c40
00000070: a963 1040 6e6f 00c0 b607 0440 880d 0a40
00000080: 63a9 1540 cceb 09c0 5b12 00c0 dee5 0ac0
00000090: f18c 06c0 b62b 1340 d88b 11c0 1fb3 07c0
000000a0: e208 c43e 44a5 b8be 1efc 033e a90a bc3e
000000b0: adfb a63e 2f4a 18bf 274f 0140 799b f9be
000000c0: 9774 f6bd 97c6 683d be10 873e 5f8d 69bf
000000d0: f1c2 0c3e b65f 003e 9536 af3c d015 fb3e
000000e0: ba17 b03d 71b2 26be 9c9e 16be 247b 0b3f
000000f0: c808 cdbf f98e c4be 6c28 8f3e d8c7 02bf
00000100: 2767 52bf f5e8 91be 4e4a 933e 1ffe 45bd
00000110: 602a db3e 30a3 d3be 831f 17bf bc46 9c3d
00000120: 2649 8e3f b03b 9dbf b40b 203e ccd3 14bf
00000130: c5be bdbe 0d7c 313c c06b 35bf f763 5b3e

bias f4 [2]
1.8056892 0.38511944
00000000: d320 e73f 602e c53e
