checkpoints/NGSIM_nn_model.pt (torch, 270359 bytes, 5 tensors)

weight f4 [256, 2]
00000000: 377a ae3d bbdd fc3e 6c8f 7cbe 0c6c 8c3e
00000010: 745e 93be 6820 ad3e 7a89 e53e 35ed c8be
00000020: c292 ee3c 100d c9be 0807 a2be 7665 6d3e
00000030: 61bd 2cbf a409 513e 85f3 49be 009e 273f
00000040: 517a 82be 9c98 c43e da3d e83d 4481 3d3d
00000050: c0d4 87be 994d 023f 1730 31bf 58d6 083f
00000060: 00ff ddbe 19b0 a73d dd05 a5bc 89df 183f
00000070: 094d 313f 83d9 1abe e28d 17bf 7d19 4cbe
00000080: b9ed 80be f448 c43c 4729 25bf 70d1 8dbe
00000090: b299 1abe 9bc1 4cbe adc4 fabd eca4 0fbf
000000a0: 2072 573c e0a7 a83e 1d2e 093f 88c4 25bf
000000b0: 6e4b cabe 33e9 30bf 15c0 613c eb81 413e
000000c0: b287 c13e d955 b4be 0f91 4f3d cf47 3ebe
000000d0: 452e b6bd 6634 143f 8241 9a3e 3928 fe3d
000000e0: fd99 debe 6da5 fb3e 1299 42be 6ef1 e83e
000000f0: b20a 0cbf 55dc 13be e4e3 9bbe 48b6 b2be
00000100: 7c14 34bf ced1 84be aa3d 063f 62fb 11bf
00000110: 740a 13bf fcfa efbe 5bd0 cebd 7d66 63be
00000120: 147f afbe 8788 ddbe f74f dcbd 7881 7d3e
00000130: 0dc6 0ebc 956c ec3e cd4b 2abf 1438 03bd
00000140: 190e a83d ab32 57bd 0bab 26bf 5f4b bebe
00000150: a9ec dcbd 6dcf e03d 2add cf3e 538d 42bc
00000160: 6eb4 a1be 96cd 0cbe cac8 aabe c1ff bd3b
00000170: f582 903e 1a51 0fbf 5cb1 2bbe bed6 f8be
00000180: a972 0cbf 6b13 24bf 4df5 13be b0c5 18bf
00000190: ae36 193e 506d fcbe 301b e63e c7ec dd3e
000001a0: 2eee 273f fe5d 083f ef11 a23e 40b4 9fbd
000001b0: a679 f53e ccac 10bf e55f 25b9 a6f0 aabe
000001c0: 7a5c 283f f873 ebbc fccb 49bd e7d5 c1be
000001d0: 1f43 0d3e dcdd 1f3f 9693 703b 0d71 dabd
000001e0: a4f5 9a3e ce3f ddbe c12e 92be 657a b5be
000001f0: d49d b3be e44e 0abe 5ff1 213f dc73 dfbe
00000200: a1db febe 3c82 b63e b545 273f 5a07 bdbe
00000210: b30e dcbe 6546 0cbe 0344 57bd 7712 95be
00000220: a4c5 1dbf f284 813c 540a d9bc 8ba8 c0be
00000230: 4899 db3e 0898 7a3e befd eebe bc85 193f
00000240: 171a 103e a485 e4be a408 ffbe bc6d 8c3e
00000250: c132 43be d570 aa3e 4707 afbe 5bd9 03bf
00000260: d361 0dbf 5467 c3be 339d 13bb 2ba4 8bbe
00000270: 6037 e33e 61fd 893c abd9 523e 6b94 efbe
00000280: ef13 dd3e 62d8 0c3f b7b3 20bf d100 32bf
00000290: c57a dbbe 9b0c 37be 657b 6fbd 2493 16bf
000002a0: 0ea0 7fbc 083e 8d3e 50f6 e7be 9c57 183f
000002b0: 121c 81be 038f b63e 239d 153e 07fb 9cbe
000002c0: ac44 003f 94b5 c23d 7b7a 1bbf ba93 9c3e
000002d0: a1f3 2abf 9a75 cb3e 2d68 dd3d e107 febe
000002e0: aa46 2ebf 88bc 9c3e 5bb3 1dbf 89a6 0dbe
000002f0: fd23 fa3d 9620 0fbf c32e af3e dc90 88bd
00000300: cc7f 2d3f 0fc5 283f 9a4e 103f 1ca0 bb3e
00000310: 74ec 1a3f 37bd 033f 8dd4 143f ebaa 9fbd
00000320: ec70 c33e 4819 d73e 645f 123e 37a2 7e3d
00000330: e7a8 d83e 0da5 12bf 5f0b 0b3f 25d5 de3d
00000340: 3ab1 5dbe 7826 e43e 2039 e0be 73b7 21bf
00000350: dfa9 e5be 233e 74be c4e5 5ebe 4c72 f03e
00000360: 3220 9c3e c453 d13e 5221 87be 6f03 07bf
00000370: 8e55 043f 7ca6 8abe d5d5 9e3e 9aab 0abd
00000380: ca22 123f eda4 173f 16bb 72be dcdc 30bf
00000390: 8a46 ee3e 8499 04bf 1cf1 9cbe 7c6e 35be
000003a0: c7dc c93b 51da b3be e72f 1e3d d9d5 b53d
000003b0: 0312 923e 406b ccbd 7e49 a03e 9ad5 26bf
000003c0: d0fe 1b3f 01b5 2bbe 1b1d febe 4982 2cbe
000003d0: 4464 f13e 065a b0be 07b8 2d3f 41b5 aebe
000003e0: 9eeb 87be d3b1 8c3d ff66 173f 560c 39be
000003f0: 77c3 b2be c375 13bf 21aa 6bbe 792b 9abe
0.085194044 0.49387917 -0.24664086 0.27426183 -0.28783 0.33813787 0.4483145 -0.39243475
0.029122714 -0.39267778 -0.3164599 0.23183236 -0.6747647 0.20413834 -0.19721802 0.65475464
-0.25483945 0.38397682 0.11339922 0.046265855 -0.26529503 0.50899655 -0.69214004 0.5345206
-0.43358612 0.08187885 -0.020144397 0.5971609 0.6925817 -0.15122037 -0.5920087 -0.19931598
-0.25181368 0.023960568 -0.6451611 -0.2769885 -0.15097693 -0.1999573 -0.12244544 -0.56111026
0.013149768 0.32940578 0.5358599 -0.6475301 -0.39510673 -0.69105834 0.013778706 0.18897216
0.3779884 -0.35221747 0.050675448 -0.1858208 -0.08895544 0.57892454 0.30128103 0.124100156
-0.4347686 0.49149647 -0.19003704 0.45496696 -0.5470382 -0.14439519 -0.30447304 -0.34904695
-0.70343757 -0.25941318 0.5243784 -0.57024205 -0.57437825 -0.46871173 -0.100983344 -0.22207065
-0.3427664 -0.43268225 -0.107574396 0.2475642 -0.008714211 0.46176592 -0.6652191 -0.032035902
0.08205814 -0.052538555 -0.6510474 -0.3716688 -0.10787327 0.10977063 0.40598422 -0.011874515
-0.3158297 -0.137503 -0.33356315 0.0057983105 0.28224912 -0.55983126 -0.16766876 -0.48601335
-0.5486246 -0.6409213 -0.14449044 -0.5967665 0.14962265 -0.4930215 0.44942617 0.4334471
0.6559781 0.5326842 0.31654307 -0.07798052 0.47944373 -0.5651367 -0.0001577135 -0.33386725
0.6576611 -0.028741822 -0.0492668 -0.37858507 0.13795136 0.62447906 0.0036709062 -0.10666094
0.30265534 -0.43212742 -0.28551295 -0.35444942 -0.3508135 -0.13506657 0.6325893 -0.4364308
-0.4977694 0.35646236 0.6534074 -0.3691967 -0.42979965 -0.13698728 -0.052555095 -0.2911565
-0.616297 0.015810464 -0.026494183 -0.37628588 0.42890382 0.24472058 -0.46677965 0.5996969
0.14072452 -0.4463321 -0.4981128 0.2742747 -0.1906233 0.3328921 -0.3418524 -0.51503533
-0.5522739 -0.3816477 -0.0022524118 -0.27273688 0.44378185 0.016844453 0.20590846 -0.4679292
0.4317927 0.55017674 -0.62774223 -0.69532496 -0.42867103 -0.17875902 -0.058467288 -0.5881827
-0.015602125 0.2758639 -0.4530511 0.5950868 -0.25216728 0.35655984 0.14610724 -0.3066027
0.50104785 0.095072895 -0.60733765 0.30581456 -0.66778 0.3973816 0.108108856 -0.49615386
-0.68076575 0.30612588 -0.616018 -0.1383306 0.122138955 -0.559091 0.34215364 -0.06668255
0.6777313 0.6592569 0.56369936 0.3664559 0.6051705 0.51460594 0.58136827 -0.07796272
0.3817209 0.42011476 0.14294201 0.06216642 0.42316362 -0.572831 0.54314226 0.10880498
-0.21649638 0.445606 -0.43793583 -0.63170546 -0.44856164 -0.23851828 -0.21767336 0.46962202
0.30493313 0.4088422 -0.2639261 -0.52739614 0.51693046 -0.27080142 0.31022516 -0.03385506
0.57084334 0.5923603 -0.2370418 -0.69087005 0.46538192 -0.51796746 -0.30652702 -0.17717928
0.006160352 -0.351275 0.038619902 0.08878679 0.28529367 -0.09981394 0.3130607 -0.6516968
0.6093569 -0.16768266 -0.4963158 -0.16846575 0.4714681 -0.34443682 0.6785893 -0.3412266
-0.2654695 0.06869855 0.59141535 -0.18071112 -0.34914753 -0.57601565 -0.23014118 -0.30111292

bias f4 [256]
00000000: d51d da3c 79b7 0bbf 50a7 e53e 6afa 9e3e
00000010: d1f6 193f d593 0d3e d9ab 9abe 6ca7 a93e
00000020: 6176 0dbf 8967 edbd 5bc4 223f c471 0abf
00000030: 9a42 0ebf ed3f 083f eb8e 263f b17a a9be
00000040: fc34 e43c 788b 19bf b7fe 95be 39ec 0e3e
00000050: 855d c3bc 78b9 a63d b775 d43e 71ec 09bf
00000060: ecc0 1abf 430c 443e e2fc a43d 3b71 0bbf
00000070: 574d 21bf 5da9 16bf 3e0e 0dbf 9a6e f3bd
00000080: d459 523e d1b2 c73e 449f 04be 4612 63be
00000090: 36dd 323f 92fb 4d3e 8d0e cd3e b118 2ebf
000000a0: 1634 0a3d 615f 293f 2139 c83d 0972 e43e
000000b0: f793 2c3f 5c08 19bf 1796 15bf 7be0 81be
000000c0: e946 343f 67eb 913e e15c 253f f0c9 063f
000000d0: e4e6 36bf 879a 0f3f 1266 57be 9ced 07bd
000000e0: 9a3f 97bd d867 48be 8f02 d6be 47eb 85be
000000f0: 3448 b83e e206 8fbe 52ba 42be a022 933e
00000100: 5b2a 0e3e 502b 3bbf e3de b8be 3a6a 263f
00000110: 6b27 d1be 3c77 1cbe 821c b93e feea a3bd
00000120: b32e e8be afb7 39be f668 393f d08f 1ebf
00000130: b72a 913e 1b83 0abf 3b6e e1bd 22de 7c3e
00000140: 880c 063f 2c9d 4bbd 2c6b 2cbe f1b2 073e
00000150: d4c9 073f 6bcc 203f 7b86 323f 4cba fbbe
00000160: e4b0 283f e681 2d3f f59d 7abe cbba f7be
00000170: fa4e b7be a26b 2d3e 579d 443e 228e 29bd
00000180: d0ed 043d 61aa 36bf 655e b53e 5feb c5be
00000190: 447c d63d 0807 ba3e 19d5 b4bd 5e59 d93e
000001a0: b799 2fbf 1857 a23e 24c4 00bf 1864 2ebf
000001b0: 8f8a f9be 5f0e d7be f801 1a3f fe5d 803e
000001c0: dca7 b8bb 9ffb 80be d853 f8be f00a 46be
000001d0: ab8f fc3e 8562 103d aa25 ed3d b9d2 a0be
000001e0: c149 fb3d eaf4 72be d902 1dbd 5141 33bf
000001f0: b71d 223f a316 d2be fe1c 2a3f be66 12bf
00000200: c4ec d2be cfd4 c6be e8ae a93e d65d 073f
00000210: 7e8e 58bd f436 fa3e 9317 b1bd 8c90 88be
00000220: a3c2 ce3d c3cf 833e ae53 1abf 2c85 34bf
00000230: 0e13 15bf 1013 183f 2c83 c83e e406 64be
00000240: e592 da3e 58d4 d43d 5170 3c3e 106d 123f
00000250: 32d5 22be f46c 543e e064 f8be f2ab 143e
00000260: 7005 bfbe b345 ad3c 2461 16bf d68d 753e
00000270: adb3 14bf d0f0 873e 30b1 d93e 72a2 0f3f
00000280: 5458 d1bd 7c21 e63c cd31 473d baa4 f8be
00000290: b794 c8bb 28cd f9be df08 38be 6260 c0be
000002a0: 70a4 183f bb9c 12bf 4d05 b33e df09 233f
000002b0: ad38 28bf c80b 36bf 1fc0 19bf 4a3b 02bf
000002c0: 7673 103f f471 103e c9be 86be 5359 643e
000002d0: 6d3d 7e3e b8e3 0c3f 0bb6 b23c 6350 18bf
000002e0: 7e6e 21bf 44fe 00bf e63c df3c 2a74 e5be
000002f0: cfe1 273c ea90 723e f701 2c3f f4b4 a4be
00000300: 2d74 21be 55ad 123f 478a c43e 5819 b53e
00000310: 6a7b c1ba 07bd 9f3e 2304 1c3f bd51 c1bd
00000320: 72a1 c6bd 859f 81bc 1aca 193e 080c 2d3f
00000330: 01a7 ed3e 3e92 17be 34ac 883e 8fb5 f4bd
00000340: 0035 ffbd 2471 63be 621d 1dbf 5bd5 9d3e
00000350: 8b55 14bf ee34 b63d f8d5 b33e 5da7 0f3f
00000360: ecce 33be 1da2 eabe 841e 2dbe 775d b2be
00000370: 288f 213f 771b ecbe 6c95 d4be 13f2 2d3e
00000380: 9bfd 6b3c 76ad a13d e499 e8be c87b f03e
00000390: a7bd 7e3e 5fbd 2d3c 2ba9 863e e643 823e
000003a0: 94b8 f73e 1f53 073f 67db 9ebd 9c32 cd3c
000003b0: 8531 08bc 7589 693e 363d d7bd 3122 833e
000003c0: 8bc2 da3e ffa5 12be a909 033f 4834 eebe
000003d0: def9 213e 5a5d 273f 6ebc 1e3f f8f8 2dbc
000003e0: 8fc5 adbe 43ff 9f3e 0dc1 3d3e da13 dd3e
000003f0: 0d06 10bf 0e95 8d3e 94b4 c93e eb18 a3bd
0.026625553 -0.5457683 0.44854212 0.31050426 0.60142237 0.13825925 -0.30209234 0.33135545
-0.55258757 -0.115920134 0.63580865 -0.5407984 -0.55570376 0.53222543 0.65061826 -0.3310142
0.027857296 -0.5997844 -0.29295895 0.139573 -0.023848305 0.08140844 0.4149606 -0.53876406
-0.60450625 0.19145302 0.08056046 -0.5446965 -0.63008636 -0.5885218 -0.55099857 -0.1188633
0.20542079 0.39003614 -0.1295138 -0.2217494 0.6986879 0.20115498 0.40050164 -0.68006426
0.03374108 0.6616116 0.097765215 0.44618252 0.67413276 -0.5977838 -0.58432144 -0.25366578
0.704207 0.2849991 0.64594847 0.5265188 -0.7144606 0.56095165 -0.2103503 -0.033185586
-0.07385178 -0.19570863 -0.41798827 -0.26156065 0.35992587 -0.2793494 -0.19016388 0.28737354
0.13883345 -0.73112965 -0.3610755 0.6500584 -0.40850386 -0.1527986 0.36154562 -0.080038056
-0.4534813 -0.18136476 0.7242578 -0.6193819 0.283529 -0.541063 -0.11007353 0.24694112
0.5236287 -0.049710438 -0.16837758 0.13251854 0.5304234 0.6281192 0.6973645 -0.4916557
0.65894914 0.67776334 -0.24474318 -0.483847 -0.35802442 0.1693559 0.19200645 -0.041395314
0.03245336 -0.7135373 0.3542358 -0.38656136 0.104729205 0.3633349 -0.08829708 0.42450994
-0.68593925 0.31707072 -0.50299287 -0.6812148 -0.48738524 -0.42003152 0.60159254 0.2507171
-0.005635245 -0.25191972 -0.48501468 -0.1934011 0.4932836 0.035250206 0.115794495 -0.3141077
0.12269927 -0.2372624 -0.038332794 -0.7002154 0.6332659 -0.41032895 0.6645049 -0.5718802
-0.41196263 -0.38834235 0.33141255 0.5287756 -0.052870266 0.4887005 -0.086470746 -0.2667278
0.10095718 0.25744447 -0.60283935 -0.70515704 -0.582322 0.5940409 0.39162576 -0.22268254
0.42690197 0.10392064 0.1840222 0.57197666 -0.1590164 0.20744687 -0.48514462 0.14518717
-0.37308836 0.0211514 -0.58741975 0.23979887 -0.58086663 0.26550913 0.42517996 0.56107247
-0.102219254 0.028092138 0.048631478 -0.48563176 -0.006121244 -0.48789334 -0.17972134 -0.37573534
0.5962591 -0.572704 0.34964982 0.6368694 -0.6571148 -0.71111727 -0.6005878 -0.5087172
0.5642618 0.1410597 -0.26317433 0.222997 0.2482812 0.5503497 0.02181532 -0.5949766
-0.6305922 -0.5038798 0.027250718 -0.4481519 0.010246708 0.23688093 0.671905 -0.32169306
-0.15766974 0.57295734 0.38386747 0.35370898 -0.0014761512 0.31198904 0.6094381 -0.094394185
-0.09698762 -0.015823135 0.15018502 0.67596483 0.46416476 -0.1480188 0.2669388 -0.11948692
-0.12461281 -0.22211128 -0.6137296 0.3082684 -0.5794303 0.08896814 0.35124183 0.5611475
-0.17559403 -0.45826808 -0.16906172 -0.34836933 0.63109064 -0.46114704 -0.4152025 0.16986875
0.014403726 0.07894413 -0.4542991 0.46969438 0.24877034 0.010604232 0.2630094 0.25442427
0.4838301 0.5286121 -0.077566914 0.025048546 -0.008312588 0.22806342 -0.10509722 0.25612023
0.4272655 -0.14321135 0.51186615 -0.46524262 0.15817973 0.6537682 0.6200627 -0.010618441
-0.33939788 0.31249437 0.18530674 0.43179208 -0.5625923 0.27652782 0.39395583 -0.07963737

weight f4 [256, 256]
00000000: 155d 413d cced 0cbd 8e3c 9dbd 4dcd 11bd
00000010: 504e fabc f196 4f3d 8219 74bd 8877 88bc
00000020: 33fa 4d3c cad7 493d b1b2 8fbc 6abc b53c
00000030: 485c 57bd dc0f 9ebc 1347 593d 14d4 ac3c
00000040: 2036 413b 2a1f 703d 2cd0 8b3c b835 263c
00000050: bb07 3bbd ae87 42bd 288a 3f3c aa1f f73b
00000060: e550 8f3d 05c9 67bd 80e2 353d 54db f7bc
00000070: adea dc3c 45d5 efbc f4ec 753d 50c5 c93c
00000080: 9289 49bd 9a1f 723c 068a 57bd 3afa 39bd
00000090: e8d6 383c 1c4f 85bd d21c 923b 4896 b9bc
000000a0: 29c8 c0bc 48f6 1fbc 00b2 243d 314e 4d3d
000000b0: ac45 de3c 1af3 55bd 4ce4 b13c 0659 7b3d
000000c0: f64a 79bd dc1f b2bc 8fbf 053d d3b8 113d
000000d0: e4fc 23bd db52 393d 8cbe 52bd a040 74bc
000000e0: 2b1b bf3c 029b 56bd 48bb 343d 2a02 203d
000000f0: 2882 54bb d4c2 d23c aca7 88bc 9d55 213d
00000100: 6c1b 113c faed 90bc 5c9d 523d 64e6 5bbd
00000110: 50fb 443d fc94 6bbd 37ef 373b 00ce 213d
00000120: 9872 473c 1ab1 79bd cfd2 8cbd 707a 5dbc
00000130: 6cc7 03bd 6641 453d a0b5 3f3d 966c 993c
00000140: 916b ecbc 6c46 dd3c 20d3 0a3c 6888 a3bc
00000150: 70f6 323c 0ff5 84bd e005 babb 87ac fdbc
00000160: 414c 793c 0c24 d73c 7b29 0dbd 8848 603c
00000170: 40e5 393d a091 9cbb 08ce a93c 72c7 6c3a
00000180: c067 08bd b214 5e3d 2cf8 09bd b2b8 94bc
00000190: 2325 53bd 91dc 323d 6520 2cbd 2342 4a3d
000001a0: 36a1 8cbc d62e 3fbd b8a8 aa3c cea1 923c
000001b0: a607 adbc 780c c5bc 1d83 563d 7f3a 74bd
000001c0: 5632 15bc ce34 1dbd 068e a03c 7e38 05bd
000001d0: 40b3 b5bb 418c cbbc cc5c 2cbc ace1 4d3d
000001e0: 7306 593d 4a42 583d 4522 dd3c 08ad 51bd
000001f0: 528d 62bd ae18 463d 94e1 053d ce93 4fbd
00000200: a703 26bb 0396 cdbc 5858 c73c bc48 9bbc
00000210: 7667 0b3d a6c6 1dbd 68d5 debc b73f ccbc
00000220: f8c2 b4bc 0787 ecbc 74b6 fd3c b982 08bc
00000230: 6091 8dbc 95ab f63c 14a4 473d acbf 033d
00000240: c6dc 0d3d 007a 4b3d 4b77 493d 0b44 393d
00000250: e12f 0fb9 bec4 3dbd 530f 98bc 7347 11bd
00000260: b80d a13c 5951 01bd 6919 183d a46a 343d
00000270: 3612 85bc f4aa a23a 0b64 223d 12e0 2e3d
00000280: c6f8 e03c 2864 b43c 94d6 413d 60ac 12bd
00000290: b72c 71bd fca6 de3c a649 623c e61a 753d
000002a0: 5bbf 41bd 408f 733b 904c f2bc a04f 4a3b
000002b0: e4e7 ae3c 7f71 de3c 90d8 d33c d0bc 93bb
000002c0: c650 863c ee15 4abd e774 abbc a7d3 78bd
000002d0: f655 c23c 92a4 323d a768 84bb 24f0 e0bb
000002e0: b093 1e3c 64b7 b13b 5294 603d 5858 98bc
000002f0: 3635 12bd d097 52bb 9656 77bd 6caf 5b3d
00000300: 8451 083d f4f3 393d 9e31 67bd 4089 3cbb
00000310: 3cea 023d 3c25 80bd 26d8 2d3d cc18 1e3d
00000320: 03ea 5e3d 956e f23c 7174 313d 17f7 3cbd
00000330: 6c96 2dbd 443b 533d 7996 3a3d d4c4 fc3a
00000340: 828f 2c3d f25a 6abd 9e4e 343d f170 95bc
00000350: 60a4 603c c967 1b3c 3a65 f13c 8871 333c
00000360: 5d4d 07bd dee6 ecbc 78ce d93c f481 463d
00000370: 7167 3bbc a7df 17bd 1009 ffbb 7ce6 32bd
00000380: a20e 1d3d 75ce 7cbc 2030 5ebb ad57 043b
00000390: b8bb 11bd 2052 72bc 12a9 2c3d 12ab 91bd
000003a0: 789c d1bc 745a 6c3d 2ec2 27bd 18aa 4bbc
000003b0: 1fc2 c63c 0e84 533d 4012 1bbd 80b5 e1ba
000003c0: f0ef d1bc cf31 11bd b408 7abb 6cb5 da3c
000003d0: cc2b c13c 11cb 18bd d0b6 a2bd 654e 36bd
000003e0: 49a6 3abc 56dc 513c 7378 5dbd 2e56 7aba
000003f0: 2b13 ee3c 7793 91bd db7c a33c 0aee 13bd
0.04720791 -0.03440647 -0.076775655 -0.03559618 -0.03055492 0.05068106 -0.05959464 -0.01665856
0.012571859 0.049278058 -0.017541261 0.02218457 -0.05257824 -0.019294672 0.053046297 0.02109722
0.0029481724 0.05862347 0.017067038 0.0101446435 -0.04566167 -0.047492675 0.011690654 0.0075416164
0.06997851 -0.05658819 0.04440546 -0.030255951 0.02696737 -0.0292765 0.06004043 0.024630219
-0.049203463 0.014778042 -0.052621864 -0.04540465 0.011281706 -0.065092295 0.004459002 -0.022654667
-0.023532944 -0.009763308 0.040208817 0.050123397 0.027132832 -0.052233793 0.021715306 0.061364196
-0.060862504 -0.021743707 0.032653388 0.035576653 -0.040036097 0.045245033 -0.05145125 -0.014907986
0.023328384 -0.05239392 0.044123918 0.039064564 -0.0032426212 0.025727667 -0.016681515 0.039388288
0.008856636 -0.017691601 0.0514196 -0.053686514 0.048091233 -0.05751513 0.0028066167 0.039503098
0.012173317 -0.060959913 -0.06876146 -0.013517961 -0.032172605 0.048158072 0.04680407 0.018728536
-0.028859885 0.027011119 0.008473188 -0.019962505 0.010923013 -0.06492054 -0.00567697 -0.030966057
0.015215934 0.026262306 -0.034463387 0.013689168 0.045384645 -0.004778102 0.020728126 0.0009032405
-0.03330207 0.054218955 -0.03368394 -0.018154476 -0.05154909 0.04366738 -0.04202308 0.04937948
-0.017166715 -0.046675526 0.020832404 0.01789942 -0.021121811 -0.024053797 0.052371133 -0.0596261
-0.009106239 -0.038380437 0.019598972 -0.03252458 -0.00554505 -0.024847152 -0.010520171 0.050264046
0.052984666 0.052797593 0.02699388 -0.051190406 -0.055310555 0.04836338 0.03268583 -0.050678067
-0.0025331767 -0.025095945 0.024334118 -0.01895558 0.034034215 -0.038519524 -0.02720137 -0.024932725
-0.022065625 -0.02887298 0.03097079 -0.008331948 -0.017281234 0.030111114 0.04874046 0.032165214
0.034634374 0.049676895 0.049186032 0.045230906 -0.00013655379 -0.046330206 -0.018561995 -0.03546853
0.019659862 -0.03157172 0.037133608 0.044047013 -0.016244035 0.0012410567 0.03964619 0.04269416
0.027462374 0.022020414 0.04732378 -0.03580892 -0.058880534 0.027179234 0.0138115045 0.059840105
-0.04730163 0.003716424 -0.029577523 0.0030870214 0.021350808 0.027153729 0.025860101 -0.004508592
0.016395938 -0.04933732 -0.020929767 -0.060748722 0.02372263 0.043613978 -0.004040796 -0.0068645645
0.009678766 0.005423473 0.05482895 -0.018596813 -0.035695277 -0.0032133944 -0.06038531 0.053634092
0.033280864 0.045398667 -0.056443803 -0.002876833 0.031961665 -0.06257102 0.042442463 0.038597867
0.05442239 0.029593745 0.043323938 -0.04613408 -0.04237978 0.051570192 0.04555366 0.0019284734
0.042129047 -0.05721564 0.044020288 -0.018242331 0.013711065 0.0094851935 0.029467214 0.010952361
-0.033032764 -0.02891868 0.02658771 0.048463777 -0.011438237 -0.037078526 -0.0077830628 -0.04367684
0.038344033 -0.015430083 -0.0033903196 0.002019386 -0.035579413 -0.014790088 0.042153426 -0.07112707
-0.025587305 0.05770345 -0.04095667 -0.01243069 0.024262486 0.05163961 -0.0378592 -0.0017220229
-0.025627106 -0.03544789 -0.003815216 0.026697837 0.023580454 -0.037303034 -0.07945025 -0.044508357
-0.0113921845 0.01280888 -0.054069947 -0.0009549585 0.029061874 -0.07108205 0.019956997 -0.036115684

bias f4 [256]
00000000: 92f7 3bbc 954a 95bc 5408 11bd 01fe 43bd
00000010: ec41 84bd 1049 953c 0c35 5b3d f668 403d
00000020: ee0c 0b3c a244 0abd 7150 c43c c80b 1d3c
00000030: 303a f1bc 60aa 8e3b df71 88bd aa3f 8abd
00000040: ea01 46bb 05ea 51bc 4162 d23c 24a9 983c
00000050: 2bf6 d83c 569f 623d 33c0 49bd c586 353d
00000060: 9ae1 6e3c a2c4 d53c 65d2 41bd bec9 193d
00000070: 672f b53c 086b 31bd e430 493c 66e5 0bbd
00000080: 4035 21bd 2243 4b3d 36e5 af3c d63e 0ebc
00000090: c55c 633d 6086 263d 17da 873b 461e 233d
000000a0: c36f 623d 2c09 a83c 8c5b ab3c c6bb 753d
000000b0: 5a7b 20bd 6d75 abbb b8db 183d b024 2a3d
000000c0: 78a2 243d d391 3cbd 0ef5 2a3d 00be 2cbc
000000d0: 5c34 8e3c 24dd abbc b6f3 303d 3b9f 1fbd
000000e0: a8d2 20bd 792b db39 eed9 adbd 0e7c 11bd
000000f0: e37c 82bd db33 933b 098d 943d 2676 6fbd
00000100: 186e 99bc 1c33 993c 660f 15bd 004b c9ba
00000110: e8e8 053c 917b a4bc e8fb 773d 1305 3fbb
00000120: 0942 58bd 3584 df3c 0d22 86bc daeb 04bd
00000130: a4d7 e6bc 17d3 88ba 5ab8 86bd 15d2 2ebc
00000140: cd22 94bd 6c71 453c b26b 5a3d d43c d3bc
00000150: cfb8 223d b350 5abc f0a3 0f3c 3525 a93d
00000160: 860f 31bc a80f f13c dbcf ef3b 39d1 40bd
00000170: 18dc 02bd d891 e93c 8c22 5c3d 12c1 10bd
00000180: 98da 74bd 4dc8 5d3d cf33 b6bc 0b1f 21bc
00000190: 4a25 023d 3cb8 b13c 1e01 6f3d 176a b2bc
000001a0: 642b 723d 2e22 453d 0263 47bd e499 983c
000001b0: b885 303d c7e2 ea3c 9036 fd3b 099e ef3c
000001c0: 2b90 ab3d 567d cb3c 58c8 143c 4cf5 ecbc
000001d0: 922e f73c c04d 1c3c 5141 6f3d e7f7 07bb
000001e0: e4a0 c8bc 86fd ebbc b3b4 7bbd 8c83 0a3d
000001f0: 0423 c2bc e68c 333d 31d8 66bc 0064 453a
00000200: 0473 023d 4e96 4a3d ec43 e53c a4e2 963d
00000210: fdc6 e6bc d08b 793c 6b6f 92bd 3c1a 60bb
00000220: 8b41 d43c 1d7a cebc f049 91bb a508 c23a
00000230: da5c 1a3d 7001 6e3d 78c5 003d ad8c 93bc
00000240: f700 35bd 54c8 a0bc 1032 763d 64b1 033d
00000250: 7069 403d 64ff abbc efba 35bb e8fd 95bd
00000260: e82e fe3c ad80 153d 2073 a1bc 7043 983c
00000270: 2756 443a 7663 ad3d de8c 4fbd c49f a83c
00000280: a817 10bc 8d38 44bd 0054 6339 286a 01bc
00000290: d12e eb3c 2a0d 513d 4622 54bd c9db 153d
000002a0: 2b0c d4bb 1ed0 e4bc ea69 383d 4428 d03c
000002b0: 9755 cb3c 402e 083d 88e6 d03c d086 1abd
000002c0: 103b 6c3c 40a0 1abd 139b 6ebd 10e5 6ebd
000002d0: 4f3f b63a 4c3e 3c3d 60c3 e3bc 31cf d93c
000002e0: f890 043d 6d66 b43c 2624 943c 302e 5ebd
000002f0: 5d08 fb3c 24a8 9b3c 2af6 283d 18f4 c1bc
00000300: 9803 143d f61f e8bb 3c20 57bb 43ab 71bc
00000310: 364f 853d bd91 6cbd 7ee2 ccbc 1240 d93c
00000320: 20c4 a9bc e2d4 1dbc 203d a2bc 6a9e 99bc
00000330: 9d9c 43bd edb5 e13c 6a3f 2abd 14be 513b
00000340: 745c 7b3d e923 63bd cd43 8fbd eb7f 333d
00000350: 3a2e 78bd ae83 623d ec74 b53c 86c4 82bd
00000360: b06a adbd 601f f53c 905d 853b 6812 cebc
00000370: 14f2 e2bc 7003 6a3c f0fb 2a3d 105b 803c
00000380: 0869 a83c b20a 00bd 20f6 1abd 1a08 4a3d
00000390: 13b5 023d 4b21 b83c 560a 32bc f4d4 1cbd
000003a0: b7c0 11bb 40ab 1abb 4c70 25bd 0c12 6e3d
000003b0: 9c7b b9bc 4604 a6bc b43d 00bd a5ae 6d3d
000003c0: a5a3 f43b fef9 14bd ac20 383d d6df 36bd
000003d0: 0cc9 3b3d a404 6c3d 705b 42bc 1b4c 923d
000003e0: 3964 c63b cbc0 01bd 7092 7ebd 4047 433d
000003f0: c4bf 8bbb 24f6 c5bc 77da 2f3d 80e4 503c
-0.0114726 -0.01822404 -0.035408333 -0.04784966 -0.06457886 0.018223315 0.053517386 0.0469751
0.008486969 -0.03375686 0.023964139 0.009585328 -0.029446691 0.0043538064 -0.06662344 -0.06750424
-0.0030213543 -0.012812142 0.025681617 0.01863534 0.02648457 0.055327736 -0.04925556 0.04431798
0.014580155 0.026094738 -0.04731979 0.037545912 0.02211733 -0.043314964 0.012279723 -0.03415432
-0.039357424 0.04962457 0.021471601 -0.008681973 0.055508394 0.040655494 0.0041458714 0.039823793
0.055282366 0.020512186 0.020917676 0.059993528 -0.039180137 -0.005232504 0.037318915 0.041538894
0.040194005 -0.046037506 0.04173761 -0.010543346 0.017358951 -0.020979472 0.04320117 -0.038970213
-0.039263397 0.00041803325 -0.084888324 -0.0355187 -0.063714765 0.0044922656 0.07253463 -0.058462285
-0.018729255 0.018701129 -0.03639164 -0.0015357435 0.008173205 -0.020078452 0.06054297 -0.0029147312
-0.05279735 0.02728472 -0.016373659 -0.032451488 -0.028178997 -0.0010438886 -0.06578131 -0.010670205
-0.072332 0.012050968 0.053325363 -0.025785841 0.03972703 -0.013324904 0.008767113 0.0825905
-0.010806924 0.02942641 0.0073184795 -0.04707453 -0.03194818 0.028511927 0.053743884 -0.035340376
-0.05977878 0.0541461 -0.022241501 -0.009834061 0.031773843 0.021694295 0.058350675 -0.021779103
0.05912341 0.0481283 -0.048678406 0.018628068 0.043096274 0.028672589 0.0077274516 0.029250162
0.08377107 0.024840038 0.009080969 -0.02892556 0.030173574 0.009540021 0.0584119 -0.0020747127
-0.024490781 -0.028807413 -0.061451625 0.03381686 -0.023698337 0.043835543 -0.01408963 0.0007529855
0.03184797 0.049459748 0.02798649 0.07367447 -0.028171057 0.015231088 -0.071501575 -0.0034195324
0.02591016 -0.025204713 -0.004433863 0.0014803602 0.037686206 0.05810684 0.03143832 -0.018011415
-0.044190373 -0.019626774 0.060106337 0.032151595 0.046975553 -0.020995803 -0.002772983 -0.073238194
0.031028226 0.036499668 -0.019708216 0.018586844 0.00074896443 0.08466236 -0.05067145 0.020583995
-0.008794703 -0.047905494 0.000216797 -0.007898845 0.028708847 0.051037945 -0.0517905 0.036586557
-0.006471177 -0.02793127 0.045022883 0.025409825 0.024821086 0.033247232 0.02550055 -0.037726223
0.0144183785 -0.037750483 -0.05825336 -0.05832392 0.0013904365 0.04595785 -0.027803123 0.026588054
0.032364815 0.022021497 0.018083643 -0.054243267 0.030643636 0.019001074 0.041250385 -0.023675963
0.03613624 -0.007083888 -0.003282561 -0.014750305 0.06509249 -0.057756174 -0.025010344 0.026519809
-0.020723403 -0.009633275 -0.019804537 -0.018752296 -0.04775678 0.02755257 -0.041564383 0.0032004165
0.061367467 -0.05545417 -0.06995354 0.043823164 -0.06059096 0.05530136 0.02215048 -0.0638514
-0.08467615 0.029922187 0.0040699914 -0.025155261 -0.027703322 0.014283046 0.041744173 0.015668422
0.020557895 -0.0312602 -0.03783238 0.049324133 0.031910967 0.022476813 -0.010866722 -0.038289025
-0.002224011 -0.0023600608 -0.040390298 0.05812268 -0.02264195 -0.02026571 -0.031308845 0.058027882
0.007465797 -0.036371224 0.044953033 -0.04464706 0.04584603 0.057621613 -0.011862621 0.07143422
0.006054428 -0.031678002 -0.062151372 0.04767537 -0.0042648036 -0.02416522 0.042932954 0.012749791

weight f4 [1, 256]
00000000: 7b28 ca3c 29b4 5d3d f8e6 43bc 2b77 083c
00000010: 7045 a33c 601b 313d 4444 10bd 76fb c1ba
00000020: e2f4 1d3d c239 183d 9d44 1bbc dcf5 c03b
00000030: c5f9 e03c 00cf 753d b649 993b a8ce c339
00000040: e055 21bc f86a 5ebd 33e3 0f3d d7c9 e1bc
00000050: 6fbd b73c f237 783d aa62 d93c ddc0 bfbc
00000060: fc06 fbbc d963 633d 1d5b f33b 4e83 55bd
00000070: 51bf 483a 3ae6 70bd b579 52bd 18f7 9b3c
00000080: 7020 63bc 1896 553d 4214 48bd 2d3a 473d
00000090: 2078 60bc 9069 cabb e75c cdbc c1c1 56bc
000000a0: b0bc 4dbd 453f 7cbb 2824 49bc f0d3 f93c
000000b0: 7bef f539 a57d 86bc 8041 a2ba dc9d 79bd
000000c0: 5af3 1abd 2910 e73a 50d1 22bd 60c5 d9bb
000000d0: 80d7 42bd 4074 09bd 505c 3ebd db14 433d
000000e0: 84eb 8c3c dc1e 2ebd 56ed 7a3c a2d4 26bd
000000f0: 216c f73c 518f 0fbc 3800 6cbd 8118 143d
00000100: 0cbb 63bd 8ccf 483d 409c 5ebb 3a8a 483d
00000110: 04ce b7bc 946c 60bd ca1b 21bd d3ed aebc
00000120: b742 333d 77e7 ffbc 94ec 25bd c02f 113d
00000130: b20f 3ebd 7298 4abc e993 323d da64 e23c
00000140: 8436 14ba 0f75 0bbd 3723 62bd 804b 7b3d
00000150: 85df 91bc fc4e 67bc 4c9b 0fbd a45d 49bc
00000160: 992b 9b3b a326 16bc cfdf 493c b54a 883b
00000170: 8e36 603d d0fa 29bc ccd9 a83c f34d 14bd
00000180: f2a3 5ebd 8d90 413d 5bcf 3abd 598f 703c
00000190: 585a 22bc 26c8 4f3d e861 8fbc 2e1e 15bd
000001a0: 400f 9d3a 6700 47bd 3a24 713c 8079 9abb
000001b0: 2402 8abc ab8b 3abd e0d1 f9bc 224b 00bd
000001c0: c372 44bd 16ca 58bd ece2 f0bc 9285 43bd
000001d0: f27c fd3c 7e17 37bd 4275 5ebd 7f01 6739
000001e0: 3218 06bd fdbc 633d 11ea 62bd 0085 b23b
000001f0: a8a7 473c a8af 51bd bdde 183a 048d 043d
00000200: f10b 59bb f008 ef3c d049 8b3b 1998 0dbd
00000210: f991 51bd 9043 69bd c270 b63c 4d2c 08bd
00000220: 28a6 313d 1654 523d 14b3 dfbc 4d77 f3bc
00000230: f400 503d 00ac 7ebc 00e3 413d 9b64 2f3c
00000240: 5555 583c f42d 1f3d a0a5 c0bc 8c8b dd3c
00000250: e6cf 1d3d f12b 623d 5043 a93c af00 523d
00000260: 0072 f539 4fd7 083c 18f7 c6bc 48e1 0b3c
00000270: bc8a 843c 8c89 3ebd 607b c4bc 092d 043d
00000280: 50be 303c f4ad 1f3c ec11 e1bc ea47 4e3d
00000290: c435 60bd f01e dabc cce6 cf3c 6e7e acbb
000002a0: 826e 113d c494 683d 5c14 d73c d08a 27bd
000002b0: 6859 33bd 2077 e5bb b633 56bb fce9 c73c
000002c0: d4de b23c a82d 42bd 6a51 9f3c 4e9e 1f3d
000002d0: 8a7a 39bd 8aa9 0bbd 108e 71bd 0172 69bd
000002e0: 5c9e 21bd 0791 53bd c85f 4ebd d841 723d
000002f0: 06cb c13c c896 043d 404d ecbb ce7e 12bd
00000300: 28aa 09bc 9d0d f0bc 2b99 cbbc 2daa 213b
00000310: ac7b d9bc 77c7 94bc c9b1 343d d037 45bd
00000320: 8f5a 0c3d 580b dc3c 6058 713c ca04 84bc
00000330: dba7 c93b 8046 7a3c fca8 443d cf22 433c
00000340: a656 e8bc bf4a 9239 47a2 b43c a715 28bd
00000350: 9724 3b3b 3382 26bd 54a1 5fbd 1d01 f83c
00000360: 89e3 d23c bdbc 003d 8290 963b 18f2 59bd
00000370: d0a5 d73c 28c7 8abc 0d96 08bd b02d e4bc
00000380: 7659 45bd d082 a83b f06c a0bb 0c6d 81ba
00000390: ea08 10bd 481b e63c 8b49 eb3c 4ed0 5cbd
000003a0: 8334 24bb ecf3 33bd d038 bfbc 7c1c 1b3d
000003b0: 039d 4d3c e7f8 283d c432 73bd 1dab 403d
000003c0: 5593 1fbd c486 edbc 8028 973a 20c9 cc3b
000003d0: 00ca 3a3b 6c1c 233d f8e5 0cbd cab7 94bc
000003e0: eab8 31bb 89c1 2dbb 5fb7 d4bc a053 213d
000003f0: b757 3a3d 2dea 3b3d 152d 4abd 0a54 463d
0.024677506 0.054126892 -0.011956923 0.008329193 0.019930571 0.043238997 -0.035221353 -0.0014799673
0.038563617 0.037164457 -0.009476808 0.0058886837 0.02746285 0.060011864 0.0046779765 0.0003734727
-0.009847134 -0.054301232 0.035128783 -0.027562065 0.022429196 0.06060023 0.026536305 -0.023407394
-0.030642979 0.055515144 0.007426633 -0.052127175 0.0007657903 -0.05881331 -0.0513856 0.019038722
-0.013862714 0.052145094 -0.048847444 0.048639465 -0.013700515 -0.006177135 -0.025068713 -0.013107718
-0.050228775 -0.003848986 -0.012276687 0.030496567 0.00046908468 -0.016417334 -0.001237914 -0.060941562
-0.037829734 0.0017628717 -0.039750397 -0.0066458434 -0.047568798 -0.03355813 -0.046474755 0.04762731
0.017202146 -0.0425099 0.015315374 -0.040730126 0.030202927 -0.008762197 -0.057617396 0.03615618
-0.055598304 0.049026057 -0.0033967644 0.048959948 -0.022437103 -0.05479105 -0.039333142 -0.021353638
0.043764796 -0.0312383 -0.04050882 0.03544593 -0.046401687 -0.012365447 0.04359809 0.02763598
-0.00056538754 -0.034047183 -0.055209365 0.0613513 -0.017806778 -0.014117952 -0.035060212 -0.012290392
0.004735422 -0.009164485 0.0123214265 0.0041592964 0.054739527 -0.01037474 0.020611666 -0.03620715
-0.05435557 0.047256995 -0.045607906 0.014682614 -0.009909235 0.050727986 -0.01750274 -0.036405735
0.0011982694 -0.048584368 0.01471811 -0.004714191 -0.016846724 -0.045543354 -0.030495584 -0.031321652
-0.047961008 -0.0529271 -0.02940508 -0.047734804 0.030943368 -0.04470014 -0.054311045 0.00022030434
-0.03273792 0.055600155 -0.055399004 0.0054479837 0.012185968 -0.05119291 0.00058315304 0.032361045
-0.003311869 0.029179066 0.0042507425 -0.03456888 -0.0511646 -0.0569492 0.022270564 -0.033245374
0.04337135 0.05134972 -0.02730707 -0.029719973 0.05078216 -0.015543938 0.047335625 0.010705139
0.0132039385 0.038862184 -0.023516476 0.02704408 0.038528346 0.055217687 0.02066198 0.051270183
0.00046814978 0.008352115 -0.024287745 0.008537598 0.016179435 -0.046517894 -0.023984611 0.03226951
0.010787562 0.0097460635 -0.027474366 0.05036155 -0.054738775 -0.02662608 0.025378607 -0.005264095
0.03550578 0.0567825 0.026254825 -0.040903866 -0.043786436 -0.007002726 -0.003268463 0.024403565
0.021834768 -0.047406822 0.019448001 0.03896933 -0.045282878 -0.034097232 -0.058973372 -0.05699349
-0.039457664 -0.05165198 -0.050384313 0.059144825 0.02365638 0.03237036 -0.0072113574 -0.03576546
-0.008402385 -0.029303366 -0.02485331 0.0024668083 -0.02654823 -0.018161518 0.04411486 -0.04814893
0.03426605 0.026860878 0.014730543 -0.016115565 0.006154043 0.015275598 0.04801272 0.0119101545
-0.02836163 0.0002790298 0.022050036 -0.041036274 0.0028555745 -0.04065151 -0.054597214 0.030273968
0.025743263 0.031429995 0.0045948634 -0.053209394 0.026324183 -0.016940668 -0.033346225 -0.027853817
-0.04818102 0.005142547 -0.004895799 -0.0009874417 -0.03516475 0.02808918 0.028721591 -0.053909592
-0.0025055713 -0.043933794 -0.02334252 0.03786896 0.012549642 0.041252997 -0.059374586 0.047038186
-0.038958866 -0.028994925 0.0011532456 0.006249562 0.002850175 0.039822027 -0.034399003 -0.018154044
-0.0027118274 -0.002651306 -0.025966344 0.03938639 0.045493808 0.045877624 -0.0493594 0.04841999
