checkpoints/NGSIM_lstm_model.pt (torch, 41183 bytes, 9 tensors)

weight_ih_l0 f4 [128, 4]
-0.030266318 -0.0064031314 0.0832255 -0.11001211 0.07580763 0.10839879 -0.08813123 -0.113778204
-0.07585495 0.016516685 0.0010063357 0.07364267 0.050379246 0.19524314 0.07084951 -0.07049128
0.011431911 0.13060269 0.0031592913 -0.056481246 0.08626776 0.12520719 -0.056207914 0.056176882
-0.035215788 -0.1456778 0.23999217 0.16480099 0.020672265 0.17388149 -0.1291753 0.22155161
0.14396816 0.027822848 0.15591778 -0.051664323 0.093040854 -0.021186978 -0.038412806 0.091024995
-0.0014931989 0.035935543 -0.03584383 -0.14770223 0.15592194 0.010952578 -0.011117733 0.11571805
-0.03378614 0.0054186797 0.020531427 -0.088981345 0.045931954 0.02950162 -0.0681751 -0.117116086
-0.043071058 0.010013035 0.11175712 -0.07618181 -0.06564078 -0.0205724 0.15126483 0.019957082
0.23667364 0.036996875 0.07685003 0.16172364 0.15322965 0.22147642 0.10518601 0.21759696
-0.04555883 0.048299536 0.067351736 0.09073162 0.14120966 0.05704407 0.08708639 0.03135042
0.05133427 -0.1659955 0.17446604 0.12278081 -0.053922184 -0.02522146 0.06387642 -0.046132017
-0.068653695 0.2249013 -0.20138422 -0.009957176 -0.03134103 0.14367563 -0.22183526 -0.16372856
0.08892002 -0.13047378 0.019499952 -0.11891678 -0.0729602 0.103979506 -0.020274697 0.03796423
0.18846902 -0.079475604 -0.09005721 -0.10911924 0.031416316 -0.051265884 0.029695291 -0.012700345
-0.116940066 -0.06205057 0.034847412 0.05133803 -0.047064446 -0.031648494 -0.092531525 0.10442242
0.036590826 -0.025259666 0.054317728 -0.040246256 -0.18526398 0.11095778 0.18395573 0.01803944
0.03693656 0.111900255 -0.17536187 0.07193576 0.07924458 -0.011941058 -0.09173883 0.047861457
-0.15280117 -0.09048519 -0.14679605 0.15977295 -0.08150063 -0.011071844 0.16749132 0.08152018
-0.07976687 -0.029703068 -0.084743954 0.15189303 0.05326609 0.14814393 0.013749053 0.026310511
0.039264426 -0.022533586 0.100308694 0.13615485 -0.08050681 0.102806315 0.14255546 0.12480665
0.039136786 -0.04489384 0.035527293 -0.10030661 0.018130254 0.12505607 -0.048598852 0.20895249
0.10383354 0.036979 -0.13503808 0.084892325 -0.015455057 -0.0452945 -0.061942317 -0.030085366
-0.13436078 0.092856474 0.12331024 -0.021578606 -0.055392515 0.11034695 -0.12886998 0.15453841
0.089233495 0.001291242 0.13603777 -0.05264731 0.03460371 0.06775529 0.15145147 -0.0805031
0.056772165 0.22298303 -0.05827451 0.008219524 0.019283358 0.058479678 0.05984346 0.07818138
0.07888852 0.07259154 -0.009553867 -0.0068105618 0.1100569 0.118593104 -0.030235138 -0.05691585
-0.061588515 0.14622228 -0.01333801 0.15704702 0.091351144 0.16223834 0.05985385 0.18856966
-0.01584376 0.052533086 -0.1081084 0.12011574 -0.11079619 0.091409594 -0.21472509 0.0039203665
0.06089099 -0.07083212 0.2700215 -0.04222544 -0.023658 -0.09732667 -0.15066297 0.0969477
-0.01185509 -0.0019677428 0.012554763 -0.007204063 0.15718351 -0.024476124 0.02358211 0.035319623
-0.06416949 -0.074220344 0.012549364 -0.006384534 0.07049146 0.1778534 -0.047148503 -0.15892702
0.15435684 -0.008126692 -0.11264092 0.132257 0.109477155 0.063342676 -0.008186799 -0.06873083
00000000: 12f1 f7bc 5cd1 d1bb 2272 aa3d 074e e1bd
00000010: 0841 9b3d 2f00 de3d 257e b4bd 8c04 e9bd
00000020: d759 9bbd 004e 873c 06e7 833a f8d1 963d
00000030: 785a 4e3d d1ed 473e 8c19 913d bb5d 90bd
00000040: e94c 3b3c b6bc 053e 1d0c 4f3b e158 67bd
00000050: 27ad b03d 5036 003e 453a 66bd bb19 663d
00000060: 6e3e 10bd 902c 15be 82c0 753e 97c1 283e
00000070: e258 a93c fd0d 323e 8846 04be 6dde 623e
00000080: 646c 133e beec e33c e9a8 1f3e f89d 53bd
00000090: 348c be3d 5090 adbc bf56 1dbd 506b ba3d
000000a0: 71b7 c3ba 2631 133d fbd0 12bd 413f 17be
000000b0: 00aa 1f3e 7172 333c 2727 36bc 96fd ec3d
000000c0: 5663 0abd 2e8f b13b 8631 a83c da3b b6bd
000000d0: 2523 3c3d 62ad f13c 639f 8bbd 8fda efbd
000000e0: 476b 30bd b60d 243c ebe0 e43d 3505 9cbd
000000f0: ac6e 86bd 7387 a8bc 2be5 1a3e 097d a33c
00000100: 935a 723e 098a 173d 8c63 9d3d e29a 253e
00000110: 3ce8 1c3e b7ca 623e c36b d73d bdd1 5e3e
00000120: e59b 3abd bcd5 453d b5ef 893d 80d1 b93d
00000130: 4499 103e 0ba7 693d 595a b23d 4c69 003d
00000140: e243 523d b9fa 29be 3aa7 323e 8174 fb3d
00000150: 82dd 5cbd 3c9d cebc a4d1 823d edf4 3cbd
00000160: 4f9a 8cbd 874c 663e aa37 4ebe 6c23 23bc
00000170: 745f 00bd b41f 133e c828 63be 76a8 27be
00000180: b31b b63d eb9a 05be 5dbe 9f3c a48a f3bd
00000190: 286c 95bd 35f3 d43d 1f17 a6bc 6180 1b3d
000001a0: 06fe 403e 1bc4 a2bd ea6f b8bd e879 dfbd
000001b0: 65ae 003d 2dfc 51bd 8a43 f33c 1c15 50bc
000001c0: 467e efbd bd28 7ebd 29bc 0e3d d347 523d
000001d0: a6c6 40bd daa1 01bd 2b81 bdbd 6cdb d53d
000001e0: 43e0 153d 5ced cebc 447c 5e3d 42d9 24bd
000001f0: d7b5 3dbe d53d e33d e45e 3c3e 73c7 933c
00000200: ca4a 173d f62b e53d 1092 33be 0e53 933d
00000210: fb4a a23d 6da4 43bc 91e1 bbbd 600a 443d
00000220: e977 1cbe 4d50 b9bd b451 16be 859b 233e
00000230: cde9 a6bd ae66 35bc d882 2b3e 0df4 a63d
00000240: d05c a3bd d953 f3bc 3d8e adbd d989 1b3e
00000250: 8b2d 5a3d 0bb3 173e b543 613c 2489 d73c
00000260: bcd3 203d 5b98 b8bc a56e cd3d 2d6c 0b3e
00000270: c1e0 a4bd 1e8c d23d 0ffa 113e a19a ff3d
00000280: e54d 203d 9ae2 37bd 1185 113d 8d6d cdbd
00000290: e685 943c b30e 003e 970f 47bd a4f7 553e
000002a0: aea6 d43d 4b77 173d 6c47 0abe 07dc ad3d
000002b0: 3537 7dbc ba86 39bd 3ab7 7dbd 9675 f6bc
000002c0: df95 09be 892b be3d 148a fc3d 9ec5 b0bc
000002d0: 43e3 62bd 95fd e13d 7ef6 03be 513f 1e3e
000002e0: 0dc0 b63d e43e a93a 7c4d 0b3e b5a4 57bd
000002f0: 9fbc 0d3d 49c3 8a3d 1816 1b3e cfde a4bd
00000300: ee89 683d aa55 643e 41b1 6ebd 2fab 063c
00000310: 22f8 9d3c 6388 6f3d 6a1e 753d 8f1d a03d
00000320: 4e90 a13d e0aa 943d d387 1cbc 222b dfbb
00000330: 8365 e13d f1e0 f23d aeaf f7bc 9820 69bd
00000340: 3d44 7cbd 4bbb 153e ab87 5abc efd0 203e
00000350: 4f16 bb3d cf21 263e 5029 753d 6818 413e
00000360: c6ca 81bc ef2c 573d f067 ddbd 3eff f53d
00000370: 1de9 e2bd f434 bb3d e5e0 5bbe 6b76 803b
00000380: d568 793d 6e10 91bd 4240 8a3e 95f4 2cbd
00000390: 6cce c1bc 3553 c7bd 6547 1abe 848c c63d
000003a0: da3b 42bc 3ff5 00bb 7eb2 4d3c 0f10 ecbb
000003b0: b7f4 203e 2782 c8bc 452f c13c 4fab 103d
000003c0: 4b6b 83bd d600 98bd d99b 4d3c 5a35 d1bb
000003d0: d45d 903d 341f 363e ca1e 41bd c4bd 22be
000003e0: b80f 1e3e d125 05bc 48b0 e6bd 616e 073e
000003f0: 8f35 e03d ceb9 813d ec21 06bc c0c2 8cbd

weight_hh_l0 f4 [128, 32]
-0.02251577 -0.034623254 0.15699211 -0.10558722 -0.11391738 -0.13094184 0.07896583 0.10554193
-0.07353117 -0.026151657 0.0159199 0.029289244 0.07141705 0.029051589 0.122088574 -0.048248142
0.08252612 0.15460272 0.04673037 0.059367154 -0.17151728 -0.010252266 -0.16321796 -0.0056982175
-0.23554173 0.11290581 0.0050158654 0.1415908 0.071288496 -0.015084663 0.085092284 0.10437055
0.0327369 -0.11088336 -0.02500818 -0.19941668 0.11687233 -0.090902045 -0.1158887 0.11418517
-0.11026015 0.2077748 0.15748885 0.030147076 0.001831649 0.18449262 0.091904566 -0.029242141
0.117989555 0.13034752 -0.16794129 0.007833544 -0.015818074 -0.04259452 0.05480005 0.032835934
0.09904019 0.18356273 -0.15118058 0.17316134 0.10235645 -0.19140935 -0.0142821325 0.21469618
-0.06843837 -0.029100562 -0.028884683 -0.13453783 -0.05161477 -0.10745378 0.012026628 0.00995524
0.23334254 -0.05245005 0.10880888 0.001572661 0.11148127 -0.0101288995 -0.08646578 -0.14733906
0.010363806 -0.19105615 -0.025334101 0.11037547 -0.039885882 0.04015304 -0.13184446 -0.14092416
0.074739754 0.10262918 0.09964695 0.08190095 -0.03492924 -0.019546077 -0.15849975 0.14769143
-0.062630884 0.07749397 0.15691815 0.040566318 0.17661706 -0.09454623 0.039015774 0.11302388
-0.11929511 -0.17349605 -0.024781113 -0.22015372 0.1934788 -0.090960085 -0.1319106 0.13282768
0.0820152 -0.040774893 -0.07391205 -0.010930117 0.118952855 -0.0594313 -0.15663005 -0.051318448
-0.16541603 -0.19662791 0.14415488 0.11690247 -0.056768987 0.09447988 0.046513747 -0.1271158
-0.116382614 -0.13312365 0.15530393 -0.093574844 -0.09750793 -0.1618092 0.034110166 0.18492284
0.17603375 0.1578435 -0.049692865 -0.15189655 0.12357046 -9.48396e-05 0.1768788 -0.20758243
0.15567115 -0.042392854 -0.10726966 -0.031532913 -0.19323501 0.019046612 -0.040169984 -0.1096271
-0.2416204 -0.0452877 -0.18477865 -0.17137198 -0.11081605 -0.16743682 0.0857662 0.114535734
-0.24062675 0.040983167 -0.1992239 0.07978639 -0.10540794 -0.12096764 -0.09175097 0.13296582
0.003250473 -0.0025846453 -0.06806714 -0.080076076 -0.0059334273 -0.073077604 -0.017896036 0.035306025
-0.0203939 -0.020310398 -0.00062343985 -0.019873973 -0.13482127 0.020518977 -0.016548757 -0.07386871
-0.0049793734 0.12246672 -0.23229264 -0.07175759 -0.043024477 -0.07365081 0.23036824 0.00954761
-0.14667177 -0.011614474 0.088535234 -0.0952866 -0.05412731 0.18630344 0.16391562 -0.2249539
-0.06772895 -0.12590697 0.08576579 -0.039492644 0.18505785 0.1161416 -0.0465084 0.007315841
-0.043251272 0.15141252 0.07044709 -0.23912069 0.17738529 -0.060008273 -0.19202565 0.17049044
0.22941303 -0.14985694 -0.051528078 -0.07822661 -0.09829664 -0.07196188 -0.07726466 -0.02123233
0.20302592 -0.06661641 0.098554164 0.17011592 0.10037646 0.17300671 0.20697127 -0.16381125
-0.015302061 -0.14965387 -0.113552034 0.119257785 0.13759392 -0.043707315 0.08624559 -0.101170935
-0.0073664263 0.21509038 0.04720046 0.05864514 -0.105198465 0.052004397 -0.0037542258 0.046345577
-0.052627586 -0.009845795 -0.012433774 -0.030596789 -0.13658687 -0.026056048 0.08826972 0.097992346
00000000: fe72 b8bc 1dd1 0dbd 8ac2 203e 1d3e d8bd
00000010: 844d e9bd 9e15 06be d6b8 a13d 5e26 d83d
00000020: 8397 96bd 003c d6bc 736a 823c ffef ef3c
00000030: 1a43 923d 99fd ed3c 9309 fa3d d89f 45bd
00000040: 7403 a93d 2d50 1e3e 5868 3f3d f92a 733d
00000050: 3aa2 2fbe 1ff9 27bc 9c22 27be 1db8 babb
00000060: da31 71be 293b e73d 215c a43b 2efd 103e
00000070: b4ff 913d aa25 77bc dd44 ae3d 3ac0 d53d
00000080: 2117 063d d116 e3bd f4dd ccbc e333 4cbe
00000090: c35a ef3d da2a babd 0e57 edbd ead9 e93d
000000a0: 13d0 e1bd ebc2 543e c244 213e 00f7 f63c
000000b0: f113 f03a a2eb 3c3e 7638 bc3d 378d efbc
000000c0: 82a4 f13d d279 053e cdf8 2bbe 4458 003c
000000d0: e894 81bc 9777 2ebd 0476 603d f97e 063d
000000e0: 95d5 ca3d def7 3b3e 15cf 1abe 3551 313e
000000f0: 42a0 d13d d000 44be 9bff 69bc 51d9 5b3e
00000100: 6b29 8cbd 4d64 eebc 929f ecbc 49c4 09be
00000110: 026a 53bd ba10 dcbd 550b 453c 4e1b 233c
00000120: 59f1 6e3e ddd5 56bd 31d7 de3d bf21 ce3a
00000130: 4b50 e43d aff3 25bc f914 b1bd 0de0 16be
00000140: f4cc 293c 39a4 43be 7689 cfbc 890c e23d
00000150: 615f 23bd 8477 243d 3c02 07be 6c4e 10be
00000160: 2811 993d 3f2f d23d b313 cc3d afbb a73d
00000170: f611 0fbd 181f a0bc c24d 22be 6c3c 173e
00000180: 9f44 80bd 29b5 9e3d 27af 203e de28 263d
00000190: 1adb 343e 74a1 c1bd 01cf 1f3d 1079 e73d
000001a0: ff50 f4bd f3a8 31be c301 cbbc fa6f 61be
000001b0: 4e1f 463e 4849 babd 9313 07be fb03 083e
000001c0: 96f7 a73d 9303 27bd 335f 97bd 3c14 33bc
000001d0: 8e9d f33d 3c6e 73bd a163 20be 4b33 52bd
000001e0: d262 29be d458 49be 569d 133e 906a ef3d
000001f0: 9986 68bd ab7e c13d 3385 3e3d a52a 02be
00000200: 025a eebd 9151 08be fe07 1f3e 2ba4 bfbd
00000210: 3db2 c7bd 50b1 25be 1ab7 0b3d 6a5c 3d3e
00000220: 3142 343e baa1 213e bf8a 4bbd c58a 1bbe
00000230: 8212 fd3d 9fe4 c6b8 b71f 353e 7d90 54be
00000240: 4268 1f3e 21a4 2dbd 32b0 dbbd a828 01bd
00000250: 66df 45be a407 9c3c 4889 24bd 2c84 e0bd
00000260: 576b 77be 987f 39bd 9d36 3dbe 237c 2fbe
00000270: 86f3 e2bd 8f74 2bbe 31a6 af3d b691 ea3d
00000280: dc66 76be f7dd 273d 5a01 4cbe 0c67 a33d
00000290: 1ee0 d7bd e2bd f7bd efe7 bbbd 3128 083e
000002a0: e305 553b 2763 29bb c966 8bbd edfe a3bd
000002b0: 326d c2bb b6a9 95bd b59a 92bc 0d9d 103d
000002c0: 1c11 a7bc fe61 a6bc 576e 23ba bece a2bc
000002d0: 960e 0abe 6a17 a83c 4291 87bc 7a48 97bd
000002e0: 032a a3bb d5cf fa3d 1fde 6dbe a5f5 92bd
000002f0: 6f3a 30bd 3cd6 96bd a7e5 6b3e 946d 1c3c
00000300: 2031 16be a24a 3ebc f651 b53d 9f25 c3bd
00000310: 99b4 5dbd 54c6 3e3e 7fd9 273e 515a 66be
00000320: 7ab5 8abd c2ed 00be f9a5 af3d 0ac3 21bd
00000330: ce7f 3d3e a6db ed3d 987f 3ebd b9b9 ef3b
00000340: 3f28 31bd e20b 1b3e 9046 903d 0edc 74be
00000350: 7da4 353e 3ccb 75bd 5fa2 44be 0c95 2e3e
00000360: 40eb 6a3e 1974 19be 1b0f 53bd 4635 a0bd
00000370: c04f c9bd c060 93bd ef3c 9ebd 6cef adbc
00000380: 07e6 4f3e 2f6e 88bd c4d6 c93d de32 2e3e
00000390: 2c92 cd3d ac28 313e 47f0 533e 23be 27be
000003a0: 7fb5 7abc dd3e 19be f88d e8bd 6d3d f43d
000003b0: 6ce5 0c3e 7106 33bd 87a1 b03d b532 cfbd
000003c0: 1062 f1bb a740 5c3e 4555 413d e335 703d
000003d0: 4b72 d7bd 9002 553d 7509 76bb dcd4 3d3d
000003e0: 0690 57bd 4250 21bc 07b7 4bbc 1ea6 fabc
000003f0: 6edd 0bbe 7e73 d5bc c1c6 b43d 36b0 c83d

bias_ih_l0 f4 [128]
0.16811547 -0.09935422 -0.19325909 0.08800165 -0.0630508 0.080840915 0.04649878 0.22816911
0.03837478 0.1586797 -0.07704653 0.06605885 0.07537315 0.1333903 -0.13194545 0.12436717
0.09353617 0.05369854 -0.20359588 0.15886532 0.18567812 -0.020905325 -0.120737985 0.052413214
0.036505993 -0.15237701 0.13140053 0.0737099 -0.09484948 -0.17307536 0.13520393 -0.092836514
-0.14336447 -0.13841584 0.09041186 -0.08936348 -0.13004133 -0.06970477 0.07234657 0.006850199
0.012861348 -0.0780385 0.017326726 -0.060764994 -0.10590555 0.047495477 0.12516923 -0.060648393
-0.027723202 0.12607695 -0.22761224 0.043072097 0.14642523 -0.07767692 -0.028431829 0.01209895
-0.06975608 -0.07495733 0.15241705 -0.050806507 0.10038187 -0.019094165 -0.17294689 0.018196478
0.07286329 0.027819252 0.10303578 0.099083796 -0.013760395 0.10748001 0.03361377 0.06388426
-9.3953684e-05 -0.13290356 -0.20330079 0.08998918 0.036017373 -0.20347667 0.056378115 0.123420976
-0.10566497 -0.006868167 0.07492188 -0.046822168 0.033517547 0.16567013 -0.096952185 0.13622811
-0.003251074 -0.0973894 0.07542149 0.14460593 0.017493637 -0.06276027 0.13487883 -0.0056676124
-0.1431342 0.042291068 0.007101239 -0.11516226 0.1340696 0.03327018 0.13320436 0.010800873
-0.18673882 -0.0042668753 0.07686078 0.08387484 0.03506649 0.14078434 0.097977936 -0.10798672
-0.059783943 -0.008127295 -0.12919845 0.15620086 0.08929803 0.06157511 0.12051675 -0.049958132
0.2140706 -0.050403155 0.1823879 0.14527677 -0.106728576 0.0643505 -0.0759528 0.0558493
00000000: 7626 2c3e 3a7a cbbd b6e5 45be 363a b43d
00000010: c720 81bd ec8f a53d 8175 3e3d 2aa5 693e
00000020: e02e 1d3d ee7c 223e 92ca 9dbd dd49 873d
00000030: 3d5d 9a3d 7897 083e b51c 07be 37b4 fe3d
00000040: e48f bf3d 00f3 5b3d 707b 50be 97ad 223e
00000050: 6822 3e3e a541 abbc 7a45 f7bd 3daf 563d
00000060: 4f87 153d b808 1cbe dc8d 063e 37f5 963d
00000070: 7240 c2bd ab3a 31be e672 0a3e 1221 bebd
00000080: 23ce 12be e2bc 0dbe da29 b93d 3304 b7bd
00000090: 8e29 05be 60c1 8ebd 702a 943d a277 e03b
000000a0: 67b8 523c a6d2 9fbd c7f0 8d3c b7e4 78bd
000000b0: 02e5 d8bd 9e8a 423d 5d2c 003e 736a 78bd
000000c0: c51b e3bc 511a 013e 2f13 69be 5e6c 303d
000000d0: 7ff0 153e 1415 9fbd dee9 e8bc ad3a 463c
000000e0: 47dc 8ebd 3b83 99bd 3713 1c3e 7c1a 50bd
000000f0: 0395 cd3d 5e6b 9cbc fd18 31be c810 953c
00000100: 5939 953d 33e5 e33c 6c04 d33d 72ec ca3d
00000110: 4873 61bc 7b1e dc3d 98ae 093d c0d5 823d
00000120: 0009 c5b8 df17 08be 152e 50be 3f4c b83d
00000130: f486 133d 305c 50be bdec 663d 23c4 fc3d
00000140: e066 d8bd 5c0e e1bb a570 993d 9ac8 3fbd
00000150: b249 093d 6ea5 293e de8e c6bd 627f 0b3e
00000160: f90f 55bb 1874 c7bd 9576 9a3d 9413 143e
00000170: d14e 8f3c 7588 80bd ad1d 0a3e 61b7 b9bb
00000180: c691 12be 6639 2d3d 83b1 e83b 31da ebbd
00000190: 8b49 093e 5046 083d b966 083e 25f6 303c
000001a0: 7638 3fbe 25d1 8bbb 2f69 9d3d 92c6 ab3d
000001b0: e1a1 0f3d c529 103e a8a8 c83d 2428 ddbd
000001c0: 02e0 74bd 5928 05bc 994c 04be 1ef3 1f3e
000001d0: e3e1 b63d 2f36 7c3d 7cd1 f63d e6a0 4cbd
000001e0: 5335 5b3e 8a73 4ebd e5c3 3a3e 6fc3 143e
000001f0: 8394 dabd 32ca 833d 248d 9bbd 3cc2 643d

bias_hh_l0 f4 [128]
-0.124588825 -0.084994905 -0.10882525 -0.07866127 -0.10909795 0.09261243 0.15246898 0.039548777
-0.15361957 0.16827121 -0.14688097 -0.0057769893 0.12174758 -0.0799133 0.18684886 -0.041454
0.21653654 0.0020606539 -0.13547464 0.088310115 0.0068018525 0.07624092 0.014090064 0.102025166
-0.10107065 -0.034380566 0.13635388 -0.11487886 0.09939037 0.14803995 0.020382676 0.16314198
0.069803774 0.065033644 -0.07640772 -0.08881075 -0.122628495 0.00034433685 0.0008988749 -0.043922286
0.017313547 0.14243004 0.21516553 -0.09100419 -0.031709727 -0.12792465 0.1644924 0.23185675
0.26787648 0.108479716 -0.1502161 -0.0148391435 -0.08227993 0.06907759 0.1690379 0.08827551
0.17477465 0.1604442 -0.0012236137 0.2079482 0.026783274 -0.09456036 0.12477961 -0.13869338
-0.15477079 0.24570431 0.004262071 0.16183628 0.08548096 0.14077824 0.0078246 0.06832719
0.025957951 0.12079607 -0.1199551 -0.0964701 0.18675648 -0.16777842 0.033017043 -0.0548222
-0.07772631 -0.067384005 -0.15090667 -0.054081604 -0.01919955 0.1586718 -0.047641125 -0.099820055
0.21383652 0.12611848 0.084626965 0.19065976 0.0776631 0.14537162 -0.18136452 -0.18992628
-0.03877089 -0.11901121 -0.0562681 0.026170647 0.064573884 -0.15183176 0.19495659 0.07372247
0.11147325 0.20240946 -0.11802232 0.02880912 -0.12909305 0.02770089 -0.17817214 -0.1255608
0.04354444 0.13054264 0.13581778 -0.03353914 0.056634262 -0.10280545 -0.12203504 -0.15586837
0.16023321 -0.12138316 0.07802782 -0.06411042 0.015214316 0.08142294 0.13171217 0.17918
00000000: 6d28 ffbd cf11 aebd c6df debd 2919 a1bd
00000010: bf6e dfbd 96ab bd3d d420 1c3e e6fd 213d
00000020: 734e 1dbe 4a4f 2c3e f767 16be e64c bdbb
00000030: cc56 f93d 96a9 a3bd 4f55 3f3e abcb 29bd
00000040: c1bb 5d3e 090c 073b ddb9 0abe efdb b43d
00000050: 13e2 de3b 3324 9c3d 03da 663c 92f2 d03d
00000060: 21fe cebd a3d2 0cbd 5aa0 0b3e 9c45 ebbd
00000070: 2e8d cb3d c997 173e 92f9 a63c b10e 273e
00000080: 48f5 8e3d 5c30 853d a77b 9cbd 69e2 b5bd
00000090: a624 fbbd 1c88 b439 79a2 6b3a dbe7 33bd
000000a0: 24d5 8d3c 2ed9 113e 5a54 5c3e 6860 babd
000000b0: 0fe2 01bd aefe 02be b270 283e db6b 6d3e
000000c0: 1b27 893e 9d2a de3d 40d2 19be e11f 73bc
000000d0: 6182 a8bd 8d78 8d3d 4518 2d3e cac9 b43d
000000e0: 20f8 323e 7c4b 243e aa61 a0ba 5ff0 543e
000000f0: 9968 db3c dda8 c1bd 748c ff3d a305 0ebe
00000100: 3c7c 1ebe e999 7b3e d8a8 8b3b 69b8 253e
00000110: a410 af3d 2c28 103e c032 003c 20ef 8b3d
00000120: c5a5 d43c ee63 f73d 05ab f5bd 1e92 c5bd
00000130: 173d 3f3e 1bce 2bbe e13c 073d 3e8d 60bd
00000140: f92e 9fbd a000 8abd 4787 1abe ac84 5dbd
00000150: 6048 9dbc dc7a 223e 5723 43bd 756e ccbd
00000160: f6f7 5a3e 3425 013e e750 ad3d 503c 433e
00000170: d50d 9f3d 4cdc 143e 9fb7 39be 097c 42be
00000180: 3ace 1ebd 26bc f3bd 6179 66bd d363 d63c
00000190: 503f 843d c979 1bbe b3a2 473e cefb 963d
000001a0: 164c e43d 6d44 4f3e b0b5 f1bd 1b01 ec3c
000001b0: f830 04be faec e23c c272 36be 0393 00be
000001c0: a85b 323d f8ac 053e d113 0b3e 5660 09bd
000001d0: 54f9 673d aa8b d2bd 82ed f9bd f59b 1fbe
000001e0: 2d14 243e bc97 f8bd 0dcd 9f3d 534c 83bd
000001f0: 7745 793c 12c1 a63d 8edf 063e f67a 373e

weight_ih_l0 f4 [128, 2]
0.16679104 0.18926075 0.0024913368 -0.12424319 0.20936695 -0.021078207 0.19556567 -0.059628278
-0.13140643 0.17480737 0.012606138 -0.12598294 -0.10862267 0.11261315 0.15090647 0.070656456
0.09201794 -0.15066114 0.051181573 0.08343141 -0.08314878 -0.06636869 0.16467616 -0.07088684
0.095623426 -0.15902793 0.007090907 -0.1081943 0.011545536 0.20141573 -0.014978554 0.1760862
0.17275551 -0.097648755 -0.018915737 0.1872835 0.0781733 -0.023390621 -0.022882821 -0.0031745203
0.03121937 -0.01348247 0.17408381 0.17246388 -0.12866908 0.067408666 0.031040572 0.056022756
-0.022583187 0.06952774 -0.15839171 -0.05465383 -0.1420021 0.09265395 0.13043119 0.15806127
0.028900256 -0.06420233 0.164047 -0.008951599 -0.10324747 0.20161648 0.20946674 0.17068025
0.0334592 -0.09982964 0.124005884 -0.15693632 0.16512267 0.15649112 -0.07254181 0.06370357
0.09253236 0.14641179 0.12942156 0.1022821 0.12744173 0.2033984 -0.00039805067 0.012882463
0.071314186 -0.16174111 0.10689282 0.1538908 0.024489276 -0.014468891 0.064395644 -0.05544999
0.055640545 -0.1827359 0.1605574 0.18629946 0.11643671 -0.11922005 -0.10839095 0.046355397
-0.10945721 0.117067024 -0.09367399 -0.05990039 -0.07097627 0.117536485 0.13283987 0.04792671
0.13093127 0.1955526 0.033115275 0.011678345 0.08009486 0.18158582 0.120599486 0.14622116
0.14130676 0.11320422 0.14560468 -0.13967279 -0.0478777 -0.039128155 -0.13713059 -0.08424364
0.03281105 -0.09764507 0.015141786 -0.14638211 0.056473307 0.026076568 -0.1517434 0.019678151
-0.07815604 -0.10228029 0.17723353 -0.14846465 0.03954486 0.08333869 -0.016640255 0.15367699
-0.10065389 0.13162458 -0.18640482 -0.15481222 0.012584107 -0.070770726 -0.16002816 0.06881562
0.02687813 0.09200148 -0.16388151 -0.06546866 0.2063525 -0.082021534 0.16268517 0.0048946734
-0.19773628 0.07790861 0.21698478 0.19938023 -0.0035536357 0.18779357 0.173038 0.18598743
-0.025002219 0.08221138 0.014569931 -0.16552535 -0.0654251 -0.03355879 -0.16538703 0.0054060994
0.20013 0.04352129 0.02147543 -0.08323793 0.12304237 0.03993568 -0.15984942 0.03450811
0.030401522 0.16452771 0.04012137 0.19144677 0.22084211 0.010613046 0.15384893 0.048712023
0.17399774 0.08765201 -0.16098526 -0.14579481 0.13197882 0.20348951 0.12061478 0.038183384
-0.09693841 0.1094051 0.07040964 -0.10466211 -0.026563806 0.12991168 -0.108380616 -0.044392828
0.14598931 -0.044409823 0.12184911 0.045196433 -0.073318206 0.1132664 -0.0050384332 0.10704646
0.054009646 -0.17763557 -0.019033315 -0.13462134 0.085932076 -0.13661654 0.0011712593 0.17011897
-0.11014442 -0.00065442576 0.15586051 -0.1609457 -0.19925185 0.022560464 -0.15242915 -0.024288105
0.039393645 0.16038796 -0.061718803 -0.09570612 -0.0125663215 0.15294306 0.066560164 0.15356873
-0.1879609 0.008146636 0.024580168 0.14346397 -0.03589616 -0.10287989 0.03875676 -0.18731943
0.078208 0.195611 0.18983288 0.09455422 -0.08526251 -0.036504373 0.086125486 0.08938885
-0.16125163 -0.04385818 -0.1388319 0.016323382 -0.18378162 0.0081488965 0.050676823 -0.16160187
00000000: 45cb 2a3e 92cd 413e b245 233b 3773 febd
00000010: 4a64 563e 34ac acbc 5e42 483e c83c 74bd
00000020: 688f 06be b400 333e fa89 4e3c ac01 01be
00000030: 9075 debd b9a1 e63d 3a87 1a3e 55b4 903d
00000040: e773 bc3d ea46 1abe c5a3 513d 16de aa3d
00000050: e849 aabd 4fec 87bd dea0 283e 1f2d 91bd
00000060: 37d6 c33d 38d8 22be d75a e83b f994 ddbd
00000070: 7d29 3d3c ed3f 4e3e 9c68 75bc f14f 343e
00000080: d2e6 303e 12fc c7bd 2df5 9abc 3fc7 3f3e
00000090: 5319 a03d b09d bfbc c174 bbbc 9d0b 50bb
000000a0: c4bf ff3c 94e5 5cbc 0743 323e 5f9a 303e
000000b0: d4c1 03be 8e0d 8a3d cc48 fe3c 1e78 653d
000000c0: 6000 b9bc 8f64 8e3d 7031 22be b2dc 5fbd
000000d0: 0069 11be 5bc1 bd3d c18f 053e d0da 213e
000000e0: 3bc0 ec3c 837c 83bd f0fb 273e baa9 12bc
000000f0: 6973 d3bd 8d74 4e3e 737e 563e cec6 2e3e
00000100: 840c 093d 7b73 ccbd ccf6 fd3d eab3 20be
00000110: eb15 293e 353f 203e cd90 94bd 0477 823d
00000120: 9b81 bd3d f9ec 153e 1687 043e 4779 d13d
00000130: 1680 023e ac47 503e 75b1 d0b9 f710 533c
00000140: 2c0d 923d 769f 25be 9fea da3d 8d95 1d3e
00000150: bc9d c83c ed0e 6dbc dde1 833d 871f 63bd
00000160: 57e7 633d 1f1f 3bbe 2969 243e 49c5 3e3e
00000170: 5f76 ee3d a429 f4bd 13fc ddbd 28df 3d3d
00000180: 1a2b e0bd d6c0 ef3d 26d8 bfbd 1d5a 75bd
00000190: 025c 91bd f8b6 f03d 2d07 083e cc4e 443d
000001a0: d912 063e f13e 483e e2a3 073d 8756 3f3c
000001b0: c608 a43d a2f1 393e ddfc f63d 00bb 153e
000001c0: b8b2 103e 9dd7 e73d 6519 153e 6206 0fbe
000001d0: 681b 44bd d844 20bd f66b 0cbe ee87 acbd
000001e0: e164 063d 23fa c7bd 4115 783c 31e5 15be
000001f0: 8e50 673d 879e d53c 9f62 1bbe 1334 a13c
00000200: 4610 a0bd 5478 d1bd b57c 353e 1e07 18be
00000210: cbf9 213d 7aad aa3d 2551 88bc 805d 1d3e
00000220: a023 cebd 98c8 063e e8e0 3ebe 1887 1ebe
00000230: 922d 4e3c 3ef0 90bd 6cde 23be 34ef 8c3d
00000240: 862f dc3c 466b bc3d 8ed0 27be 6f14 86bd
00000250: 124e 533e e8fa a7bd f196 263e 7f63 a03b
00000260: 617b 4abe 8d8e 9f3d 4231 5e3e 552a 4c3e
00000270: 1de4 68bb f54c 403e e030 313e 7d73 3e3e
00000280: 74d1 ccbc 715e a83d b8b6 6e3c 7a7f 29be
00000290: 98fd 85bd f174 09bd 385b 29be a625 b13b
000002a0: e1ee 4c3e 6143 323d 3eed af3c a678 aabd
000002b0: a3fd fb3d 9893 233d 91af 23be 6058 0d3d
000002c0: 9d0c f93c f479 283e 4e56 243d 9f0a 443e
000002d0: 6f24 623e 57e2 2d3c 938a 1d3e 4286 473d
000002e0: 772c 323e e682 b33d 52d9 24be 3c4b 15be
000002f0: 7525 073e 8e5f 503e e204 f73d 2e66 1c3d
00000300: a587 c6bd c80f e03d ee32 903d 1759 d6bd
00000310: 579c d9bc 9107 053e a8f6 ddbd 41d5 35bd
00000320: 397e 153e 13e7 35bd 078c f93d e51f 393d
00000330: db27 96bd 37f8 e73d 7119 a5bb 2d3b db3d
00000340: 3839 5d3d 19e6 35be c1eb 9bbc 2dda 09be
00000350: 28fd af3d 35e5 0bbe f184 993a ab33 2e3e
00000360: 6693 e1bd c58d 2bba e699 1f3e f3ce 24be
00000370: ad08 4cbe b9d0 b83c 6316 1cbe d9f7 c6bc
00000380: 3b5b 213d be3c 243e dbcc 7cbd 9201 c4bd
00000390: f9e2 4dbc 1b9d 1c3e b250 883d 1f41 1d3e
000003a0: d278 40be 7879 053c 595c c93c 38e8 123e
000003b0: da07 13bd b1b2 d2bd 69bf 1e3d aad0 3fbe
000003c0: 842b a03d 404e 483e 8d63 423e a5a5 c13d
000003d0: 1c9e aebd 9c85 15bd 8f62 b03d 8011 b73d
000003e0: 261f 25be a3a4 33bd f329 0ebe 9db8 853c
000003f0: 4031 3cbe f382 053c 8092 4f3d f67a 25be

weight_hh_l0 f4 [128, 32]
-0.2120486 -0.0694071 0.14744522 -0.10996901 -0.13290936 0.12658638 -0.012885797 -0.16618668
-0.036805168 0.018727781 -0.09402471 0.014220666 -0.11948531 -0.0065741674 -0.03758854 0.041768562
-0.0066572223 0.09314802 -0.21484874 -0.008685226 0.04811075 -0.03375973 0.14959125 0.08485743
0.0072967247 0.15395176 0.21254782 -0.0459888 -0.0650354 0.12516789 -0.04150874 0.1621821
0.018848985 0.046824053 -0.08182457 0.20737681 -0.1504405 0.018497078 0.064360544 -0.013444499
-0.048440263 -0.1031776 -0.07234815 0.21177414 0.13536337 0.08419011 0.17435537 0.03255664
-0.008207609 -0.21517621 0.04637168 0.053791445 -0.025988735 0.06589476 0.18313624 -0.03723036
-0.03726302 -0.042043794 0.121940635 -0.11819553 -0.10976322 -0.19900192 0.08057451 0.11476005
0.075953454 0.10147193 0.20125538 -0.07412465 0.16740677 0.16663542 -0.07259286 -0.18325324
-0.08206587 -0.24305366 0.068445444 -0.0128668435 0.007948878 0.11660421 0.05706995 0.08269931
0.04893552 -0.03849773 0.07340059 0.0059211175 0.063110955 -0.012056298 -0.10062934 -0.008806923
0.06985303 -0.0044741402 0.1971595 0.021896262 0.14638813 0.0898356 0.05761521 -0.087386064
-0.15169501 0.19673036 0.12850948 -0.01874304 -0.0030525504 -0.14540382 -0.100279465 0.039659586
0.0787502 0.08049384 -0.08001588 -0.008852043 -0.12397713 0.15388413 0.2031705 0.023518562
0.01846661 0.026408091 0.1020969 0.0670622 0.01949954 -0.15759261 0.19271277 -0.050171267
0.21957344 0.029329345 -0.0049448535 0.11384572 -0.0093511185 -0.023058085 0.20496069 0.001526578
-0.023388833 0.07591492 -0.04739753 -0.022750292 -0.102091275 -0.17967011 -0.011045545 -0.11799983
-0.110448495 0.03324105 0.16347678 -0.028664714 -0.13011399 0.20718409 0.013969459 0.16673572
-0.16171737 0.04457374 0.083953336 0.07888093 0.12749775 0.015961073 -0.1003427 -0.16742973
0.010878957 0.16878523 0.22241856 0.0919989 0.15250345 -0.07664006 0.044215966 -0.120344415
-0.031951655 0.081290685 -0.08663203 0.019501856 0.03720177 -0.031925622 0.16583976 0.17170687
0.16245483 -0.16481924 -0.04640153 0.04545724 0.1511701 0.16711603 0.05675237 0.10622977
-0.14405164 0.13422985 0.08107013 0.11961411 0.14805813 -0.04275118 0.22249833 -0.16093455
0.117583364 -0.08433541 0.12948093 -0.082546994 -0.041720696 -0.02018893 0.21076941 -0.074138194
-0.032908738 0.03179741 0.09998299 -0.12914018 -0.19137947 0.03274287 -0.15013185 -0.14491442
0.22708331 0.10272313 0.08054527 0.03596312 0.0779607 -0.056685336 -0.080023 -0.15027824
0.12311517 -0.13658926 -0.07255766 0.14810576 -0.021673858 -0.16386631 0.15130979 -0.1359921
-0.18226045 0.09654817 0.116335735 -0.18699816 0.059027426 0.053619444 0.16905247 0.15940152
0.041816097 -0.03711696 0.022947768 -0.058721658 -0.078970216 -0.12166795 0.027514203 0.12048963
0.06506729 -0.14877975 -0.05762781 -0.013720064 -0.118009135 -0.08005148 0.021937843 -0.02480601
-0.09857884 -0.11937054 -0.0044244393 -0.14531966 0.20817904 -0.11116582 -0.07122677 -0.04840817
-0.013387073 0.1112379 -0.0704588 -0.08583623 0.12739414 -0.12682493 0.16041619 0.048325997
00000000: 4523 59be 4f25 8ebd e1fb 163e 6f37 e1bd
00000010: 6419 08be dc9f 013e f31e 53bc d72c 2abe
00000020: 04c1 16bd 016b 993c 0790 c0bd ccfd 683c
00000030: b7b4 f4bd 1d6c d7bb 71f6 19bd 8315 2b3d
00000040: d424 dabb 64c4 be3d 4f01 5cbe 7a4c 0ebc
00000050: c70f 453d a547 0abd 732e 193e bbc9 ad3d
00000060: 5d19 ef3b 88a5 1d3e 23a6 593e c05e 3cbd
00000070: 4831 85bd 032c 003e 1205 2abd 1013 263e
00000080: 3069 9a3c 94ca 3f3d a493 a7bd 965a 543e
00000090: 130d 1abe 2f87 973c 76cf 833d 5146 5cbc
000000a0: 4c69 46bd c74e d3bd 442b 94bd 52db 583e
000000b0: b29c 0a3e dd6b ac3d 378a 323e 1d5a 053d
000000c0: 3579 06bc 2757 5cbe 3bf0 3d3d 6b54 5c3d
000000d0: 54e6 d4bc d5f3 863d 1188 3b3e dd7e 18bd
000000e0: 1ca1 18bd 1d36 2cbd 03bc f93d 7f10 f2bd
000000f0: 8acb e0bd 29c7 4bbe 4004 a53d 5107 eb3d
00000100: 7c8d 9b3d 84d0 cf3d e415 4e3e aace 97bd
00000110: ae6c 2b3e 7aa2 2a3e 91ab 94bd bda6 3bbe
00000120: 2712 a8bd 0fe3 78be 202d 8c3d 74cf 52bc
00000130: 033c 023c 30ce ee3d 2ec2 693d 415e a93d
00000140: 9d70 483d ccaf 1dbd 0c53 963d ef05 c23b
00000150: 5140 813d c787 45bc c116 cebd ea4a 10bc
00000160: 1b0f 8f3d cf9b 92bb 2ee4 493e ca5f b33c
00000170: c5e6 153e bafb b73d edfd 6b3d 77f7 b2bd
00000180: f055 1bbe af73 493e fd97 033e 018b 99bc
00000190: 4c0d 48bb bde4 14be 525f cdbd 1772 223d
000001a0: c947 a13d f4d9 a43d 5edf a3bd 2908 11bc
000001b0: b9e7 fdbd cd93 1d3e ed0b 503e 00aa c03c
000001c0: 4a47 973c c855 d83c 2e18 d13d e857 893d
000001d0: 80bd 9f3c f55f 21be 7f56 453e 6380 4dbd
000001e0: dcd7 603e 1844 f03c 7008 a2bb f227 e93d
000001f0: 6f35 19bc 4fe4 bcbc 37e1 513e 7517 c83a
00000200: f099 bfbc 4879 9b3d ea23 42bd d25e babc
00000210: 3b15 d1bd 71fb 37be 60f8 34bc e5a9 f1bd
00000220: d232 e2bd c427 083d 7566 273e 43d2 eabc
00000230: 9a3c 05be 1128 543e 28e0 643c c5bc 2a3e
00000240: 3d99 25be f492 363d baef ab3d 538c a13d
00000250: c58e 023e ccc0 823c 7980 cdbd b372 2bbe
00000260: a73d 323c 09d6 2c3e b1c1 633e eb69 bc3d
00000270: dd29 1c3e 77f5 9cbd cd1b 353d 2277 f6bd
00000280: bddf 02bd bb7b a63d 226c b1bd 5bc2 9f3c
00000290: e260 183d 71c4 02bd e6d1 293e edd3 2f3e
000002a0: 8f5a 263e 60c6 28be 880f 3ebd 5f31 3a3d
000002b0: 56cc 1a3e 7720 2b3e 2c75 683d fe8e d93d
000002c0: 4682 13be 8d73 093e 1908 a63d 3ef8 f43d
000002d0: 8d9c 173e dc1b 2fbd 9ad6 633e 07cc 24be
000002e0: 8ccf f03d 0bb8 acbd a696 043e 660e a9bd
000002f0: 52e3 2abd 4163 a5bc f0d3 573e c4d5 97bd
00000300: 50cb 06bd 003e 023d e2c3 cc3d 533d 04be
00000310: fbf8 43be 631d 063d 2abc 19be 7264 14be
00000320: 8788 683e 8160 d23d ebf4 a43d 114e 133d
00000330: dca9 9f3d e22e 68bd 19e3 a3bd 8ae2 19be
00000340: ce23 fc3d 0ede 0bbe 1c99 94bd 09a9 173e
00000350: 608d b1bc 92cc 27be f4f0 1a3e 8341 0bbe
00000360: 7ca2 3abe 0cbb c53d 6e41 ee3d 727c 3fbe
00000370: bec6 713d 10a0 5b3d 171c 2d3e 273a 233e
00000380: 5b47 2b3d f407 18bd f5fc bb3c 1f86 70bd
00000390: 23bb a1bd 0c2d f9bd 7765 e13c 44c3 f63d
000003a0: 0042 853d b859 18be 230b 6cbd 1fca 60bc
000003b0: c6ae f1bd 08f2 a3bd feb6 b33c f935 cbbc
000003c0: b4e3 c9bd 8b78 f4bd e3fa 90bb adce 14be
000003d0: e32c 553e e8aa e3bd 57df 91bd a547 46bd
000003e0: 7455 5bbc b2d0 e33d b44c 90bd e8ca afbd
000003f0: 9c73 023e 65de 01be 2444 243e 7bf1 453d

bias_ih_l0 f4 [128]
0.039306033 -0.10638815 0.19174597 -0.03592453 -0.074068196 0.030870361 0.045560043 0.01849728
-0.02565891 -0.071825415 0.016679041 0.122999586 -0.1656332 0.13978116 -0.08019369 0.050151818
-0.010910044 0.06350217 -0.15619063 0.023766544 -0.14572638 -0.15018655 -0.13221289 0.036958806
0.12269038 0.21572885 0.17883433 0.051780853 0.15198956 0.10959159 -0.0605449 0.043307245
0.057606958 0.013493732 0.017754521 0.1601107 -0.09780118 -0.015051794 0.1312462 -0.09077744
-0.0049553863 -0.12666503 0.1137418 0.1876441 -0.014335011 -0.043523647 0.16984026 0.023454785
0.010398349 0.043343775 0.114687406 -0.007871602 0.15231812 -0.019524598 0.11601435 0.12546219
0.12876321 0.15987147 -0.10794757 0.03626063 0.1443091 0.089021884 -0.110310204 0.089095674
-0.0020378048 0.06064654 0.08645284 0.10584936 0.0005837223 -0.21167125 0.2073184 -0.015209698
0.013370523 -0.007280332 -0.117360204 0.09863605 -0.20305257 -0.024418954 -0.068225496 -0.07657672
-0.07962777 -0.061927326 0.06547238 -0.18205646 0.11066967 0.09787406 0.12034295 -0.1889061
-0.08797659 0.1923521 0.20633088 0.0053844634 -0.118886426 -0.20580915 0.050442804 0.12595685
0.061850425 0.06004417 0.20100236 0.003401305 0.014631582 -0.014592371 -0.12690294 0.062862165
-0.049577188 0.07903651 -0.029777564 0.13963912 0.12648864 0.1540737 -0.00028251 0.1594631
-0.07700249 0.097828746 -0.10148029 0.21229036 0.15277 -0.08111383 0.15275633 0.1675426
-0.07407761 -0.09312641 -0.07702578 0.020553645 0.20111719 0.025910567 -0.007952544 -0.10113916
00000000: 5dff 203d 08e2 d9bd 0e59 443e 9a25 13bd
00000010: 11b1 97bd d7e3 fc3c 2b9d 3a3d 9c87 973c
00000020: a232 d2bc 3419 93bd 7ca2 883c 35e7 fb3d
00000030: c09b 29be cb22 0f3e 973c a4bd fe6b 4d3d
00000040: 0bc0 32bc 6d0d 823d 70f0 1fbe 0eb2 c23c
00000050: 4c39 15be 81ca 19be d162 07be 1e62 173d
00000060: 1845 fb3d 06e8 5c3e 5920 373e 2918 543d
00000070: 27a3 1b3e 8e71 e03d eefd 77bd f062 313d
00000080: 46f5 6b3d d014 5d3c ee71 913c 0ff4 233e
00000090: fc4b c8bd cd9b 76bc 6765 063e 86e9 b9bd
000000a0: cb60 a2bb 7ab4 01be 76f1 e83d c625 403e
000000b0: 65dd 6abc da45 32bd 9bea 2d3e 4024 c03c
000000c0: d65d 2a3c 3e89 313d 3be1 ea3d e4f7 00bc
000000d0: 48f9 1b3e 0df2 9fbc ee98 ed3d 2979 003e
000000e0: 81da 033e 59b5 233e 9e13 ddbd 0786 143d
000000f0: c4c5 133e 1b51 b63d 51ea e1bd cb77 b63d
00000100: b18c 05bb 8268 783d 300e b13d 8dc7 d83d
00000110: f104 193a 59c0 58be 464b 543e 1932 79bc
00000120: 0a10 5b3c da8f eebb 8c5a f0bd b301 ca3d
00000130: 03ed 4fbe 420a c8bc cfb9 8bbd 41d4 9cbd
00000140: e213 a3bd 82a7 7dbd 6216 863d 026d 3abe
00000150: c8a6 e23d 3272 c83d 5d76 f63d 9a70 41be
00000160: 122d b4bd f3f7 443e 6748 533e 2770 b03b
00000170: ba7a f3bd a2bf 52be 1d9d 4e3d d5fa 003e
00000180: df56 7d3d e0f0 753d 90d3 4d3e 6ee8 5e3b
00000190: 4eb9 6f3c d714 6fbc d8f2 01be e1bd 803d
000001a0: 7311 4bbd e5dd a13d 14f0 f3bc 8ffd 0e3e
000001b0: 3d86 013e 7fc5 1d3e da1d 94b9 4b4a 233e
000001c0: 7bb3 9dbd 705a c83d e6d4 cfbd a562 593e
000001d0: bd6f 1c3e 021f a6bd 286c 1c3e 4a90 2b3e
000001e0: 01b6 97bd 0fb9 bebd b1bf 9dbd 1e60 a83c
000001f0: aaf1 4d3e 6642 d43c 634b 02bc 0c22 cfbd

bias_hh_l0 f4 [128]
-0.044655122 0.07856784 0.06429539 -0.10242292 -0.1123867 0.060952496 0.002570116 -0.014457822
-0.09477643 -0.027573582 0.060235124 -0.03558256 -0.046968088 -0.08885966 0.010667898 -0.1149232
-0.042898532 0.17323777 -0.11820351 -0.069508314 0.08306533 0.16478682 -0.123166315 0.098527625
0.03861271 -0.09790301 -0.016600195 0.08484313 -0.11123071 -0.032231994 0.18398096 -0.04642767
0.17157026 0.06306952 -0.07796713 0.1423809 -0.111416705 0.21845601 0.03566497 0.08894325
-0.113961935 0.13246149 0.08815278 -0.040185243 0.08194126 0.16897203 -0.023997787 0.09152379
0.0017637272 0.027208764 0.049046587 0.18812251 0.19737619 0.19395143 0.12644567 0.122420974
0.16736484 0.011681428 0.09299855 0.1307606 -0.015151867 0.08429633 -0.09253652 0.08670604
0.024311157 0.008293781 0.06897108 0.15957248 0.041857056 0.04382199 -0.10190989 0.12767315
-0.08445962 -0.14946386 -0.045629293 0.17680846 -0.1003626 0.19512323 0.16309842 0.029301336
0.0587612 -0.045254678 -0.10618357 -0.17976412 0.14158896 0.038733166 -0.012146556 0.0867243
0.11742392 0.028170932 0.22309995 -0.13302302 0.08692646 -0.078079715 0.17333189 0.106342666
-0.0048429547 0.16207244 0.23343806 0.04002302 0.011596276 -0.078325346 0.14193605 0.21030644
0.084306255 0.08658478 -0.075175375 0.03073027 0.00075720757 -0.09681392 -0.07188046 -0.12765284
0.08085408 0.025782034 0.16507877 0.11850061 -0.08702411 0.030131685 -0.03241818 0.050698232
0.21053897 0.08731672 0.1908746 -0.059589848 0.11009122 0.13916221 0.2104419 0.12730178
00000000: 4ae8 36bd 2de8 a03d 4dad 833d 1cc3 d1bd
00000010: 002b e6bd 53a9 793d 646f 283b 80e0 6cbc
00000020: 251a c2bd fee1 e1bc 1bb9 763d 05bf 11bd
00000030: 9c61 40bd 0efc b5bd 68c8 2e3c db5c ebbd
00000040: 5fb6 2fbd 3e65 313e af14 f2bd 605a 8ebd
00000050: 281e aa3d e0bd 283e 9f3e fcbd dac8 c93d
00000060: 5c28 1e3d 6081 c8bd 22fd 87bc 3cc2 ad3d
00000070: edcc e3bd b205 04bd 8165 3c3e f12a 3ebd
00000080: 1db0 2f3e 982a 813d 3bad 9fbd 4ccc 113e
00000090: 712e e4bd efb2 5f3e 6e15 123d e127 b63d
000000a0: e064 e9bd fca3 073e 7289 b43d 4899 24bd
000000b0: d2d0 a73d 0107 2d3e 0297 c4bc d370 bb3d
000000c0: dd2c e73a eae4 de3c 13e5 483d 30a3 403e
000000d0: fc1c 4a3e 349b 463e f97a 013e d9b7 fa3d
000000e0: b061 2b3e 7663 3f3c 0676 be3d 1be6 053e
000000f0: 893f 78bc 8ea3 ac3d c983 bdbd f092 b13d
00000100: 3128 c73c a4e2 073c b640 8d3d f866 233e
00000110: 4e72 2b3d b07e 333d 22b6 d0bd c0bc 023e
00000120: 2af9 acbd 0e0d 19be c8e5 3abd 470d 353e
00000130: e88a cdbd 62ce 473e 4603 273e 5b09 f03c
00000140: 96af 703d f85c 39bd c676 d9bd 1614 38be
00000150: b2fc 103e aba6 1e3d 5902 47bc 839c b13d
00000160: f47b f03d bac6 e63c 5074 643e 3037 08be
00000170: 8006 b23d 42e8 9fbd ea7d 313e 2fca d93d
00000180: a6b1 9ebb 51f6 253e 630a 6f3e 2eef 233d
00000190: 4ffe 3d3c 0a69 a0bd af57 113e 925a 573e
000001a0: c2a8 ac3d 5c53 b13d 8cf5 99bd 0cbe fb3c
000001b0: 577f 463a 6046 c6bd 1036 93bd 6db7 02be
000001c0: d396 a53d d834 d33c 690a 293e 73b0 f23d
000001d0: b239 b2bd b9d6 f63c edc8 04bd f3a8 4f3d
000001e0: 8797 573e 1cd3 b23d a274 433e 7c14 74bd
000001f0: 8177 e13d 8a80 0e3e 157e 573e 665b 023e

weight f4 [1, 32]
-0.018338738 -0.09253223 0.039422374 -0.06810446 0.10548432 0.08608037 -0.018631978 -0.053324945
-0.029641226 0.05067093 -0.06213928 0.072432674 0.061205696 -0.04849601 -0.04999577 -0.03008011
0.100651495 0.043395776 -0.09214986 -0.018084502 -0.05336571 -0.09476307 -0.06589447 0.048174027
0.024071623 -0.06272388 -0.045267932 0.062349927 -0.0696298 0.034381233 -0.068860985 -0.035516527
00000000: 1f3b 96bc 8a81 bdbd 5b79 213d 5a7a 8bbd
00000010: 2a08 d83d e84a b03d 17a2 98bc 426b 5abd
00000020: 28d2 f2bc 528c 4f3d c285 7ebd 9557 943d
00000030: d3b2 7a3d c1a3 46bd 5dc8 4cbd 906a f6bc
00000040: 5f22 ce3d c5bf 313d 11b9 bcbd f325 94bc
00000050: 0196 5abd 2413 c2bd aef3 86bd 2152 453d
00000060: da31 c53c 6175 80bd de6a 39bd a362 7f3d
00000070: 129a 8ebd 56d3 0c3d fd06 8dbd c779 11bd
