checkpoints/SH_lstm_model.pt (torch, 41183 bytes, 9 tensors)

weight_ih_l0 f4 [128, 4]
000000 40 6a c6 bc 2d 89 88 3e 8d ec 13 bf a4 0e 25 3e
       -0.024220586 0.26667157 -0.5778282 0.16118866
000010 46 98 93 3b c1 df 04 be 09 9c cb 3d 7f d5 92 bd
       0.0045042364 -0.1297598 0.09941871 -0.071696274
000020 07 a6 2e be 4b d8 1b 3f a2 6a bb bb ed 41 01 3f
       -0.17055522 0.6087691 -0.0057194987 0.5049122
000030 ec 4c 9c 3d 85 8d a1 bd 05 27 6a bf 19 df 9b be
       0.07631859 -0.07888321 -0.9146579 -0.30443648
000040 40 26 b0 bd 1a b2 a2 3e 72 f2 e0 be c6 0c fd bd
       -0.086010456 0.31776506 -0.4393497 -0.12355952
000050 45 74 23 bc e7 92 ca 3d ab e0 07 3e 7d f0 00 3e
       -0.009976451 0.09891301 0.13269298 0.12591739
000060 89 36 09 bc d0 cf a2 3d c3 5a dc bd 32 c2 e9 bc
       -0.008374819 0.07949793 -0.10759499 -0.028534982
000070 0b fd c1 bc bd 33 dd 3d 5a a4 f7 bd 1b 94 c8 3d
       -0.02368023 0.10800884 -0.120918944 0.09793874
000080 80 8b 6d 3f 9e 5e b8 3f a7 0c ba 3e b3 68 82 3f
       0.92790985 1.4403875 0.36337778 1.0188202
000090 50 e5 77 3d 77 80 d1 bd 0d 07 c8 3e f4 ad 35 3d
       0.060521424 -0.10229581 0.3906788 0.044355348
0000a0 ed e7 9e 3e c8 26 29 be 56 e6 07 3f 80 f1 d4 3d
       0.3103632 -0.165187 0.5308584 0.10397625
0000b0 25 94 94 3e 01 7b d9 bd 1a 52 1f 3f 03 43 f1 bc
       0.29019275 -0.10619164 0.6223465 -0.029450899
0000c0 01 86 04 3e b6 5b 5b 3e 93 2f 6c 3e 69 f0 ac 3d
       0.12941743 0.21421704 0.23065023 0.08444292
0000d0 8b a3 08 3c 85 47 e9 3e 6f 84 68 bf 7a 82 9b bd
       0.008339773 0.45562378 -0.9082708 -0.07593246
0000e0 71 02 b0 3c 8c 28 e5 bd 2a 5d 43 bc 0d f5 8c bd
       0.02148554 -0.11189374 -0.0119240675 -0.06882677
0000f0 6a b0 16 3e ef eb ae 3e 59 2f 5f be e3 53 1e bd
       0.14715734 0.34164378 -0.21795405 -0.03865422
000100 df 0d f4 bd 3b 6a 48 3f 2d 33 28 bf 16 8d 8f 3e
       -0.11916708 0.78287095 -0.6570309 0.28037328
000110 82 8a 04 3e 9b 70 11 3d 5c 7c ee 3b bb be 84 3c
       0.12943462 0.03550778 0.0072780084 0.016204229
000120 2b dc bc 3c c4 f6 4b 3f 1a 4f 83 bf 83 d7 0d 3d
       0.023054203 0.7967341 -1.0258515 0.034629356
000130 fd 78 fd 3e 1a e9 fe 3e 99 0d 4a 3f 4d a2 6e 3f
       0.4950637 0.49787217 0.78927 0.932164
000140 38 0e 5a 3e aa 18 04 3c f7 46 fd 3e 8c f1 1f 3e
       0.21294487 0.008062521 0.49468204 0.15619487
000150 1d 2d 2c bd 1b 48 78 bb 73 f0 d4 3d 08 82 eb bc
       -0.04203521 -0.0037884775 0.103974245 -0.028748527
000160 7b 62 eb 3d 31 b2 d8 3e 44 10 30 bf 33 6f 32 be
       0.11493393 0.4232345 -0.6877482 -0.17425232
000170 41 5e 4b bd c9 bd 57 bd d8 dd 9b bf cd 5e bb bd
       -0.049650434 -0.052671228 -1.2177076 -0.09148941
000180 6d 4e 4d 3c c9 0b 83 be 54 45 9f 3e b4 b1 1f be
       0.012530905 -0.2559493 0.3110758 -0.15595132
000190 73 07 84 bc 40 59 fa 3c d2 fe 38 bc 91 07 91 bd
       -0.016116833 0.030560136 -0.011291223 -0.07081521
0001a0 51 39 b1 bd e9 07 a8 be 47 49 35 3f 46 d4 ae bd
       -0.0865351 -0.32818535 0.7081494 -0.08536582
0001b0 8e b7 7c 3f c5 a4 9c be 18 86 80 3f e4 e3 63 3e
       0.9871758 -0.3059446 1.0040922 0.22254902
0001c0 6b f9 05 bc 2c bc 1e bc 81 a0 c2 3e 80 1a d7 3e
       -0.008177142 -0.009688418 0.3801308 0.42012405
0001d0 23 da c2 bd 5b 06 cd 3b c5 82 11 3d 62 91 40 be
       -0.095142625 0.006256861 0.035525102 -0.18805459
0001e0 b7 7d 1c 3d ff e1 0e be fe 61 53 3e e6 13 9f bd
       0.03820583 -0.13953398 0.2064285 -0.07767467
0001f0 46 5b 43 bd 32 94 2b 3e 13 f9 9f be ff 2d 9d bc
       -0.047694467 0.16755751 -0.31244716 -0.019186972
000200 6f a0 a3 bb e0 70 69 3e 2e e8 3b be c1 0b a6 3d
       -0.0049934904 0.22796965 -0.18350288 0.08107711
000210 3a 27 cb 3e c4 77 cc 3d 42 9b 63 bf 68 7b 70 3c
       0.39678365 0.09983781 -0.8890878 0.01467786
000220 cc ff 9f 3e 66 28 2a 3f ba cb ce be 83 e4 2e 3e
       0.31249845 0.66467893 -0.40389806 0.17079358
000230 e1 c9 5a be e2 94 44 be 29 4e f1 3e e1 ef 86 be
       -0.21366073 -0.1919742 0.47129944 -0.26354888
000240 7d 20 a2 3e ba 1c af 3e 41 0e 66 3e 76 b8 e3 3e
       0.31665412 0.34201604 0.22466375 0.4447667
000250 e2 2f 12 3b 1b 7b 02 3e 0e 6e b7 be 0f 7f 79 3e
       0.0022306372 0.12742274 -0.35826153 0.24364875
000260 50 50 25 3d 90 4f 86 bd 05 6a 0c 3e 78 59 3f 3e
       0.040359795 -0.06558144 0.13712318 0.18686473
000270 5d a5 6c bd 1f 72 7e 3e 63 3f 05 bc b8 05 2b 3d
       -0.05777489 0.24848221 -0.008132788 0.0417535
000280 65 a6 ff bb f0 12 95 3e de a1 21 be ae 2b 93 3d
       -0.007801818 0.2911601 -0.15784404 0.071860656
000290 bc 00 ad 3d 12 db d7 bc 75 86 85 3e 46 59 f4 3d
       0.08447406 -0.026349578 0.26079145 0.1193109
0002a0 68 11 c7 3d a1 68 8e bf 3a db eb 3e 48 97 2c bf
       0.09720117 -1.112568 0.46065694 -0.67418337
0002b0 e7 45 a0 be 7f 63 d1 be f5 40 49 3f e8 88 cc bc
       -0.3130333 -0.40896222 0.7861474 -0.024967626
0002c0 8b 68 50 be 41 0b 2f 3f b7 47 44 bf f7 a2 1f 3e
       -0.2035238 0.6837655 -0.7667193 0.1558951
0002d0 48 31 bd bb 33 20 56 3e be a4 44 be b4 50 44 bd
       -0.005773697 0.2091072 -0.19203469 -0.047928527
0002e0 a1 a7 40 3e cb c3 49 3e a0 7c c2 be 70 0d 58 3e
       0.18813945 0.19703595 -0.37985706 0.21098876
0002f0 38 2d eb 3e 32 e0 06 3e 69 34 ce be e1 20 24 3d
       0.45932937 0.13171461 -0.4027436 0.04007042
000300 3b 5d e2 3d f0 77 00 3f 4f b2 7a 3e e1 0d 0a 3f
       0.110529386 0.5018301 0.24482082 0.5392743
000310 2f 13 21 3d af 41 0f 3e e0 1c 42 3d 0a bf 1a bb
       0.039324936 0.139899 0.04739082 -0.0023612403
000320 88 2e 30 3c 3a 94 5c 3e 67 f8 3b bf 55 bd 39 3e
       0.010753281 0.21540919 -0.73425907 0.1813863
000330 bc ad 0c be a0 f0 23 be a5 97 40 3e 20 0c 0d 3d
       -0.1373815 -0.1600976 0.18807848 0.03443539
000340 27 8c 7b 3c bc 6f 69 3e 88 5d 71 be fd 6b db 3d
       0.015353239 0.2279653 -0.23570836 0.107139565
000350 d8 e6 8c 3c 5d c5 59 3f 6f f0 58 bf 7f d8 be bd
       0.017199919 0.8506678 -0.8474187 -0.09318637
000360 55 c9 7a bd ab 07 48 3e 31 8d 34 bf 25 6c 1b 3e
       -0.06122716 0.19534175 -0.7052794 0.15177973
000370 34 1d 46 bd 55 8e ff 3e e2 1a ca 3d 7e be c0 3e
       -0.048367694 0.49913278 0.09868409 0.37645334
000380 b7 b1 a8 3c e6 e7 a9 be b3 f9 fd bc 29 88 d2 bb
       0.020592554 -0.33184737 -0.031002855 -0.006424923
000390 23 b0 57 3d b3 a9 11 3e 58 ad 6a 3e 02 26 86 3d
       0.05265821 0.14224891 0.22917688 0.06550218
0003a0 49 14 62 bd 2b 14 58 bf 62 0e 31 3f 6d 99 95 bd
       -0.055195127 -0.84405774 0.6916257 -0.07304654
0003b0 d8 dc 81 be 5a 33 64 3c 8d bf 67 3e 1a ee f7 3d
       -0.25363803 0.013928259 0.22631665 0.12105961
0003c0 45 d3 ee bd f2 de 8e 3f 38 3c 4d 3e 06 19 7e 3f
       -0.1166139 1.1161788 0.20042503 0.9925693
0003d0 a6 c1 d7 be 9f 86 4f be b7 26 f3 3e 06 48 5a 3d
       -0.4213993 -0.20266198 0.47490475 0.053291343
0003e0 70 8b 82 3e c7 17 6a 3e f0 d6 60 bf 7c d4 02 be
       0.25497007 0.22860633 -0.8782797 -0.12776369
0003f0 16 64 08 3e 7f b0 32 3c d6 c0 06 3e 6a d0 5c 3e
       0.1331943 0.010906338 0.13159499 0.21563879

weight_hh_l0 f4 [128, 32]
000000 6d cb 71 bf 3f 96 ab 3d 32 fd 76 3e 2a 27 b4 be
       -0.9445103 0.083782665 0.24120024 -0.3518613
000010 8c d4 c9 be fc 07 ff be 92 9c 0a 3f 8a 21 61 bf
       -0.39419973 -0.4981078 0.5414516 -0.879418
000020 fb 04 8a 3f 24 51 43 be d5 7c 7f 3f 45 e7 79 be
       1.078277 -0.19073921 0.99799854 -0.24404629
000030 29 c6 58 bf 5e 07 a5 3e da 88 d5 be 00 dc 1d be
       -0.8467737 0.32232183 -0.41705972 -0.15415955
000040 36 4c 4b 3e f6 86 09 be 5e 44 75 3f 07 a2 41 bf
       0.19853291 -0.1343039 0.95807445 -0.7563786
000050 6e 67 d6 bd 6e df 6f 3e 04 2f 26 be 60 9b a7 be
       -0.104689464 0.23425075 -0.16228873 -0.3273573
000060 2f 78 43 be f4 4a 6f be 8b 0c a8 3e 53 d5 00 3f
       -0.19088815 -0.23368436 0.3282207 0.50325507
000070 0b 68 09 3f 16 dc d8 3e 48 2b 8e 3e 91 9b 81 bf
       0.5367438 0.42355412 0.27767396 -1.01256
000080 0e ae b0 be f8 ba c4 3f 4b 48 8b 3e f4 53 a8 3d
       -0.34507793 1.5369558 0.27203593 0.08219138
000090 61 b7 fe be e8 47 e3 bf 48 96 54 3f 4c 98 af bd
       -0.49749282 -1.7756319 0.8304181 -0.0857397
0000a0 6a f8 88 3e ca b9 8d 3c 4a ab 49 40 14 43 96 be
       0.26752025 0.017300505 3.1510797 -0.29348052
0000b0 ec 44 d9 3e 6f 4c aa bc 6a f9 3e bf db 99 84 bd
       0.42435396 -0.0207884 -0.74599326 -0.06474658
0000c0 71 4a de 3b 1f 04 18 bf 5d 3e c3 3e bd f6 12 be
       0.0067837765 -0.5938129 0.38133517 -0.14351936
0000d0 0d 7f 01 3e 74 a0 1e be cc 78 99 bd ca cd 2b be
       0.12646122 -0.15490896 -0.07493743 -0.16777721
0000e0 69 ac 1d 3e e1 7d 93 bd 7e 04 8a be c8 32 00 bf
       0.153978 -0.07201744 -0.26956552 -0.50077486
0000f0 3c 60 c5 3e a8 e2 a4 3d 9b e5 8c 3e a3 0c 76 3e
       0.38549984 0.08051044 0.27518925 0.24028258
000100 96 1a c4 3e a5 62 0f be 1d cb cb bc 8b 0d ab 3e
       0.38301533 -0.14002474 -0.024877125 0.3340877
000110 50 ff 35 3e b7 f1 04 be 35 7e 47 bd a7 e2 4d bb
       0.17773175 -0.12982832 -0.048704345 -0.0031415613
000120 af 7b 2f bf 62 fc 82 3e f1 78 b7 3e 1b b6 a3 3e
       -0.685481 0.25583178 0.35834458 0.31974873
000130 25 94 3d 3f c9 5d 1f bf 5b 86 f2 3d 64 c8 bf 3e
       0.74054176 -0.6225248 0.118420325 0.37457573
000140 1e b3 68 bf b3 27 07 3e fa 33 c4 bf ce 2d ed bd
       -0.9089831 0.13198738 -1.5328362 -0.11581002
000150 12 62 d9 3e 0c 24 0f bf ee 67 db 3e 08 c3 85 3f
       0.42457634 -0.5591438 0.4285273 1.0450144
000160 8e cc 4b 3f 4f d7 87 3e 6c 1b a0 be ea 88 69 3f
       0.79609 0.26531455 -0.3127092 0.9122454
000170 d8 85 a3 be ad 18 3f 3f 8e ca 56 be f5 eb 89 bf
       -0.31938052 0.7464703 -0.20975706 -1.0775133
000180 f1 52 a7 be 7f d5 4e be 1e 75 aa 3f 6c 2c 09 40
       -0.32680467 -0.2019863 1.3316991 2.1433363
000190 d9 0d 35 bd a4 6e 4f bf dd b8 b3 3f b3 8f 0a bf
       -0.04420266 -0.810282 1.4040791 -0.5412552
0001a0 6e dd 1a 3e 88 2d 11 3f d9 c7 83 3f 51 34 01 40
       0.15123531 0.567101 1.0295364 2.0188181
0001b0 13 08 2a 3e f3 a7 dc be ae f3 60 3f c1 a9 3d 3e
       0.16604643 -0.43096885 0.87871826 0.18521787
0001c0 74 f6 21 bf a7 10 0b bf 5a 1e f7 3e 97 96 b5 be
       -0.6326668 -0.54322284 0.48265344 -0.35466453
0001d0 c4 e8 1b 3f c8 cb 69 bf d2 ca b6 3e f5 ea f4 3f
       0.6090205 -0.9132657 0.35701615 1.9134203
0001e0 01 4f bf 3f 22 6d 00 3f 5f 8a 02 bf 2a 03 35 3f
       1.4945985 0.50166523 -0.5099239 0.7070795
0001f0 a5 f1 42 3e f5 3b 48 3f 4c f3 30 bf 9a 39 95 3d
       0.19037493 0.7821649 -0.6912124 0.07286377
000200 43 85 2a 3f 02 72 2e bf a2 81 3c 3f 72 98 8f be
       0.6660959 -0.6814271 0.73635304 -0.28045994
000210 0b e9 9d 3f fe be a1 3c f2 25 0b bf c5 e7 4f 3f
       1.2336744 0.019744392 -0.54354775 0.8121303
000220 c6 66 11 bf d9 c4 7b 3e 3b 35 62 3f 26 90 4b 3f
       -0.56797445 0.2458681 0.88362473 0.7951683
000230 19 11 80 3f 3f 63 80 bd 3d 3e 42 3e 51 89 23 3f
       1.0005218 -0.0626893 0.18969055 0.63881403
000240 1a 27 61 bf 5d d9 f9 3e 3d f9 10 bf e0 48 ac bf
       -0.8795029 0.48798648 -0.5663031 -1.345974
000250 57 d2 e2 bc c4 65 7a bd ca 88 3e 3e 77 ab ae 3e
       -0.027688188 -0.061132208 0.18606868 0.34115192
000260 d8 96 d9 3e e9 31 cc 3e e4 2f e3 3e 81 ea bc 3f
       0.42497897 0.39881828 0.44372475 1.4759065
000270 f7 42 81 bf 8d 8b 11 3e b7 58 2f bf 02 f9 a4 be
       -1.0098561 0.1421339 -0.68494743 -0.32221228
000280 12 bd 50 bf 19 64 35 bf 7f 9b 28 bd 3c a9 52 3f
       -0.815385 -0.7085586 -0.041163918 0.8228948
000290 66 e7 b5 be a3 82 49 3f 2d 65 f4 3f 5f f6 1f bf
       -0.35528105 0.7871496 1.9093376 -0.6248531
0002a0 6d 82 22 3f 52 31 e7 bd 6f 45 f5 3e af e7 9f 3f
       0.63480264 -0.11288704 0.47904536 1.2492579
0002b0 b0 fd 6d bf 69 ae 2d 3e 68 03 18 40 c3 33 b2 bd
       -0.9296522 0.16961063 2.375208 -0.08701279
0002c0 e3 3c 46 3b 57 c3 c6 3a c4 ef 18 3f 53 8f 23 3f
       0.0030248694 0.0015164417 0.59740853 0.6389057
0002d0 89 30 1d 3e 18 15 8c 3e c3 f9 c1 3d 29 ea 9b be
       0.15350546 0.27359843 0.094714664 -0.30452088
0002e0 67 68 e6 3e 41 f4 11 bf 3d 80 71 bf 8f 03 d0 3c
       0.45001528 -0.57013327 -0.943363 0.025392322
0002f0 39 db 05 bd 71 e5 85 3e 28 5e ed bf 55 04 56 bf
       -0.03267977 0.26151612 -1.8544359 -0.8360036
000300 4a 15 cd be 6f 6e ff bd 2d fd 15 be df e1 90 bd
       -0.40055305 -0.124722354 -0.1464736 -0.070743315
000310 3f ba 12 3e 63 b7 c9 3e 0c 67 a2 3d 3d e0 d2 bd
       0.1432886 0.39397725 0.07929811 -0.10296676
000320 c3 84 ae bc 20 1e ce be 85 d1 95 be 9d d1 a9 be
       -0.02130354 -0.4025736 -0.29261413 -0.33167735
000330 9f 92 0b bd bb 69 e0 3d 0b 26 b0 bd 29 4f 12 be
       -0.034075376 0.109576665 -0.08601006 -0.1428801
000340 09 5a 7f 3e 5f 00 dc 3d f0 06 a2 3e ff 3a 60 bf
       0.2493669 0.10742258 0.31645918 -0.8759002
000350 56 f4 b6 be 9f ce 4c 3e 59 fa 47 3c 72 d3 33 be
       -0.3573329 0.20000695 0.012205684 -0.17561129
000360 07 3e 68 be bc d8 d5 bd b0 ee af bc 1f 32 2d 3d
       -0.22679912 -0.104417294 -0.02147612 0.042284127
000370 fe 5a 13 3e 69 db c1 bd c9 f0 37 3e 3b 78 93 be
       0.1439018 -0.09465677 0.17962946 -0.28802666
000380 8e 69 03 bf 7f 01 f5 3f 1b 7c 53 3f 63 66 64 3e
       -0.5133294 1.9141082 0.82611245 0.22304682
000390 b6 54 d0 3e 04 17 03 bd b7 db ca 3d 8d 2c 0f bf
       0.4068963 -0.03200437 0.099051885 -0.55927354
0003a0 df 14 1e bf 3b 72 fb 3d 94 40 c4 be cb c8 c4 bd
       -0.61750597 0.12277647 -0.3833052 -0.09608611
0003b0 de ec ea be f5 af 5f 3e b4 a3 fe bf 8e 3f 9f bd
       -0.4588384 0.21844466 -1.9893708 -0.07775794
0003c0 e1 1f 2b be a1 87 8a 3e 54 07 57 be 9f 30 84 bf
       -0.1671138 0.27056602 -0.20998889 -1.0327338
0003d0 4c eb c9 be f4 8a c3 be 6d 3c 26 bc a3 cd 16 bf
       -0.3943733 -0.3819195 -0.010146243 -0.58907527
0003e0 a1 b9 9a be 3d b9 02 be fa f5 38 bf 59 7b 13 3f
       -0.3021975 -0.12765975 -0.7225033 0.5761009
0003f0 ac a1 eb 3e a6 5d cb bd c1 64 2a 3f ca 4a b6 3d
       0.46021783 -0.099299714 0.6655999 0.08900984

bias_ih_l0 f4 [128]
000000 da 52 ba be 11 f1 77 be 1b 5c c7 3e e8 f5 8a 3f
       -0.36391336 -0.24213053 0.38937458 1.0856295
000010 22 88 b5 3e b6 6f 06 be 3e b6 8d be 3e 9d 8e 3e
       0.35455424 -0.13128552 -0.27678102 0.2785434
000020 40 83 40 3f d3 22 46 3d b4 b8 ed bd 41 a7 b3 be
       0.7520027 0.048373055 -0.11607495 -0.35088542
000030 2a 63 f3 be 87 12 a5 3e 49 1c a4 bd d3 bd 3d be
       -0.47536594 0.32240698 -0.080132075 -0.18529443
000040 d6 38 4f be c8 74 7b be 88 d0 09 3e 5b a1 91 3e
       -0.20236525 -0.24556267 0.13458455 0.28443417
000050 c3 51 cf be 3f ef 65 be ef 60 1c 3e fa 52 60 3e
       -0.40492067 -0.22454546 0.15271352 0.21906653
000060 5d 7c 31 3f 92 0e c5 be 2b 0e 7c 3e 45 40 0b bf
       0.6933039 -0.3848768 0.2461478 -0.5439494
000070 03 eb af bd d0 f6 90 3e e3 e2 3d 3c 77 a9 4e be
       -0.08589747 0.28313303 0.011589739 -0.20181833
000080 0b a5 85 be d3 3a 8d 3e ad c8 cd 3e 04 13 e8 3e
       -0.2610248 0.27583942 0.40192166 0.45327008
000090 7c 19 52 3d 9c 09 3c bf 56 4f 8f 3c 30 26 af be
       0.051293835 -0.7345216 0.017493885 -0.34208822
0000a0 a2 f2 ea be 13 74 23 3e 28 b9 59 be c8 a0 0c 3e
       -0.4588824 0.15962248 -0.21262038 0.13733208
0000b0 07 10 af 3e 3c e3 19 be a5 b6 11 3e 1a fb 81 be
       0.34191915 -0.1502809 0.1422983 -0.25386888
0000c0 1e be 96 bd 93 6d 1d be 73 60 2b bf a3 1b 81 bd
       -0.07360481 -0.1537383 -0.66944045 -0.063040994
0000d0 b2 4d 92 be a2 63 ba 3e 36 21 84 3e a0 56 16 be
       -0.28574902 0.3640414 0.25806588 -0.14681482
0000e0 f1 a0 9c bd 53 9a 5f 3d 01 03 bb bd d8 77 bf bd
       -0.07647885 0.054590534 -0.09131432 -0.0934903
0000f0 21 4b 65 3e 38 e2 16 3e 59 2f ac 3e 97 82 39 3e
       0.2239194 0.14734733 0.33629873 0.18116222
000100 1c 5b 1f 3e 14 9f 50 3e 2c 7a fc be 63 dc 93 be
       0.15562099 0.20373183 -0.4931196 -0.2887908
000110 5f 23 39 3e cb 25 c9 be c3 75 2d be 4e 4b a9 3e
       0.18079899 -0.39286646 -0.16939454 0.33065265
000120 30 de 6f 3e a1 23 ef be a1 50 5f 3f b0 ef e0 be
       0.23424602 -0.4670687 0.87232405 -0.43932867
000130 2b 1e 2a bf 08 4d e2 3c 69 e3 83 bf 4d ef dd be
       -0.6645228 0.027624622 -1.0303775 -0.43346635
000140 40 a8 f9 3d 9c d6 3e be 80 5f 7f 3e 29 1b 03 be
       0.12190294 -0.18636554 0.24938774 -0.1280333
000150 4b ad 91 bd 69 80 d9 be b3 9d dd be 72 37 6c bf
       -0.07113131 -0.42480782 -0.43284377 -0.922721
000160 ca 36 db bd 35 a5 ab be ae bb 7b 3e 61 83 17 3e
       -0.107038096 -0.3352448 0.24583313 0.14796211
000170 6c 2e 38 be ca f2 fc 3d b6 86 da bc ab 5a a4 be
       -0.17986459 0.12350996 -0.026675563 -0.32100424
000180 52 e2 37 3e 26 b1 83 be 74 b9 3a 3e 01 4a 35 3d
       0.17957428 -0.2572109 0.18234807 0.04426003
000190 45 98 65 be 98 ae 55 bf 1c d5 b2 39 88 2c 23 bd
       -0.22421367 -0.83469534 0.00034109585 -0.03983739
0001a0 97 60 8b 3e 68 57 b1 bd e3 b9 62 be ee 7c 04 3f
       0.2722213 -0.086592495 -0.22141223 0.5175313
0001b0 f5 2f 9c 3e 19 ed e9 be 65 60 65 bc 27 fa 89 3e
       0.30505338 -0.45688704 -0.014000033 0.26948664
0001c0 90 da bd 3a aa 2c e7 be 22 ba 9b be 3a 18 e6 3d
       0.0014484692 -0.45151263 -0.30415446 0.112350896
0001d0 13 90 16 bd 35 62 10 3e 1d de 5d 3e 61 05 67 3c
       -0.036758494 0.14099963 0.2166676 0.0141004035
0001e0 68 70 6f 3d 71 b8 bb 3e 77 b0 38 3e 5f a1 0d bf
       0.05845681 0.36664155 0.18036066 -0.5532436
0001f0 17 6f 1c bf 76 ce 8a 3e f9 fa 3a bc d5 4b 5f 3d
       -0.6110701 0.27110642 -0.011412376 0.05451568

bias_hh_l0 f4 [128]
000000 40 58 20 be bc d2 4d bc 0b 90 18 3f 79 08 8a 3f
       -0.15658665 -0.01256245 0.5959479 1.0783836
000010 57 dc ff 3e 28 80 82 be 39 62 fd be e3 1a 89 3d
       0.49972793 -0.254884 -0.49489 0.06694581
000020 4f 64 62 3f a6 84 00 be 3d c6 ae be 1b 75 f8 be
       0.8843431 -0.12550601 -0.3413562 -0.48526844
000030 05 ec 28 bf ec 9f 17 3f b0 79 9b be f9 78 2a be
       -0.6598514 0.59228396 -0.30366278 -0.1664771
000040 9d 37 98 be eb 4d de be ba a2 46 3e 96 4f 88 3e
       -0.2972993 -0.43418822 0.19398013 0.2662322
000050 5d 83 6e be 52 46 9e 3c db 98 0f 3e 52 53 6a 3e
       -0.23292299 0.01932064 0.14023153 0.22883347
000060 48 6c 38 3f cc b5 62 be ca d7 3a 3e f8 8b 25 bf
       0.72040224 -0.22139663 0.1824638 -0.646667
000070 f0 d6 95 be 25 42 bc 3d 62 6f 67 3d 21 2f 57 be
       -0.29265547 0.091923036 0.056502707 -0.21014072
000080 83 94 e1 be 83 1d 4a 3e 61 9b a0 3e 79 17 95 3e
       -0.44058618 0.1973782 0.31368545 0.2911947
000090 31 b6 91 3e 2c 5a 3f bf 59 24 46 3e 7f da 12 bd
       0.28459314 -0.74746966 0.19349803 -0.035852905
0000a0 1e dc 08 bf 18 b1 af 3e 9f cd be bd da 60 03 3e
       -0.5346087 0.343148 -0.09316563 0.12829915
0000b0 4a 3b 6a 3e 2c 0b 00 bc cf 91 b1 3d a1 bc ad bd
       0.2287418 -0.007815164 0.08670389 -0.08483244
0000c0 be 8f 31 be b6 ea b1 be 0a 22 3c bf 48 9f 0f bd
       -0.1733999 -0.34749383 -0.7348944 -0.03506401
0000d0 5a a5 e0 be c7 28 58 3e 83 68 e0 bc 22 d7 e7 3d
       -0.43876153 0.21109305 -0.027393585 0.1132033
0000e0 b2 30 94 bc e8 51 3d 3e cc f9 1f 3e 2c c3 5d be
       -0.018089626 0.18488276 0.15622634 -0.21656483
0000f0 d7 e2 13 3e ca 31 09 3e 49 28 87 3e a9 3a 0d 3e
       0.14442001 0.133979 0.26397923 0.13791908
000100 c9 58 e7 3e 5b da 45 3e 81 23 a1 be db 1b 9c be
       0.45184925 0.19321577 -0.314724 -0.30490002
000110 65 65 66 3d 57 69 bb bd c5 99 c2 be a6 8d 64 3e
       0.05624904 -0.09150951 -0.38007942 0.2231966
000120 b4 cb 46 3d db 26 a2 be c8 07 78 3f db 0c cd be
       0.04853411 -0.3167027 0.96886873 -0.4004887
000130 b3 1e 7e bf 60 08 a0 3c 18 28 70 bf ae 0a 4d be
       -0.99265593 0.019535244 -0.9381118 -0.20023605
000140 20 fb f3 3d 21 24 b4 be 22 a1 be 3e be 76 3b be
       0.11913133 -0.35183814 0.3723231 -0.18307015
000150 4f 92 73 bc 06 80 cb be 63 f1 ba be 47 cf 5e bf
       -0.014866426 -0.39746112 -0.36512288 -0.8703503
000160 1e 05 10 be 32 3a f2 be 6e e8 cb 3d 30 8e 0e 3e
       -0.14064452 -0.47310024 0.09956442 0.13921428
000170 87 62 5f 3d 3f 05 44 3d 7f 2d a0 3c 29 35 d9 be
       0.054537322 0.047856566 0.019552944 -0.4242337
000180 c7 64 1e be 33 43 1a bd c2 1e ca 3d e7 d3 58 3e
       -0.15468131 -0.037661742 0.09869148 0.21174584
000190 8d 7a 0e be 08 eb 36 bf b4 f2 d8 bc 92 ad 90 3d
       -0.13913937 -0.7145238 -0.026482917 0.07064356
0001a0 22 43 83 3e 37 ef 5e be ab 21 c5 be d7 40 aa 3e
       0.25637156 -0.2177094 -0.3850225 0.33252594
0001b0 4f 70 aa 3e f3 0f c0 be af 9b 40 be c7 7e 44 3e
       0.3328881 -0.37512168 -0.18809389 0.19188987
0001c0 ea 14 32 3e 59 91 18 bf a5 5b 08 be 98 de 59 bd
       0.1739079 -0.5959678 -0.1331621 -0.053190798
0001d0 93 c5 f8 3d 20 e1 01 3e 5e ba ab 3e 4e a6 04 3e
       0.12147059 0.12683535 0.33540624 0.12954065
0001e0 93 13 27 3d 4a ee 9d 3e 76 f7 75 3e 30 7d 0a bf
       0.04079015 0.30845863 0.2402018 -0.5409727
0001f0 36 4f 00 bf 24 2a 5c 3e 4c 61 22 bd dd 61 80 3e
       -0.50120866 0.2150045 -0.03964357 0.25074664

weight_ih_l0 f4 [128, 2]
000000 3f c3 8f 3e ae 7b f8 3d 5f 97 be 3e d1 da db 3e
       0.28078648 0.12132965 0.37224862 0.4294038
000010 f8 5b 87 be 3c f9 79 3d 5d 99 9b 3e 38 8c a6 3d
       -0.26437354 0.061028704 0.30390444 0.08132213
000020 69 c8 2d 3f 27 31 90 3e 44 a8 28 3f b1 ef ae 3e
       0.67883927 0.281625 0.6588175 0.34167245
000030 9e f0 8f be 7d 08 ec 3e bf 62 1c bd f2 8f 8b be
       -0.28113264 0.46100226 -0.03818011 -0.2725826
000040 cb 0b 68 3e c0 fb 14 bb a2 77 bc 3d 0a a9 2f be
       0.22660749 -0.0022733063 0.09202506 -0.17154327
000050 b8 af bb 3d 28 0e 0b be c4 44 f2 3d 41 e4 56 3b
       0.09164375 -0.13579619 0.11829522 0.0032789859
000060 fb 5a 85 3e 5c 18 23 3e da a1 05 be 66 b3 70 be
       0.26045975 0.15927261 -0.13050023 -0.23505935
000070 27 cb 23 3f cd c0 70 3e a5 3f 11 bd 32 60 65 be
       0.6398186 0.23511048 -0.035461087 -0.22399977
000080 fe be a9 3f dd ca ea 3e 4a bd 1a 3b 73 d8 8f be
       1.3261411 0.45857897 0.002361136 -0.28094825
000090 ea e7 3d bd ec 63 cf bc 5e 06 af 3d 44 4a e7 bd
       -0.04636375 -0.025316201 0.08546136 -0.11293462
0000a0 88 33 85 3e 8b 56 2a 3c 71 ba 91 be 81 f5 56 be
       0.26015878 0.01039661 -0.28462556 -0.2099209
0000b0 51 0d 10 3e a8 aa 5c bf 89 f4 8c 3e 95 d0 63 3e
       0.1406758 -0.861979 0.27530316 0.22247536
0000c0 dd df 65 bc a6 f7 fc 3d 26 18 5a 3e 91 da d7 bc
       -0.014030424 0.12351923 0.21298274 -0.026349338
0000d0 79 40 89 3f 1d f4 45 3e 5c 79 82 be ac 55 49 3e
       1.07228 0.19331403 -0.25483215 0.19661587
0000e0 22 d9 5c 3e 76 7c 92 3d d3 f6 3f be b2 1c e8 be
       0.21567205 0.07152645 -0.187465 -0.45334393
0000f0 b6 99 6b 3f 21 d4 1b 3f 6b 6a 0e 3e 47 58 94 3d
       0.9203142 0.6087056 0.13907783 0.072434
000100 8d bb 9c 3c 3b 44 52 3f 93 ec 14 bf f5 f2 4b 3e
       0.0191324 0.8213536 -0.58173484 0.199169
000110 c1 43 88 3d b5 78 a4 3e 51 f0 9c 3e 0f 1d 6f 3f
       0.06653548 0.32123342 0.30652097 0.93403715
000120 37 e1 7c bc 2e 5f 54 3d 43 4d 88 be 1d 24 90 3d
       -0.015434555 0.051848583 -0.26621446 0.07038138
000130 be 00 5d bd ee 30 52 3e 78 97 03 3e e1 13 fd 3e
       -0.053955786 0.20526478 0.1285075 0.4942923
000140 44 1f 7a be 28 20 da 3e 07 2a 6d 3d 1c 46 a7 3b
       -0.2442599 0.42602658 0.05790141 0.0051047932
000150 ca d7 08 3e 1c 33 74 3e 4e ff 15 3e 28 47 ee 3b
       0.13363567 0.23847622 0.14648172 0.007271666
000160 15 fa 4e 39 a2 a7 df 3d 09 c0 ef bc b0 1b c0 3d
       0.00019738854 0.10920645 -0.029266374 0.09380281
000170 1a 40 75 be fe 50 01 3a ba 61 00 3e 88 0a 63 be
       -0.23950234 0.0004933028 0.1253728 -0.22171986
000180 cb 43 5b 3e d2 9a f7 be 0b bb 64 3d 32 ae 1c 3e
       0.2141258 -0.48360306 0.05584244 0.15300825
000190 dd 4a a5 3d 30 1a ff 3d f7 78 0d bd 87 13 25 bd
       0.0807092 0.12456167 -0.03453919 -0.040301826
0001a0 f4 36 51 3d e1 15 9f bd 07 76 b3 3d 8e 6c 13 be
       0.051077798 -0.07767845 0.08762746 -0.14396879
0001b0 a7 da 42 be 55 50 8a bf c5 fa cd 3e c5 72 95 3e
       -0.19028722 -1.0805765 0.40230384 0.29189125
0001c0 fa 55 43 bd 51 bc 63 3e 17 88 a0 3c cc 79 4e 3e
       -0.047689416 0.22239806 0.019596143 0.2016365
0001d0 7b 6c 32 3e 1a e5 93 bd 01 e7 71 bd b4 45 58 3e
       0.17424195 -0.07221432 -0.059058193 0.2112034
0001e0 a5 57 2d 3b 13 fa 95 3d c6 21 dd bc 39 db 29 be
       0.0026449945 0.073230885 -0.026993643 -0.16587533
0001f0 63 26 a2 3e f6 dd 65 be 58 fb 6c bd a9 52 92 be
       0.31669912 -0.22447953 -0.057856888 -0.2857869
000200 3a 9a 3a bd 3c 50 1e be b3 f4 89 3e 15 3a 63 be
       -0.04555724 -0.15460294 0.26944503 -0.22190125
000210 b1 2e 07 bd 5d 5e 46 3d 04 02 81 3e e3 37 11 3f
       -0.033003513 0.048429836 0.2519685 0.567259
000220 4b 0f 07 3e b6 a2 dd bd 05 18 f2 be 39 b6 b6 bd
       0.13189428 -0.1082205 -0.4728395 -0.08921475
000230 bb fb 7b 3d 97 59 42 3d 7e 03 30 3d a6 6a c3 be
       0.061519366 0.04744872 0.04297208 -0.38167304
000240 1f 42 be bd 85 4c 0c 3f d0 50 d8 3c 4a c5 4a be
       -0.09289955 0.5480426 0.026405722 -0.19801822
000250 e6 c5 58 3e 3c 2e 28 bd fa 8d 84 3e 56 dd 6c 3e
       0.21169242 -0.041059718 0.2588957 0.23131308
000260 a7 09 a9 3e ca 4e a8 bd 40 e3 7d 3d 14 47 80 bc
       0.33015177 -0.08218153 0.0619843 -0.015658893
000270 c3 e1 66 3d 49 24 9f 3d b7 cc 9f 3e 68 40 2a 3e
       0.056367647 0.07770593 0.31210873 0.16626132
000280 21 0a 51 bf 6a 5c 52 3e e9 dd 18 bd 79 13 25 bd
       -0.8165608 0.20543066 -0.037321005 -0.040301774
000290 ac d1 29 bd 01 bb 13 be 9e 41 46 3d 07 af 8a be
       -0.041459724 -0.14426805 0.04840242 -0.2708666
0002a0 8d 8f 95 3d da 94 3e bc bc 54 8e bf 9f b4 6b 3c
       0.07302771 -0.011632169 -1.1119609 0.014386325
0002b0 d0 2a 92 3b 36 ab 32 3e 10 c5 eb 3e c4 54 68 3c
       0.00446067 0.17448124 0.46048784 0.014180366
0002c0 df 6e e1 bd 20 9d ea 3e ef dd 86 bd a1 94 7f 3e
       -0.11007475 0.45823002 -0.06585299 0.24959041
0002d0 81 d1 57 be bc 52 cb 3d e6 28 a3 3d f0 a5 3e be
       -0.21076013 0.0992789 0.07966785 -0.18617988
0002e0 49 d8 47 ba 3d 1e 0e 3e db 79 b8 3e 3c 2f 3d b9
       -0.00076234766 0.13878722 0.36030468 -0.00018042041
0002f0 3a 59 0c 3f ec 17 07 be f8 3c 55 bc 2a b2 f2 be
       0.5482365 -0.13192719 -0.013015024 -0.47401553
000300 1a 9e ad 3e 48 22 91 3e a3 ec 6d be 86 33 4a be
       0.33909684 0.28346467 -0.23234801 -0.19746217
000310 97 51 01 be 99 5b ec bd bb f0 5a be d6 d5 01 be
       -0.1262878 -0.11540908 -0.21380894 -0.12679228
000320 00 2c c7 3c fc 3b f0 3f b3 7d 41 bd e5 ed 51 be
       0.024312973 1.8768306 -0.047239017 -0.20500906
000330 01 44 01 be b0 e5 df be c2 d2 e6 3d 03 85 69 3f
       -0.12623598 -0.43729925 0.112706676 0.91218585
000340 d7 c6 c0 bd 59 24 2d be b4 b6 4c 3f 39 17 c4 3e
       -0.09412926 -0.16908397 0.7996628 0.38298967
000350 05 1a fa 3d 15 26 17 3e e2 93 a6 3e 16 b1 bf 3d
       0.12211994 0.14760621 0.325347 0.09359948
000360 ca f4 c4 3d 69 d4 05 3f 86 f4 90 3e 24 e0 d8 3e
       0.09617002 0.5227724 0.28311557 0.42358506
000370 77 41 11 3e 56 62 b6 3f 90 c9 76 3f 75 d1 e8 3e
       0.14185129 1.424876 0.9640131 0.45472303
000380 cc 1c d6 be f0 65 6e be aa ea ae 3e f4 ba 4c 3f
       -0.41818845 -0.23281074 0.3416341 0.7997277
000390 76 b5 36 3e 75 7f e2 3d b3 a2 69 3c 70 9a 5c be
       0.1784266 0.11059467 0.014259982 -0.21543288
0003a0 39 78 59 3e 47 36 cd bd 4c 67 29 3e a0 f1 27 3c
       0.21237268 -0.10020118 0.16543311 0.010250479
0003b0 07 99 69 be 7c 20 2e bf 18 91 9f 3d c2 c5 32 bf
       -0.22812282 -0.6801832 0.07791346 -0.69833004
0003c0 66 66 d9 3e 8e ca c4 bd 97 0d 8e 3e 7e 58 43 3c
       0.42460936 -0.09608947 0.27744743 0.011922954
0003d0 ee a2 e0 3e 48 4f de bd 38 33 4f bd 37 4b cf bd
       0.43874305 -0.108549654 -0.050585955 -0.10121768
0003e0 09 ab 84 be 07 42 21 3d 39 ae 91 3e f1 2c 69 3e
       -0.2591174 0.03936961 0.28453234 0.2277105
0003f0 bc d1 9c be 4c fd 70 3d ca b3 24 3e 7e 6a 00 3e
       -0.30628765 0.058835313 0.16084209 0.12540624

weight_hh_l0 f4 [128, 32]
000000 08 ff a6 be bf 17 69 bd c1 a1 a1 bb 0e 47 bb bd
       -0.32616448 -0.05690741 -0.0049326126 -0.09144412
000010 3b 8f f5 be c2 4c d6 be fc da 3d be 77 ad ec be
       -0.4796084 -0.41855437 -0.18540567 -0.46226093
000020 96 60 89 3f 73 03 69 bd 14 3d f3 3f d6 0c ee 3d
       1.0732601 -0.056888055 1.9003015 0.11623542
000030 33 9e 6f 3e 1e 81 ee 3d 95 4a de 3d cc e4 d1 3d
       0.23400192 0.11645721 0.10854069 0.10248718
000040 fb 64 9c bd f8 d3 19 bf a9 b2 29 3e 80 82 1f 3e
       -0.07636448 -0.60089064 0.1657206 0.15577126
000050 f1 c9 9d ba 89 34 41 3e fb c4 44 be 4b 4e 68 3c
       -0.0012038333 0.18867697 -0.19215767 0.014178823
000060 18 5b 11 bd db a2 a9 be da 50 48 bd 3b e1 1a 3f
       -0.035487264 -0.3313206 -0.04890523 0.60499924
000070 2e 8c 8b 3e f0 c7 3f 3e 54 dd aa 3c 35 b6 ca be
       0.27255386 0.18728614 0.02085749 -0.39592138
000080 eb 81 9a bd b4 f2 0f bf 86 60 ba be 04 78 7f be
       -0.07544311 -0.5622971 -0.36401767 -0.24948126
000090 18 6b 19 be ab ca 82 3e 8c 8c 14 bf c2 f3 33 be
       -0.1498226 0.25545248 -0.5802696 -0.17573455
0000a0 71 22 67 bf cf e9 af be b6 12 58 bf 2c ba 3b 3d
       -0.9028693 -0.3435807 -0.8440355 0.045831844
0000b0 da 31 9d 3e 29 8a 03 bf fb 4b d7 3e 14 80 20 bb
       0.30702096 -0.5138269 0.42050156 -0.0024490403
0000c0 68 6e 2c 3f 8b 19 b8 3f 54 75 1f 3f bf c5 ab be
       0.67355967 1.4382795 0.62288404 -0.33549306
0000d0 9d 98 31 3e de 9f 0c 3e 2e 0a a0 bf 5c 82 79 bf
       0.17343374 0.1373286 -1.2503107 -0.9746454
0000e0 0d 3f e9 3e 07 84 00 3f 58 02 c7 be 20 cf 4b 3d
       0.45555916 0.5020146 -0.38868976 0.049758077
0000f0 6c 6d 76 3e 2f f6 e7 3c d4 14 06 bf 4b 08 0d c0
       0.24065179 0.028315632 -0.5237553 -2.2036312
000100 07 c7 db bc 10 c1 8b 3f 90 4f 16 bf e9 21 63 3d
       -0.026828302 1.0918293 -0.5871515 0.05545226
000110 04 a0 a0 be bb 5c 0c 3a 09 50 a6 3f 17 a9 92 3f
       -0.31372082 0.0005354394 1.2993175 1.1457852
000120 ac 43 ba 3e 94 ab a1 3d 6b 58 c5 be 91 61 8a 3d
       0.36379755 0.07894054 -0.3854402 0.067568906
000130 c0 d4 86 3e 5d 4c 7a be d5 8f a1 3e 0f da 85 be
       0.2633419 -0.24443193 0.31555048 -0.26142928
000140 de 07 7a 3d 49 3d 99 bd a2 63 be 3f 7b b0 ad be
       0.06104266 -0.07482392 1.4874156 -0.33923706
000150 ff 7b 0e 3e 80 8b 10 3e 73 a1 b4 be 78 88 30 bf
       0.13914488 0.14115715 -0.35279426 -0.68958235
000160 d4 e2 bf bd e5 fe 8c bf 4f f1 e7 be 1c b6 22 bf
       -0.09369436 -1.1015288 -0.4530129 -0.63559127
000170 d7 ef c4 3d 33 ac 42 3f 79 dc d3 3e fc 5c 4d 3e
       0.09616058 0.76044005 0.41379145 0.20055002
000180 47 dd 6f bf d3 88 47 3d d5 08 ed 3e ec a4 d7 3f
       -0.9369702 0.04871447 0.462958 1.6847205
000190 4f 9f 24 bd f4 2f 8e bf b2 a6 f6 be 3a 78 dc bd
       -0.04019099 -1.1108384 -0.48174053 -0.10765119
0001a0 e8 1a 93 bf fe 4b 15 be 05 04 21 40 b0 ff 12 3f
       -1.1492586 -0.1457977 2.5158703 0.574214
0001b0 4f 84 ac be f8 01 b2 3d 4e a2 3e be 15 b2 25 be
       -0.33694693 0.08691782 -0.18616602 -0.16181214
0001c0 52 59 75 3e fa 18 74 bc 6e 6e a2 bf 59 40 67 be
       0.23959854 -0.014898533 -1.268995 -0.2258314
0001d0 c0 7d f5 be 54 35 a1 3e f3 68 cb be 65 6b c1 3e
       -0.47947502 0.31486 -0.39728507 0.37777248
0001e0 f7 8e 29 bf 5e 89 97 3e 5e a7 c7 bf 61 80 ed 3e
       -0.6623377 0.2959699 -1.5597951 0.46387008
0001f0 28 a2 ce be 07 5a 04 bf a4 41 25 3f dd 28 fd be
       -0.4035809 -0.5169987 0.64553285 -0.4944524
000200 0f 68 b2 be 61 1b e7 3e 5b be 0f 3e 93 f1 d5 3f
       -0.34845015 0.45138076 0.14037459 1.6714348
000210 50 c1 82 bf 33 f9 d7 bd 45 50 ee 3f ed 2e d1 3d
       -1.0215244 -0.10545578 1.8618246 0.102140285
000220 0d eb 50 3f 69 a1 51 3e c5 b7 91 be 6f 97 2a 3e
       0.8160866 0.2047173 -0.28460518 0.1665933
000230 07 9c 5b be 22 cf 3f be 1e 16 88 be 79 5a 05 3e
       -0.21446238 -0.18731359 -0.26579374 0.13022794
000240 fd cc d1 3e fd 9b 8c 3e 4e 6b d6 be 83 ce 73 3f
       0.40976706 0.2746276 -0.41878742 0.95236987
000250 1a 8b c7 bd ae 4a 8d 3d 1c 2e 3e 3f c7 57 1d 3f
       -0.097433284 0.0689901 0.7428911 0.6146206
000260 6f 6c fd 3c 1f 3c ad bd 97 f9 e2 3d 2b 78 d9 bf
       0.030935494 -0.08458733 0.11082762 -1.6989797
000270 e6 42 80 3e ec 50 25 be aa 8a 6a 3e 4d 0c 63 3e
       0.2505104 -0.1614415 0.22904459 0.22172661
000280 7f 09 0a bf 59 ab 0c be 7b 9b dd bd c0 3d 31 bf
       -0.5392074 -0.13737239 -0.10820671 -0.6923485
000290 e3 25 a1 3e 07 0c bc be cd ef 12 3f 2d 69 cc be
       0.31474218 -0.36727926 0.57397157 -0.39923993
0002a0 4b 1d 2a bc d8 db ae 3e 89 f3 5c 3f ec 1b e6 3e
       -0.010382961 0.34152102 0.86309105 0.44943178
0002b0 ab a0 0f 3f 85 cf 0a bf 05 ea 09 bd 27 db f2 3d
       0.56104535 -0.542229 -0.033670444 0.11858206
0002c0 40 3e 4d bd f9 69 03 bd 21 82 a1 3e 38 94 0d bf
       -0.050108194 -0.032083485 0.31544593 -0.5530429
0002d0 a6 2c 6a 3d 4c 0f fb bd e2 a9 56 3c 12 4a 33 3e
       0.057171486 -0.12258777 0.013102027 0.17508724
0002e0 0d df a3 3e 2a 4e f2 be 62 30 9a be d2 5d fc 3e
       0.32006112 -0.4732526 -0.30115038 0.4929033
0002f0 89 b6 59 3e aa 3b 13 3f 3a 6c 08 be d6 da 1c bf
       0.21261038 0.57512915 -0.13322535 -0.6127142
000300 00 ab 06 3e 07 a9 d7 be e5 4d 62 3d 53 7c ff bd
       0.13151169 -0.42121145 0.055250067 -0.12474885
000310 29 b4 4f be 24 b6 c4 3e 4a e8 4b bf 47 a7 59 bf
       -0.2028357 0.38420212 -0.7965132 -0.8502087
000320 c1 13 43 3e 6e 1c 35 3d f7 43 24 bf 9a a4 54 3e
       0.19050504 0.044216566 -0.64166206 0.20765916
000330 bd 46 9a bf d2 7e 44 be ed b8 b3 3d c8 e3 f8 3e
       -1.2052838 -0.19189003 0.08775506 0.48611283
000340 70 4c a9 be cf 24 bc bf 20 82 07 bf 2c 01 0f 3d
       -0.3306613 -1.4698733 -0.5293293 0.034913227
000350 0c 05 fb 3e 5f 83 b1 bd 64 77 10 bf 4f 12 8e 3e
       0.49027288 -0.08667635 -0.56432176 0.27748343
000360 6a 69 0a bf 5e b8 8f 3e 1f 31 b4 be 86 dd 97 3e
       -0.540671 0.28070349 -0.35193726 0.29661196
000370 47 38 65 be b7 34 64 bf a4 c6 80 be fe 51 64 bf
       -0.2238475 -0.89142936 -0.2515155 -0.8918761
000380 51 cc a5 3e 31 35 b1 3e 64 d1 82 be 34 b7 92 bd
       0.32382444 0.34610894 -0.25550377 -0.071638495
000390 c7 27 04 be 43 5c 9b 3e 9d 91 7a 3f 3a f7 10 3f
       -0.12905799 0.30343828 0.9787844 0.5662724
0003a0 ba 65 25 bd ac 9b f3 3d f6 41 72 3e d7 7f 1e bc
       -0.040380217 0.118949264 0.23657975 -0.009674034
0003b0 21 aa 8d 3c 3f 1b 28 be ac 7e 73 3e dc 9a 2e bd
       0.017293038 -0.16416644 0.2377879 -0.042628154
0003c0 89 fb 79 3e 25 8c 0a 3d 4c 7b 73 be aa ff 96 bf
       0.2441236 0.03382506 -0.23777503 -1.1796772
0003d0 36 5e f8 3e 0a c6 94 be 4b b1 10 bf 54 b9 91 bf
       0.48509377 -0.29057342 -0.5652053 -1.1384683
0003e0 4c 51 6b be 91 b5 f0 3d 2e a8 d6 bf 29 63 0e bf
       -0.22980231 0.11753381 -1.6770074 -0.55620056
0003f0 ff 82 6c 3e f6 eb d2 bd f4 e2 ea 3e 31 83 e6 be
       0.23096846 -0.10298912 0.45876276 -0.45021966

bias_ih_l0 f4 [128]
000000 3a eb e8 bd 15 48 48 3c 7b a6 b7 bd 00 3c 25 be
       -0.11372991 0.012224217 -0.089673005 -0.1613617
000010 96 32 1c 3e 1d d9 85 3e b3 35 7a 3e a4 3d df 3b
       0.15253672 0.26142207 0.24434547 0.006812768
000020 b9 b5 ce be 08 f6 9f be 52 f3 b1 be 91 dc a3 bd
       -0.40373018 -0.31242394 -0.3475595 -0.08001054
000030 e9 f4 08 3c cc 11 87 3e 94 cd 0c 3f 9a bf e2 3d
       0.008359172 0.26380765 0.5500119 0.11071701
000040 96 3b 59 3d 89 82 b2 bd 48 3d cb be 89 68 66 be
       0.05303534 -0.08716304 -0.3969519 -0.22500814
000050 5a b6 ad bc f9 8d 3b be d3 3a 40 be c9 65 35 3e
       -0.021205116 -0.18315877 -0.1877244 0.17714609
000060 33 b1 c8 be e0 47 5a be 10 95 c9 3e f0 85 d5 be
       -0.39197692 -0.2131648 0.39371538 -0.4170375
000070 0d 23 51 3e d0 0a 5c bd 0a 35 36 3f 06 ed d4 be
       0.20423527 -0.05372125 0.7117468 -0.41587085
000080 f9 af 78 3e 07 5c b1 3d 38 6a 2e 3e 74 10 0c be
       0.24285878 0.08660131 0.17032707 -0.13678151
000090 5d 5d 62 3e 1e 3a 0a 3f 8d a5 de bc 2e c3 65 3e
       0.22105928 0.5399493 -0.02717855 0.22437736
0000a0 6c f4 5a 3e 7d e6 21 3d 20 a8 86 3e cc 75 34 3e
       0.21382302 0.03952645 0.26300144 0.17623061
0000b0 13 04 74 be e0 5e 71 3e da 63 76 3e e3 58 0f bc
       -0.23829679 0.23571348 0.24061528 -0.00874922
0000c0 db 99 71 3d 87 c1 a6 3e e1 d9 13 bf d7 66 ac 3b
       0.05898462 0.32569525 -0.5775433 0.005261283
0000d0 d3 a6 98 bd 10 ad 8c 3e 52 4d dc 3d 60 a4 15 3e
       -0.07453694 0.27475786 0.10756935 0.14613485
0000e0 51 32 25 3e 6f f1 b1 be b8 69 e9 bd 26 7d a9 3d
       0.16132475 -0.34754512 -0.113971174 0.08275823
0000f0 8d cd b9 3d c4 e4 64 3e 86 8a 77 bd dc b4 9b 3d
       0.09072409 0.22352892 -0.06043484 0.076028556
000100 e2 9d f1 bd f0 26 f7 bd 2a 67 c5 3d de 56 9f bd
       -0.11797692 -0.120679736 0.096388176 -0.077802405
000110 50 df 87 be 87 91 29 be bf 16 6b 3e d4 14 19 be
       -0.2653756 -0.1655942 0.22957896 -0.14949352
000120 ac a5 30 3d a5 50 b8 3d 4d 57 9e 3d 2d f1 1f be
       0.043126747 0.08999757 0.07731495 -0.15619345
000130 34 f4 63 bd e4 34 5a 3e 4a dc ac be 09 f9 75 bd
       -0.055652812 0.21309239 -0.33761817 -0.06005195
000140 19 5f d0 bd 55 5e 1a 3d ac 70 1b 3f df a0 ca 3d
       -0.101743884 0.03768762 0.607188 0.09893965
000150 46 07 82 be c6 d3 51 be 91 f1 a2 3e d9 ba 80 3e
       -0.25396174 -0.20490941 0.31824926 0.25142553
000160 10 92 36 bd 67 ab b0 be 87 43 91 3e c2 a2 9c 3e
       -0.04457289 -0.3450577 0.28371832 0.30592924
000170 c6 a1 ad bc e3 79 3a bd 9f aa 19 3e b6 00 d9 ba
       -0.021195304 -0.045526396 0.15006493 -0.0016555998
000180 53 18 39 3e af 42 27 3d e0 f0 17 3e 5c f2 0a 3d
       0.18075685 0.04083508 0.1483798 0.03392254
000190 3c f7 e6 3e 81 b0 4d 3e ed d2 98 3d 19 5f c4 3e
       0.451105 0.20086862 0.07462106 0.38353804
0001a0 31 bf 15 3e 42 a7 fb 3d 48 d5 e0 3d 26 21 d4 3c
       0.14623715 0.12287761 0.1097818 0.025894713
0001b0 ef d0 7d 3e 05 45 18 3e 53 c4 2a 3f 63 fd f8 bc
       0.24786733 0.14870079 0.66705817 -0.030394262
0001c0 8e a2 56 3e f1 34 bb 3e 60 f6 5e be 58 71 9c 3e
       0.20960447 0.3656383 -0.21773672 0.30555224
0001d0 9e 6b 31 3e 72 e4 85 bd 52 2e 87 3b 24 59 d3 bd
       0.17326209 -0.06537713 0.004125395 -0.103197366
0001e0 55 bd 5c be 8e 23 06 be ac 86 ae 3e 48 fe 39 3d
       -0.215566 -0.130995 0.3408712 0.045408517
0001f0 de df 01 3e 0e e9 57 3e 58 85 b5 bd 4a df 14 3d
       0.12683055 0.21084997 -0.08863324 0.036345758

bias_hh_l0 f4 [128]
000000 c5 b7 9a 3c 82 46 b6 bd e7 c5 54 be c2 e6 69 be
       0.018886456 -0.08900167 -0.20778619 -0.22841933
000010 da a5 b2 3e e9 b1 5d 3e ed b4 62 3e 5a 74 79 be
       0.3489216 0.21649899 0.2213933 -0.24360791
000020 89 2e 40 be 83 e9 87 be c8 d9 67 bd 4f 3b 09 3d
       -0.18767752 -0.26545343 -0.056604177 0.033503827
000030 7c a1 c5 bd e2 09 0f 3e 69 e3 db 3e 8c 5b 78 3e
       -0.09649941 0.13968614 0.42946938 0.24253672
000040 70 f7 08 3e 4e 68 6f bd 66 6c 8b be 3e 69 11 be
       0.1337564 -0.058449082 -0.2723114 -0.14200303
000050 32 f9 ff 3d 2a 84 40 be bd f3 07 be 5e d2 c2 3e
       0.12498702 -0.18800417 -0.13276573 0.38051122
000060 77 c3 88 be f7 72 33 3b 00 a9 11 3e b4 05 1e bf
       -0.26711628 0.0027381757 0.14224625 -0.6172745
000070 1e 11 ae 3d 1f 6c 80 bc a6 bb 3e 3f 8e 37 39 be
       0.084993586 -0.015676556 0.7450508 -0.18087599
000080 52 cd 69 3e 46 98 e2 3d 37 9b 88 3e 80 1b 28 be
       0.2283223 0.110642 0.2668092 -0.1641674
000090 8a 1a 7f 3d 30 0c 3b 3f 9e e8 79 3e e0 af 01 3e
       0.06228117 0.7306547 0.24405143 0.12664747
0000a0 ba 52 ca 3e 01 6a 0a 3d be d2 a1 3c 14 dd 08 3d
       0.3951624 0.0337925 0.01975381 0.03341396
0000b0 28 9c 0e 3b 20 88 21 3e 81 5e 93 3d 7c 14 fd 3d
       0.0021760557 0.15774584 0.071957596 0.12357423
0000c0 f2 28 46 be 59 ba c1 3e 89 03 03 bf 6b 73 94 bc
       -0.19351557 0.37837484 -0.5117727 -0.018121442
0000d0 ac 2b 7c bb bc 46 15 3f 3c 97 04 3d 23 a7 34 bd
       -0.003847818 0.5831106 0.03237079 -0.044104706
0000e0 f0 90 53 3e 75 21 ea be 3d 4d bb be fc b1 76 bc
       0.20660758 -0.4572865 -0.36582366 -0.015057083
0000f0 6f f0 7e bd fe 22 ec 3e 75 c0 aa 3b 99 74 5b 3e
       -0.062241014 0.46120447 0.005210931 0.21431197
000100 0a 13 d7 bd 59 05 94 be 74 fc 7c 3e 1d bc 26 3d
       -0.10501678 -0.2891033 0.24705678 0.040706743
000110 0d 18 c4 be ce a6 b4 bd 3a 59 9a bb bf 22 5b bc
       -0.382996 -0.08820878 -0.0047103437 -0.013374983
000120 1f b9 fe bd 6c 8a 55 3e c9 6b eb bd 69 60 c9 bd
       -0.12437653 0.20853585 -0.11495168 -0.09832842
000130 da 9e af 3d d3 ed 8c 3d dc 1d 7d be 6f 1b 01 bd
       0.085752204 0.06881299 -0.24718422 -0.031520303
000140 de 3b 4c be 0a b3 40 be a1 ff ab 3e e4 5d 98 3d
       -0.19944713 -0.18818298 0.33593467 0.07439783
000150 de a5 f4 be d9 b5 62 be 9e eb 1a 3e 7d 9c 92 3d
       -0.47782797 -0.22139682 0.15128943 0.07158754
000160 26 13 27 3e 95 77 60 be 9c 11 06 3f 30 95 6a 3d
       0.16315898 -0.21920617 0.5237062 0.057271183
000170 1d 38 7c 3d 2b 21 3b 3e 02 31 0b 3d 36 b7 90 bd
       0.06157695 0.18274371 0.033982284 -0.07066195
000180 1e e7 71 3e fe aa 14 3e 34 c7 6c 3e 3b 98 1e 3e
       0.2362332 0.14518353 0.23122865 0.15487759
000190 e2 a6 d4 3e 8d 5e 03 3e 9a 5c a0 3d 13 f5 0f 3e
       0.4153357 0.12829037 0.07830162 0.14058332
0001a0 1d 28 c6 3e 11 53 2e 3e 04 bc 0b 3e e2 4a f3 3d
       0.3870248 0.17023875 0.13645941 0.11879517
0001b0 ce 74 d2 3d 51 a8 8e 3e bb 85 13 3f d4 c3 6a bd
       0.10276185 0.2786279 0.5762593 -0.057315663
0001c0 31 88 2b 3e 34 63 f1 3e c1 14 f9 bd 51 ac da 3c
       0.16751172 0.47145998 -0.121621616 0.026693495
0001d0 9e 3b ee 3d 8e 33 50 3e 69 ff 6c 3e 6f 40 bc 3d
       0.11632465 0.20332167 0.23144306 0.09191977
0001e0 fb 61 3a be c1 4f 5f be 30 46 6a 3e b1 c9 ac 3e
       -0.18201439 -0.21807767 0.22878337 0.33747628
0001f0 eb c9 39 be 8b f7 41 3e 94 c0 00 3e f0 99 88 be
       -0.18143432 0.18942086 0.12573463 -0.26679945

weight f4 [1, 32]
000000 31 e9 5e be 4d 3c 01 3e 7f 71 0d be 27 cd c3 bd
       -0.21768643 0.12620659 -0.13812827 -0.09560614
000010 9f 6e 9e 3e 5d 8a c6 3d 7a f0 9e be fa 48 0a 3e
       0.30943772 0.096943595 -0.31042844 0.13504401
000020 ce 50 d4 bd 18 1d 82 be a5 64 62 3e 22 cd 66 3e
       -0.10366975 -0.25412822 0.22108705 0.2253919
000030 2d 12 47 3e 9c cb d0 bd 3d cc b4 3e 5e 50 a4 bd
       0.19440527 -0.101950854 0.3531207 -0.08023141
000040 cf 36 2a 3e 0c ec 67 3e 0a 98 8b c0 68 bc 09 3c
       0.1662247 0.22648638 -4.3623095 0.008406736
000050 2d 11 6a 3e a8 d2 c7 3d ec 6b e5 be bb f8 3f be
       0.22858115 0.09756976 -0.448089 -0.18747227
000060 77 89 50 3e fa a7 9e 3e da 78 86 be 89 18 85 3a
       0.20364939 0.3098753 -0.26264077 0.0010154407
000070 f1 97 a1 bd 0c ca f5 bd 52 fe 34 be d5 1e 70 be
       -0.07890309 -0.12001428 -0.1767514 -0.23449261
