checkpoints/SH_nn_model.pt (torch, 270359 bytes, 5 tensors)

weight f4 [256, 2]
-0.2626838 -0.4144231 0.026440896 0.009050527 -0.092639334 -0.05355706 -0.5536962 0.11100063
-0.5730715 -0.17108852 0.22914244 -1.85458 0.13176106 0.30565274 0.15144588 0.06668631
0.00801905 0.23558724 -0.88446057 0.19957486 0.08513145 -3.0035276 -0.006606368 -0.6832398
-0.7099745 0.093107745 0.022532437 -0.2376299 0.024114342 -0.40061322 -0.4796193 -0.19295847
0.52110475 -0.75462216 -0.5770424 0.06135182 0.44777632 -0.57543933 -0.38059646 -0.48967028
-0.43472558 -0.1374205 -0.6307168 0.18196833 -0.6493652 -0.014006577 -0.094903275 0.03514486
-0.645977 0.067719445 -0.7930769 0.019371698 -0.083505556 0.032657895 -0.62745106 0.44809088
0.15541998 -0.67894685 -0.21433409 -0.28279817 -0.57403666 0.61167085 -0.06081843 -0.2594962
-0.1690754 -0.42923588 0.5311594 -0.57883 0.0009960969 0.12273882 0.008739976 -0.3626432
-0.5737078 -0.24916145 0.08343595 0.047353577 0.052883785 -0.82311386 -0.5431107 -0.0124074
-0.026055856 -0.3243328 0.029297398 -0.14921428 -0.031355992 -0.2875687 -0.21759845 -0.3444561
-0.3260043 0.39393833 -0.041189373 -0.102377325 -0.053030428 -0.33738536 -0.20249501 -0.33196956
0.47061917 -0.104639895 -0.61115205 0.13199583 0.44425383 -0.26622075 -0.6528075 -0.026567182
0.13637021 -0.20078404 -0.06054069 -0.07198311 -0.09099998 -0.18956108 -0.653734 -0.06590865
0.26202646 -0.10696591 0.25339603 -0.008396468 0.37085187 -0.064148776 -0.79971117 0.018145321
-0.10837439 -0.023765365 -0.6957897 0.14975001 -2.0736647 0.09639314 -0.64739555 -0.00053676777
-1.067093 0.056625847 -0.43015164 0.04788259 0.29763806 -0.3396455 -0.5233462 0.0013656922
0.06357098 -0.10313355 -0.6408917 -0.064402394 0.32963583 -0.5063632 -1.2119489 0.07539436
-1.2403096 0.12253701 0.0066308784 -0.005335986 -0.7751538 -0.017483328 -0.8580661 0.0133277085
0.014163151 -0.29911444 -1.0428325 -0.12487401 -0.2132888 0.06417225 -0.0636105 -0.07947785
0.011942009 -0.0799634 0.11838909 0.19962351 0.05289853 -0.20535286 -0.49369165 0.016056938
-0.6296714 0.46036604 -0.48110437 -0.14024897 0.12659903 -3.7139316 0.44330803 -0.24240588
-0.08588389 -0.16716847 -0.052555628 0.24335907 -0.004220129 0.01530318 -0.71919805 0.038224384
0.042537093 -0.01717285 -0.67536503 -0.58883184 0.032340884 -0.7878626 0.06466303 -5.3014274
-0.19315152 0.008079776 -0.26013634 -0.09042994 0.37662068 -0.40336806 -0.09774426 0.23885511
-0.24253818 0.24082652 0.12613243 -3.7109761 -0.048294432 -0.43637046 -0.10329462 0.024369555
-0.17225379 0.01235627 0.46764153 -0.28941372 -0.109262384 0.005578163 -1.1090201 -0.12922828
-0.515696 -0.12941696 0.15907146 -0.1283 0.24262871 -0.13041168 0.13999802 -0.19029722
-0.14429899 0.06516042 -0.1778461 0.32302597 -0.05458221 -0.076480746 -0.025966324 -0.18432695
-0.12553439 -0.04360277 -0.6798229 -0.64091337 -0.099812485 -0.20165542 -0.47604915 -0.3213107
0.22407652 -2.1639583 0.019390928 -0.04140396 -0.19292164 0.011065571 0.023644885 0.016239706
-0.18720634 -0.2253772 -0.03145796 -0.11121489 0.13552023 0.010251153 0.21090408 -0.08146862
00000000: 7e7e 86be 442f d4be 949a d83c a948 143c
00000010: b1b9 bdbd a65e 5bbd 09bf 0dbf 4c54 e33d
00000020: d0b4 12bf d431 2fbe 51a4 6a3e e162 edbf
00000030: 5fec 063e 847e 9c3e a114 1b3e d592 883d
00000040: 5562 033c c83d 713e 026c 62bf 5a5d 4c3e
00000050: 6659 ae3d cc39 40c0 3b7a d8bb cee8 2ebf
00000060: e4c0 35bf 46af be3d f295 b83c 4155 73be
00000070: 718b c53c 2d1d cdbe a990 f5be e896 45be
00000080: 1f67 053f eb2e 41bf 0db9 13bf 0c4c 7b3d
00000090: f042 e53e fe4f 13bf 8add c2be 10b6 fabe
000000a0: 5a94 debe f6b7 0cbe a876 21bf e855 3a3e
000000b0: cc3c 26bf d87b 65bc a65c c2bd 0ff4 0f3d
000000c0: c05e 25bf 7eb0 8a3d 1607 4bbf 65b1 9e3c
000000d0: f604 abbd 49c4 053d a2a0 20bf 2b6c e53e
000000e0: 6a26 1f3e 76cf 2dbf 657a 5bbe ecca 90be
000000f0: 11f4 12bf 7696 1c3f bf1c 79bd b0dc 84be
00000100: 1a22 2dbe cec4 dbbe 10fa 073f 342e 14bf
00000110: 778f 823a 7e5e fb3d 1e32 0f3c 5fac b9be
00000120: 84de 12bf 2e24 7fbe 78e0 aa3d d3f5 413d
00000130: ab9c 583d 97b7 52bf 4e09 0bbf 6848 4bbc
00000140: 1773 d5bc f30e a6be 1901 f03c a1cb 18be
00000150: 246f 00bd 343c 93be 21d2 5ebe 8d5c b0be
00000160: 09ea a6be 49b2 c93e 30b6 28bd 34ab d1bd
00000170: 6f36 59bd c6bd acbe da5a 4fbe eaf7 a9be
00000180: fff4 f03e 714d d6bd 7674 1cbf ea29 073e
00000190: 3d75 e33e 164e 88be 641e 27bf 6ba3 d9bc
000001a0: a2a4 0b3e 559a 4dbe 84f9 77bd e16b 93bd
000001b0: 335e babd 4d1c 42be 1d5b 27bf 1dfb 86bd
000001c0: 5528 863e f110 dbbd 20bd 813e 5791 09bc
000001d0: 4ce0 bd3e 6f60 83bd dfb9 4cbf 7fa5 943c
000001e0: 64f3 ddbd 95af c2bc 461f 32bf 1158 193e
000001f0: ecb6 04c0 c469 c53d b7bb 25bf e0b5 0cba
00000200: 8196 88bf 81f0 673d d63c dcbe 8920 443d
00000210: 0464 983e 04e6 adbe 04fa 05bf 0701 b33a
00000220: 8131 823d af37 d3bd 7a11 24bf 67e5 83bd
00000230: 07c6 a83e 05a1 01bf 2421 9bbf 5c68 9a3d
00000240: 77c2 9ebf aff4 fa3d d747 d93b 7fd9 aebb
00000250: 7b70 46bf 3239 8fbc 38aa 5bbf 765c 5a3c
00000260: 900c 683c 8725 99be 897b 85bf f2bd ffbd
00000270: 6168 5abe be6c 833d 3946 82bd 48c5 a2bd
00000280: 6ba8 433c dac3 a3bd fb75 f23d 1b6a 4c3e
00000290: 21ac 583d 0548 52be 27c5 fcbe d789 833c
000002a0: 2532 21bf 19b5 eb3e 5053 f6be 6d9d 0fbe
000002b0: 2da3 013e 0eb1 6dc0 45f9 e23e 3f39 78be
000002c0: e5e3 afbd 362e 2bbe 9244 57bd 1f33 793e
000002d0: 0249 8abb 30ba 7a3c 5d1d 38bf 2c91 1c3d
000002e0: 603b 2e3d 14ae 8cbc b9e4 2cbf afbd 16bf
000002f0: e077 043d 5db1 49bf 0d6e 843d 4ba5 a9c0
00000300: 83c9 45be 0961 043c 9730 85be 5533 b9bd
00000310: 6dd4 c03e 4286 cebe 252e c8bd 6f96 743e
00000320: ee5b 78be 3a9b 763e dc28 013e a280 6dc0
00000330: 62d0 45bd f36b dfbe 218c d3bd a9a2 c73c
00000340: 4c63 30be f471 4a3c b66e ef3e 092e 94be
00000350: f5c4 dfbd 06c9 b63b 5ff4 8dbf 6b54 04be
00000360: a704 04bf e185 04be a1e3 223e 1361 03be
00000370: a973 783e a48a 05be a45b 0f3e 46dd 42be
00000380: 1dc3 13be d472 853d 4a1d 36be a963 a53e
00000390: 9891 5fbd f0a1 9cbd 54b7 d4bc 34c0 3cbe
000003a0: 168c 00be d198 32bd e008 2ebf e612 24bf
000003b0: 7d6a ccbd c27e 4ebe b7bc f3be d682 a4be
000003c0: 5174 653e 4b7e 0ac0 b9d9 9e3c 3397 29bd
000003d0: 408d 45be 5e4c 353c ebb2 c13c 2209 853c
000003e0: 05b3 3fbe 48c9 66be 10da 00bd a2c4 e3bd
000003f0: d1c5 0a3e 74f4 273c 3df7 573e 05d9 a6bd

bias f4 [256]
0.32753924 -1.6033382 0.011361324 -1.0601363 0.17030314 -0.75556684 -0.75687164 -1.145752
-1.0067917 -1.195405 -0.4989238 -0.15907584 1.4369539 -0.52196366 -0.56130064 0.28970322
0.45582137 1.3114792 1.4245744 0.4762732 0.049351733 -0.29356432 -0.114776656 -0.6647066
1.514274 -0.17825422 1.0802158 -0.64895344 0.2704828 -0.4940091 1.1432538 0.0038078867
0.8794725 -2.3123336 -1.967707 -0.21990757 0.9339069 -2.6437542 -1.2384189 0.06770527
-0.50588465 -0.6759807 -0.08299945 0.2727424 -2.1349804 0.00514438 -0.041357268 0.25931716
-1.3252283 -1.204215 -1.3557948 -0.64402264 1.50822 0.879331 0.42520443 -0.133312
-2.5948627 -1.2807785 -1.217794 0.8070663 1.3130944 -1.3555825 -0.27674648 -0.032174494
-0.23937683 0.9290936 1.6594584 0.061882116 1.6344441 0.63807976 -1.02496 -0.38272813
-0.22120684 -0.7549781 0.62084013 -0.07171979 -0.4466811 0.33168504 -1.128311 1.3173454
-0.27558714 -1.0807488 -1.2373198 -0.5362666 -0.03226211 0.13816416 0.2385897 -2.0298388
-0.4781146 -1.3176484 -0.58066267 0.37984088 -1.2444309 -0.07371551 -0.7512995 -0.4308504
-0.112837896 -0.23144731 1.5698771 -1.6946695 1.2871981 0.1879885 1.2217296 -0.6327844
-0.2732521 -1.1810069 -0.10069597 0.35794562 -0.14784238 -1.7129946 -1.445199 1.2552862
-1.1791736 -1.0488329 1.455232 1.041543 -0.32407504 -0.7021353 0.41647384 -0.4624477
-0.024398044 -0.44592616 -0.5932566 -1.3578575 0.79025114 1.141691 -0.9285642 -1.6636447
-0.6035362 -1.1162417 -1.2863067 0.39566946 1.066374 1.2982928 -0.47788 -0.9512921
0.2984114 0.7487942 -0.10377754 -0.5440152 -1.7224369 -2.5426333 0.19917567 -0.51461
1.3586392 1.0940337 -1.6167908 -1.0837138 -0.72016305 -1.2197549 -0.5286287 -0.63187456
-0.9504824 -0.86351264 -0.16335334 -1.7830127 -1.208718 1.3801019 -0.5925 -0.3895132
1.210208 -1.3326622 -1.634743 -0.22345883 -1.0869875 1.6483023 0.98432666 -1.2897319
0.84473485 1.3546771 -1.1682901 0.29499564 0.9838358 -0.68206596 -0.784164 -0.67451936
-1.1725657 -0.64858294 -0.57866096 0.7576865 1.0296535 -0.3595722 -1.2124773 1.4009227
0.17413884 -0.37049195 0.5613215 -0.104093105 -0.112492144 1.0813105 0.6007757 -0.7471132
-0.3475182 0.32705277 -1.0982941 1.5382272 1.3104858 -0.8176537 -0.36153102 -0.6368072
1.1628261 -0.242592 -0.6616317 0.3970217 -0.06652856 -1.0208622 -0.47916737 1.2652688
0.6126399 -0.37767175 0.071934305 0.078612365 0.69176453 1.1223056 0.40550008 -1.5724002
0.012818267 -2.3519495 0.5406576 -0.8161754 0.55536294 0.88830113 0.2492315 0.12446442
0.51964355 1.2961046 -1.3004944 -0.930871 1.5858617 -1.7281183 1.7035818 1.1960559
-0.18338953 0.35313854 -0.7965926 -0.14629681 0.3746744 1.847879 0.2766063 -1.8894565
0.7345025 -1.2048681 -0.34970275 -0.39968848 0.61948955 -0.092249066 -1.1745962 0.72152996
-0.19938248 0.34025452 0.693319 -0.47420532 -0.27521735 0.44088444 -1.3394629 0.4550561
00000000: 39b3 a73e 303a cdbf d924 3a3c 8cb2 87bf
00000010: f263 2e3e d46c 41bf 57c2 41bf 00a8 92bf
00000020: 8dde 80bf 0803 99bf f172 ffbe c7e4 22be
00000030: 1bee b73f 699f 05bf 66b1 0fbf fb53 943e
00000040: 6b61 e93e 8dde a73f 7458 b63f 15da f33e
00000050: 0b25 4a3d 104e 96be 0610 ebbd 362a 2abf
00000060: bbd3 c13f 4688 36be 8344 8a3f d021 26bf
00000070: b97c 8a3e c3ee fcbe 2456 923f bd8d 793b
00000080: 1c25 613f 46fd 13c0 d3dd fbbf 732f 61be
00000090: 8614 6f3f 4533 29c0 8384 9ebf 10a9 8a3d
000000a0: a881 01bf 120d 2dbf 9efb a9bd e4a4 8b3e
000000b0: 85a3 08c0 3092 a83b 3d66 29bd 38c5 843e
000000c0: 15a1 a9bf b823 9abf af8a adbf abde 24bf
000000d0: 5a0d c13f d61b 613f 65b4 d93e f182 08be
000000e0: 3b12 26c0 8df0 a3bf ace0 9bbf e69b 4e3f
000000f0: 7a13 a83f ba83 adbf b7b1 8dbe 67c9 03bd
00000100: 331f 75be 14d9 6d3f 2269 d43f 1a78 7d3d
00000110: 7735 d13f 3259 233f e431 83bf f1f4 c3be
00000120: 0c84 62be 3f46 41bf 61ef 1e3f d3e1 92bd
00000130: 63b3 e4be 9fd2 a93e 7f6c 90bf c69e a83f
00000140: c219 8dbe fa55 8abf 7f60 9ebf c548 09bf
00000150: 4625 04bd e87a 0d3e dc50 743e e1e8 01c0
00000160: 70cb f4be b4a8 a8bf 4fa6 14bf 817a c23e
00000170: 8349 9fbf 28f8 96bd 2a55 40bf 6c98 dcbe
00000180: 8e17 e7bd 8600 6dbe bcf1 c83f eeea d8bf
00000190: e8c2 a43f 0f80 403e a361 9c3f 29fe 21bf
000001a0: b3e7 8bbe 3c2b 97bf b039 cebd a644 b73e
000001b0: fe63 17be 6843 dbbf 48fc b8bf 38ad a03f
000001c0: 29ef 96bf 2840 86bf 0b45 ba3f 4851 853f
000001d0: 2aed a5be 24bf 33bf 0f3c d53e f2c5 ecbe
000001e0: 68de c7bc 6f50 e4be aadf 17bf 46ce adbf
000001f0: e64d 4a3f ee22 923f 62b6 6dbf 4ff2 d4bf
00000200: 5981 1abf 02e1 8ebf b3a5 a4bf 3095 ca3e
00000210: f17e 883f 752e a63f b0ac f4be e187 73bf
00000220: 61c9 983e fab0 3f3f 5289 d4bd 9544 0bbf
00000230: d078 dcbf 81ba 22c0 b5f4 4b3e 7bbd 03bf
00000240: e4e7 ad3f 4c09 8c3f 00f3 cebf 22b7 8abf
00000250: 9b5c 38bf ee20 9cbf 3654 07bf 88c2 21bf
00000260: d152 73bf 2a0f 5dbf 1946 27be c339 e4bf
00000270: 45b7 9abf 2ea7 b03f 14ae 17bf 466e c7be
00000280: 19e8 9a3f ad94 aabf 423f d1bf 64d2 64be
00000290: 6822 8bbf 92fb d23f d5fc 7b3f ef15 a5bf
000002a0: 8b40 583f 0f66 ad3f 888a 95bf ab09 973e
000002b0: aadc 7b3f e09b 2ebf f9be 48bf 4dad 2cbf
000002c0: a216 96bf 8809 26bf 2023 14bf bef7 413f
000002d0: b0cb 833f d919 b8be 7532 9bbf 6f51 b33f
000002e0: 7451 323e 1fb1 bdbe c4b2 0f3f c42e d5bd
000002f0: 4862 e6bd 6268 8a3f 70cc 193f d042 3fbf
00000300: e8ed b1be 7673 a73e e794 8cbf a1e4 c43f
00000310: 00be a73f c151 51bf 981a b9be cc05 23bf
00000320: 7cd7 943f 0a6a 78be b260 29bf 6e46 cb3e
00000330: 2040 88bd 9dab 82bf 6d55 f5be 54f4 a13f
00000340: f8d5 1c3f 315e c1be 4b52 933d 85ff a03d
00000350: 7b17 313f b6a7 8f3f b59d cf3e 6944 c9bf
00000360: b503 523c 5786 16c0 8968 0a3f dff0 50bf
00000370: 442c 0e3f b467 633f 8b36 7f3e 34e7 fe3d
00000380: 5c07 053f c1e6 a53f 9a76 a6bf 904d 6ebf
00000390: 84fd ca3f fb32 ddbf f80e da3f 5c18 993f
000003a0: 77ca 3bbe 93ce b43e 7eed 4bbf d5ce 15be
000003b0: 53d5 bf3e 4d87 ec3f 579f 8d3e b6d9 f1bf
000003c0: 5b08 3c3f 1e39 9abf 3d0c b3be f8a3 ccbe
000003d0: de96 1e3f 14ed bcbd 2b59 96bf 30b6 383f
000003e0: ec2a 4cbe d735 ae3e 5b7d 313f 0acb f2be
000003f0: 4ae9 8cbe 9bbb e13e 8573 abbf 1dfd e83e

weight f4 [256, 256]
-0.050049964 -0.021259354 -0.0653004 0.041258954 0.030736336 -0.056007322 0.05541012 0.036956124
0.009819553 -0.051889922 -0.049752865 -0.037645385 -0.028903369 -0.06521168 -0.02839574 0.03761439
0.047224406 -0.027486272 0.008333573 -0.0398942 -0.008742206 -0.0008595665 -0.029202834 0.034070823
-0.022237854 0.012353678 -0.06880502 -0.03562621 0.05218491 -0.013556898 0.028225891 -0.006095713
0.03850716 0.053026862 -0.047815345 -0.034687243 -0.010885686 0.024859102 -0.053920522 -0.038720004
-0.06014993 -0.04435353 -0.021672346 0.0071120877 -0.019528229 -0.038305953 0.040201157 -0.06391245
0.0106030265 0.019532751 -0.053620867 -0.025601223 -0.032670327 -0.027781097 5.9258786e-05 0.04292772
-0.04216337 -0.02839631 0.025172958 -0.058860272 0.006717448 -0.03569744 0.011000314 0.0017633267
0.038161404 -0.042647567 0.0076654954 -0.05588192 0.010640349 0.06073817 -0.028652593 0.03962019
-0.0052878466 0.026711678 0.023667745 -0.03334458 -0.058098093 -0.00931108 0.03805529 0.042553518
0.019264955 -0.013229507 0.021613495 0.048355184 -0.050710253 -0.005670552 0.06721534 -0.028173797
-0.0020427182 0.040457897 -0.06569559 0.0064745117 -0.021719746 -0.040697157 -0.040590055 0.052150715
-0.049491454 0.042841434 2.2276889e-05 0.042384576 -0.02118025 -0.033479597 -0.0043979245 -0.035134085
-0.02434751 0.031074986 -0.003842344 -0.009485982 -0.04310906 0.024529226 -0.0152503075 0.04696779
0.032921057 0.00910692 0.046543725 -0.051170353 0.011565797 0.053608306 -0.0046102814 0.06193824
0.035403516 0.037773907 0.008566283 0.010597491 -0.018271005 0.0015645638 0.0066402582 -0.020799184
-0.0033388212 -0.0059613287 0.048223544 -0.054975882 -0.039248146 0.007082738 0.01613643 -0.020184344
0.061779544 -0.034029137 -0.022406157 0.021753663 -0.06449563 0.033795457 -0.047635887 -0.05497824
0.060490977 0.038234115 -0.014591193 0.0262794 -0.023151709 -0.05502209 -0.0545741 -0.0051233754
0.028328419 0.013875938 0.03461378 7.342695e-05 -0.044189036 -0.061017647 -0.04847143 -0.02561025
-0.01965258 -0.03666806 0.0050599785 0.026381252 -0.038705636 -0.055274095 -0.04713642 -0.0391092
-0.01852705 -0.041812334 0.045542557 -0.017284358 0.015965158 -0.06424574 -0.062761486 -0.029365005
-0.042751864 -0.024554431 -0.023918368 0.024146028 -0.06551142 0.0059659854 0.014906416 -0.03293133
0.04597701 -0.01275564 -0.051299535 0.056544088 -0.0037272342 -0.03853764 0.0007352531 0.053460147
0.030977018 -0.061892033 0.03665697 -0.060698893 0.036848627 0.02195761 -0.038903255 0.050784886
-0.028175397 0.03810154 0.054742277 -0.050618775 0.013776725 -0.063136786 -0.04685762 0.011157073
-0.0571637 0.04980658 0.03168575 0.01634258 0.041870758 -0.020581832 -0.027123572 -0.033783462
-0.01994008 0.023100093 0.009763248 0.0071713454 -0.0036289725 -0.030516796 -0.045578234 0.009481429
-0.0068642437 -0.043073017 0.04826588 0.037894607 0.05451952 0.017516488 -0.045783248 -0.031943113
0.04974699 0.0041939835 0.02993614 -0.041839555 -0.0022206232 -0.008795175 0.022093661 0.0046466426
-0.052975893 0.023168236 0.053730946 -0.047099024 0.033442922 -0.053058907 -0.003933454 0.0040877988
0.023751438 0.015084095 0.011039893 0.03480977 -0.024533242 0.02564729 -0.012335351 -0.0071272776
00000000: 3101 4dbd 1928 aebc 37bc 85bd 26ff 283d
00000010: c5ca fb3c ef67 65bd b9f5 623d 4e5f 173d
00000020: 31e2 203c 878a 54bd a9c9 4bbd 0c32 1abd
00000030: c2c6 ecbc b48d 85bd 2f9e e8bc 8c11 1a3d
00000040: 616e 413d e42a e1bc 8a89 083c 1a68 23bd
00000050: 783b 0fbc 8854 61ba c83a efbc d98d 0b3d
00000060: 292c b6bc 1567 4a3c a5e9 8cbd caec 11bd
00000070: d8bf 553d c01d 5ebc fc39 e73c 8cbe c7bb
00000080: afb9 1d3d b232 593d 06da 43bd 3614 0ebd
00000090: e059 32bc 51a5 cb3c c4db 5cbd de98 1ebd
000000a0: c65f 76bd 0cac 35bd 348a b1bc 840c e93b
000000b0: aaf9 9fbc b4e6 1cbd f8a9 243d 88e4 82bd
000000c0: 51b8 2d3c 2603 a03c 8ea1 5bbd a8b9 d1bc
000000d0: 52d1 05bd 2f95 e3bc a38c 7838 fad4 2f3d
000000e0: 7fb3 2cbd 619f e8bc 8537 ce3c 7817 71bd
000000f0: 0a1e dc3b 7b37 12bd a93a 343c 6d1f e73a
00000100: 224f 1c3d 37af 2ebd d62e fb3b 71e4 64bd
00000110: dc54 2e3c 96c8 783d d8b8 eabc c848 223d
00000120: ac45 adbb 73d2 da3c dce2 c13c 5494 08bd
00000130: 44f8 6dbd 808d 18bc dddf 1b3d 994c 2e3d
00000140: 8ad1 9d3c 93c0 58bc c90e b13c 1610 463d
00000150: 8eb5 4fbd 0ad0 b9bb 32a8 893d bccc e6bc
00000160: 20df 05bb 2eb7 253d 698b 86bd 2428 d43b
00000170: 9ced b1bc 10b2 26bd c241 26bd fd9b 553d
00000180: 8db7 4abd 807a 2f3d 41df ba37 739b 2d3d
00000190: 3482 adbc e721 09bd 771c 90bb c2e8 0fbd
000001a0: 6e74 c7bc f890 fe3c d6cf 7bbb 186b 1bbc
000001b0: 2093 30bd 84f1 c83c 6ddc 79bc 4c61 403d
000001c0: 3bd8 063d 3135 153c a2a4 3e3d 0198 51bd
000001d0: 787e 3d3c 6294 5b3d d811 97bb f4b2 7d3d
000001e0: 4703 113d d0b8 1a3d 9859 0c3c 19a1 2d3c
000001f0: 13ad 95bc 0d12 cd3a 8696 d93b 0d63 aabc
00000200: 20d0 5abb 4057 c3bb 0d86 453d 642e 61bd
00000210: aac2 20bd 5016 e83b 8c30 843c a359 a5bc
00000220: 8c0c 7d3d 2362 0bbd 1e8d b7bc bd34 b23c
00000230: 4916 84bd 1b6d 0a3d d91d 43bd dd30 61bd
00000240: 63c5 773d 609b 1c3d e60f 6fbc e547 d73c
00000250: a7a8 bdbc d85e 61bd 1789 5fbd fde1 a7bb
00000260: 0011 e83c e757 633c 2ec7 0d3d cbfc 9938
00000270: 90ff 34bd a4ed 79bd fa89 46bd 96cc d1bc
00000280: 73fe a0bc 3f31 16bd 2dce a53b 7f1d d83c
00000290: cd89 1ebd 1767 62bd 1e12 41bd f830 20bd
000002a0: 0ac6 97bc 6943 2bbd d58a 3a3d ed97 8dbc
000002b0: 5dc9 823c 4593 83bd 1889 80bd e18e f0bc
000002c0: 941c 2fbd 6026 c9bc 74f0 c3bc e4cd c53c
000002d0: da2a 86bd 507e c33b 0a3a 743c 01e3 06bd
000002e0: 6452 3c3d 08fd 50bc 761f 52bd c69a 673d
000002f0: 9d44 74bb a5d9 1dbd 00be 403a 07f9 5a3d
00000300: 84c3 fd3c 8082 7dbd 9e25 163d 679f 78bd
00000310: 96ee 163d 72e0 b33c 0559 1fbd d003 503d
00000320: 17d0 e6bc 5c10 1c3d 7039 603d a255 4fbd
00000330: c6b7 613c dc4d 81bd c7ed 3fbd 28cc 363c
00000340: 7c24 6abd fc01 4c3d ebc8 013d e0e0 853c
00000350: ac80 2b3d 3b9b a8bc 4132 debc 8760 0abd
00000360: 6159 a3bc 683c bd3c 08f6 1f3c 9bfd ea3b
00000370: 0ed4 6dbb 5cfe f9bc 3eb0 3abd ff57 1b3c
00000380: 73ed e0bb 556d 30bd 72b2 453d 6037 1b3d
00000390: dc4f 5f3d bd7e 8f3c 3787 3bbd c8d6 02bd
000003a0: 80c3 4b3d af6d 893b a33c f53c f45f 2bbd
000003b0: e087 11bb a319 10bc c4fd b43c dd42 983b
000003c0: 40fd 58bd 50cb bd3c fb14 5c3d e8ea 40bd
000003d0: 72fb 083d 4c54 59bd 34e4 80bb f1f2 853b
000003e0: 6092 c23c 4823 773c abe0 343c b094 0e3d
000003f0: f0f9 c8bc 441a d23c 361a 4abc f08b e9bb

bias f4 [256]
0.033794403 0.0001853239 -0.052128065 0.058587693 -0.05834158 -0.04256407 0.015194083 0.05914673
-0.016552022 -0.031204121 -0.025719473 -0.19514784 0.0034024995 -0.14678504 0.014050947 -0.013541074
-0.020454662 -0.076028 0.019872194 0.033557933 -0.015112226 0.027078733 0.03067532 -0.06853242
-0.031070244 -0.045483857 -0.017264102 -0.20919402 -0.123408966 -0.02180636 -0.027353302 -0.016362859
0.025892485 0.02152773 -0.01162586 0.026236432 -0.0454564 -0.04994611 -0.07041001 -0.014439486
-0.059554253 -0.063114755 0.036857083 -0.0032482378 -0.02558315 -0.02323166 -0.06616737 -0.012790522
-0.20635667 -0.04886317 0.050718043 0.06740644 0.04145945 -0.0044399127 -0.011405673 -0.0584286
-0.05461125 -0.057158016 0.021533435 0.004728517 -0.116383746 -0.068410106 -0.049020562 -0.24608709
-0.039636046 -0.13076812 -0.020479223 -0.027410937 0.046125103 -0.07892882 -0.06643223 -0.1925433
-0.17134045 -0.058721907 -0.1531825 0.017234176 -0.054168258 0.04164919 -0.052283067 -0.009924014
0.024117034 0.051192332 -0.06189803 -0.004358216 -0.0758344 0.0016942419 -1.9268048 -0.021553723
-0.0100967195 -0.034974992 -0.067247786 0.03253404 0.05435785 -0.041338343 0.044689387 -0.019836934
0.0344919 0.047057 -0.02404887 -0.055182964 -0.12503119 0.048171397 -0.046510927 -0.022992305
-0.020520888 -0.3124334 0.037072256 -0.09167369 -0.043164123 0.054120585 -0.0887649 -0.045890138
-0.031015012 0.39759454 -0.06295216 -0.093527436 0.02996533 0.021783903 -0.039443906 0.048767254
0.0103092 -0.31967214 -0.035533797 -0.19203736 0.016203506 -0.022396399 0.032402318 -0.07218378
0.0213291 -0.05603875 -0.06960398 0.012578751 -0.026398843 -0.10155829 -0.035449307 -0.027847499
-0.6961551 -0.19528154 -0.021518778 -0.022822168 -0.17368338 -0.059891883 0.0152712185 0.053421192
0.0032112126 -0.03484266 -0.07458174 -0.014928709 -0.051314406 0.03053837 -0.0422252 0.08935555
0.015121039 -0.011089218 -0.120654844 -0.2539259 -0.00029394866 -0.06587022 0.03375329 -0.034016542
0.010183778 0.0073281988 -0.0074467286 0.0065387595 -0.062572934 -0.07704826 0.050331473 0.009564275
-0.025943553 0.0063111223 -0.054357503 0.04080745 -0.016571801 0.10704978 2.7899216e-05 -0.06849581
-0.050021026 -0.03831593 -0.0014866941 0.050049394 -0.1784057 -0.012599682 -0.040820166 0.013027672
0.013945652 0.059842736 -0.036185086 0.0476514 -0.06182686 -0.16415332 -0.033743434 -0.018047597
-0.08035208 -0.016259471 -0.028941134 0.01300694 0.0039585163 0.0010421803 0.0069145416 -0.013186661
-0.0066795372 0.07099591 -0.02185936 -0.2449229 -0.0007576124 -0.01502692 -0.11442965 -0.03893014
-0.09574155 0.039351843 -0.043861017 0.024940386 -0.063127615 -0.08194457 -0.019884357 -0.20863222
-0.09007132 0.048409272 0.018922687 0.04249925 -0.015185016 0.036117107 -0.024201933 -0.09322493
-0.05021382 -0.029667107 0.015523092 0.19021125 -0.06433997 0.03354708 -0.09499332 -0.0043159546
-0.005652467 -0.061170403 -0.30939972 -0.027437823 0.06053923 -0.07919619 0.02460529 -0.090781644
-0.03537199 -0.046674367 -0.059378102 -0.07671483 -0.085324705 0.03527756 0.018954255 0.06061165
-0.21091709 -0.04575697 -0.045904536 -0.19280697 -0.038119104 -0.062054522 -0.08927721 -0.042268712
00000000: 006c 0a3d 8153 4239 3d84 55bd a6f9 6f3d
00000010: 95f7 6ebd aa57 2ebd 9af0 783c d743 723d
00000020: 1b98 87bc c99f ffbc a5b1 d2bc d6d4 47be
00000030: 78fc 5e3b d14e 16be f135 663c 61db 5dbc
00000040: 8990 a7bc 91b4 9bbd 03cb a23c 0b74 093d
00000050: 4599 77bc 38d4 dd3c cf4a fb3c ba5a 8cbd
00000060: 0687 febc 484d 3abd 726d 8dbc f536 56be
00000070: d7bd fcbd 40a3 b2bc 0814 e0bc 670b 86bc
00000080: 7a1c d43c ec5a b03c 647a 3ebc c9ed d63c
00000090: 7d30 3abd 4b94 4cbd 2033 90bd 9893 6cbc
000000a0: 29ef 73bd 4f42 81bd 74f7 163d 63e0 54bb
000000b0: c193 d1bc 5250 bebc c282 87bd 568f 51bc
000000c0: 2a4f 53be bf24 48bd b9bd 4f3d 630c 8a3d
000000d0: 62d1 293d b07c 91bb dcde 3abc d452 6fbd
000000e0: 0cb0 5fbd 861e 6abd e366 b03c adf1 9a3b
000000f0: 9a5a eebd 991a 8cbd c9c9 48bd 41fe 7bbe
00000100: 6859 22bd 14e8 05be 0bc4 a7bc e78c e0bc
00000110: aded 3c3d 6fa5 a1bd 9f0d 88bd 122a 45be
00000120: df73 2fbe 6286 70bd e0db 1cbe b02e 8d3c
00000130: 89df 5dbd 5798 2a3d c526 56bd 5598 22bc
00000140: 1691 c53c 0daf 513d ca88 7dbd 5ecf 8ebb
00000150: 114f 9bbd 5311 de3a 8aa1 f6bf 6f91 b0bc
00000160: b66c 25bc f041 0fbd 35b9 89bd 6a42 053d
00000170: 56a6 5e3d 6552 29bd 380c 373d 1181 a2bc
00000180: 6147 0d3d d7be 403d 2302 c5bc 8807 62bd
00000190: 2d08 00be 5f4f 453d 3e82 3ebd 5c5a bcbc
000001a0: 6c1b a8bc 45f7 9fbe 14d9 173d 6abf bbbd
000001b0: ddcc 30bd 8cad 5d3d 5fca b5bd 4cf7 3bbd
000001c0: 3213 febc 8391 cb3e 10ed 80bd 508b bfbd
000001d0: da79 f53c 2874 b23c ef8f 21bd 2cc0 473d
000001e0: ebe7 283c 11ac a3be e38b 11bd 71a5 44be
000001f0: 37bd 843c a778 b7bc 4bb8 043d 17d5 93bd
00000200: 5dba ae3c e388 65bd 888c 8ebd 1b17 4e3c
00000210: 6342 d8bc cbfd cfbd 4b33 11bd 7020 e4bc
00000220: 3837 32bf e2f7 47be 2648 b0bc 8ef5 babc
00000230: 0eda 31be 3151 75bd 2234 7a3c 2ed0 5a3d
00000240: 3573 523b 2db7 0ebd 50be 98bd 8b97 74bc
00000250: 0e2f 52bd 9b2b fa3c 55f4 2cbd 0b00 b73d
00000260: 3cbe 773c 8daf 35bc e319 f7bd 9302 82be
00000270: 1f1d 9ab9 f7e6 86bd e440 0a3d ee54 0bbd
00000280: dcd9 263c 6321 f03b b003 f4bb 1743 d63b
00000290: 3d26 80bd 7acb 9dbd 6028 4e3d 7ab3 1c3c
000002a0: 9387 d4bc 88cd ce3b f9a5 5ebd b625 273d
000002b0: 96c1 87bc ea3c db3d 1c09 ea37 8847 8cbd
000002c0: d9e2 4cbd 2af1 1cbd 2ddd c2ba 9800 4d3d
000002d0: fcaf 36be e66e 4ebc 0c33 27bd 0472 553c
000002e0: 4e7c 643c a81d 753d d036 14bd 1d2e 433d
000002f0: 293e 7dbd cf17 28be 8e36 0abd 8ed8 93bc
00000300: a28f a4bd 9532 85bc f515 edbc 0f1b 553c
00000310: 71b6 813b c599 883a 6193 e23b dd0c 58bc
00000320: 05e0 dabb 4e66 913d 6712 b3bc 12cd 7abe
00000330: 829a 46ba 7833 76bc 185a eabd 3675 1fbd
00000340: 2514 c4bd 662f 213d 9ca7 33bd c84f cc3c
00000350: 0d49 81bd 8ed2 a7bd 85e4 a2bc afa3 55be
00000360: 5077 b8bd cd48 463d c003 9b3c b213 2e3d
00000370: 93ca 78bc 88ef 133d 2243 c6bc b6ec bebd
00000380: 02ad 4dbd 6f08 f3bc 9154 7e3c bdc6 423e
00000390: adc4 83bd aa68 093d dc8b c2bd da6c 8dbb
000003a0: 5438 b9bb d18d 7abd a469 9ebe 49c5 e0bc
000003b0: fcf7 773d 9d31 a2bd 0891 c93c baeb b9bd
000003c0: 38e2 10bd 9f2d 3fbd 7436 73bd aa1c 9dbd
000003d0: b8be aebd 347f 103d f445 9b3c ec43 783d
000003e0: a6fa 57be a96b 3bbd 6506 3cbd 316f 45be
000003f0: c722 1cbd e22c 7ebd f8d6 b6bd f521 2dbd

weight f4 [1, 256]
-0.03782177 0.016714077 -0.032698307 0.0068808873 0.026553418 0.0023174335 -0.01991821 -0.001795407
0.007691189 0.0009888249 -0.01291139 0.04740864 -0.0031798333 -0.001335022 0.0066118813 0.016943173
0.0034673498 0.02591942 -0.007019214 0.0014434587 0.026930742 -0.011127876 0.010064159 -0.018431459
-0.016876373 -0.006404264 0.017664548 -0.038483176 -0.020237695 0.002576418 0.0030204216 -0.021664526
0.020463351 -0.003008884 -0.026258329 0.0053673633 -0.032425687 0.003106948 0.010639742 -0.0011696753
-0.00886557 -0.003490152 -0.044939946 0.015322218 0.018364096 0.0026180507 0.009666183 -0.04619008
0.027917787 0.026733736 0.016012568 0.0029171603 0.013648725 -0.020633567 -0.0037270768 -0.024130242
-0.04861209 0.024301874 0.007113131 -0.01670198 -0.02139249 0.004390414 0.020230008 0.0073679173
-0.013980679 0.04184955 0.0053980537 -0.0049702246 -0.00023118118 -0.01675729 0.0004637617 0.0045732204
0.039843615 -0.04976276 -0.02989993 0.01591391 0.021162221 0.013500148 -0.068574145 0.023401503
0.013494209 0.050934203 -0.012498537 0.0037127326 0.0048053865 -0.006518812 1.1790416 -0.017811162
0.012578619 0.0035428293 -0.0012912385 -0.0034769739 0.0020751478 0.015634468 0.029653927 0.0007661179
0.024106639 0.034485597 0.002087155 0.025730409 -0.030628517 0.00012763185 0.024673315 -0.008522638
0.0057141413 0.090770595 0.010267262 -0.0014742739 -0.002291946 0.0019294843 -0.0034255497 -0.017325388
0.019636068 -0.052453525 -0.025964888 0.035979006 0.002616301 0.009412527 0.008396589 0.0127749415
-0.021364763 0.057456624 -0.0005265821 0.018522827 -0.020565407 0.053713635 0.0077265343 0.017365195
0.008498598 -0.018393535 -0.029608909 0.025540974 0.012424927 0.02318866 0.009310376 -0.019558132
0.091597505 0.042465664 0.04675909 0.020293608 0.040616274 -0.005856686 0.005124118 0.056559615
0.008516247 -0.02595435 -0.0046716756 0.019958612 0.0010462569 0.02143391 0.0009126506 0.013275861
-0.012257138 0.006616346 0.02063931 0.0061783586 0.008671135 0.004340889 -0.03556589 -0.028337834
0.050737772 0.030772597 -0.033081293 0.005434848 -0.004211335 0.0006653358 -0.0776886 0.016793352
-0.007981937 0.007295799 -0.015338716 0.010656315 0.0032178706 0.00068632816 -0.04689926 0.01562172
-0.00831937 -0.003997131 -0.00904472 0.026119977 0.017792443 0.002835886 0.009064812 -0.003195989
0.02216901 -0.006868187 0.019061554 0.05064759 0.03885525 0.025690181 0.020915188 -0.035773344
-0.0154991355 0.005313636 0.020533755 0.026810452 0.00019304901 0.0027109012 0.028073428 0.02702829
0.03916232 0.0048564244 0.008673327 0.03777665 0.0044913837 0.049563967 -0.025560066 -0.0062859994
-0.026776684 -0.0038436041 -0.040029235 0.022613706 0.041345526 0.02394387 0.008992996 0.023355179
-0.02144074 -0.004792691 0.03512396 0.023373414 0.019809492 -0.009118613 -0.0052922843 -0.022301918
0.023029916 -0.012638547 1.8377015e-05 -0.029901786 0.026303152 0.020812169 -0.009752595 0.01369314
0.032294422 0.008138579 -0.010876934 0.02923616 0.011413782 0.022218278 0.005498202 -0.008409116
-0.018521404 0.023249717 0.06161593 0.014026 -0.027544888 0.009770474 -0.0036100443 -0.033187266
0.00671647 -0.014697998 -0.010316819 0.022955079 0.003814547 -0.0008773431 0.009527424 0.026539529
00000000: 00eb 1abd f6eb 883c a9ee 05bd 1179 e13b
00000010: 8e86 d93c 15e0 173b 842b a3bc dd53 ebba
00000020: 5f06 fc3b 759b 813a 4b8a 53bc 902f 423d
00000030: c064 50bb e8fb aeba 7ba8 d83b 69cc 8a3c
00000040: 7a3c 633b f754 d43c 6f01 e6bb 7032 bd3a
00000050: dc9d dc3c b251 36bc 24e4 243c 92fd 96bc
00000060: 5240 8abc dcda d1bb 3eb5 903c 89a0 1dbd
00000070: 86c9 a5bc 1fd9 283b 44f2 453b ce79 b1bc
00000080: c2a2 a73c b230 45bb b51b d7bc b5e0 af3b
00000090: ccd0 04bd f09d 4b3b 5052 2e3c ca4f 99ba
000000a0: e540 11bc 09bb 64bb f312 38bd 0a0a 7b3c
000000b0: 4d70 963c 9a93 2b3b e95e 1e3c cf31 3dbd
000000c0: d8b3 e43c b500 db3c ca2c 833c d42d 3f3b
000000d0: e79e 5f3c ba07 a9bc f941 74bb c9ac c5bc
000000e0: 791d 47bd b914 c73c 4515 e93b 97d2 88bc
000000f0: 4e3f afbc 76dd 8f3b 67b9 a53c 926e f13b
00000100: 380f 65bc 6f6a 2b3d 28e2 b03b 44dd a2bb
00000110: 3a69 72b9 9646 89bc 0b25 f339 f4da 953b
00000120: 0f33 233d 09d4 4bbd b3f0 f4bc e35d 823c
00000130: 655c ad3c ba2f 5d3c 9a70 8cbd 82b4 bf3c
00000140: d116 5d3c 62a0 503d aac6 4cbc 5151 733b
00000150: 8176 9d3b c29b d5bb d6ea 963f b7e8 91bc
00000160: 8d16 4e3c d02e 683b c63e a9ba f1dd 63bb
00000170: 34ff 073b db13 803c cbec f23c 4dd5 483a
00000180: 497b c53c c540 0d3d a6c8 083b 94c8 d23c
00000190: a8e8 fabc ead4 0539 b11f ca3c 89a2 0bbc
000001a0: b13d bb3b efe5 b93d 0538 283c 6c3c c1ba
000001b0: 7934 16bb c0e6 fc3a 307f 60bb f9ed 8dbc
000001c0: d2db a03c 82d9 56bd 51b4 d4bc b95e 133d
000001d0: 3f76 2b3b 0037 1a3c d991 093c fd4d 513c
000001e0: 2805 afbc a357 6b3d 540a 0aba 2fbd 973c
000001f0: c978 a8bc d402 5c3d de2e fd3b 7441 8e3c
00000200: b43d 0b3c 0aae 96bc 628e f2bc 4e3b d13c
00000210: ec91 4b3c 25f6 bd3c 8c8a 183c 6038 a0bc
00000220: 7997 bb3d 7af0 2d3d 7686 3f3d c83e a63c
00000230: 405d 263d 71e9 bfbb 38e8 a73b 0eab 673d
00000240: bb87 0b3c 389e d4bc db14 99bb 3e80 a33c
00000250: 8e22 893a 2b96 af3c f23e 6f3a ff82 593c
00000260: 2ad2 48bc efcd d83b c513 a93c d473 ca3b
00000270: 6011 0e3c 043e 8e3b 8aad 11bd bf24 e8bc
00000280: 69d2 4f3d d016 fc3c 4080 07bd cf16 b23b
00000290: 3dff 89bb ee69 2e3a 331b 9fbd 3692 893c
000002a0: acc6 02bc 9911 ef3b 3d4f 7bbc d397 2e3c
000002b0: e9e2 523b b4ea 333a 7019 40bd 3ef2 7f3c
000002c0: f84d 08bc 5dfa 82bb 4e30 14bc 90f9 d53c
000002d0: 75c1 913c 46da 393b 9484 143c cc73 51bb
000002e0: c99b b53c 870e e1bb fa26 9c3c d973 4f3d
000002f0: af26 1f3d 3774 d23c 5456 ab3c 1287 12bd
00000300: 16f0 7dbc 021e ae3b 6836 a83c 98a1 db3c
00000310: 336d 4a39 60a9 313b 3ffa e53c 6f6a dd3c
00000320: ab68 203d a422 9f3b 921a 0e3c b0bb 1a3d
00000330: 752c 933b 9603 4b3d 5863 d1bc c9fa cdbb
00000340: c75a dbbc fae4 7bbb b2f5 23bd 6140 b93c
00000350: ed59 293d ef25 c43c 5c57 133c 5c53 bf3c
00000360: 7ea4 afbc 020c 9dbb 24de 0f3d 9a79 bf3c
00000370: 8447 a23c 3c66 15bc e66a adbb 83b2 b6bc
00000380: 3ca9 bc3c e911 4fbc 5728 9a37 97f4 f4bc
00000390: b579 d73c 487e aa3c 59c9 1fbc 3159 603c
000003a0: 2847 043d ad57 053c 2b35 32bc ac80 ef3c
000003b0: df00 3b3c 1b03 b63c 432a b43b 64c6 09bc
000003c0: 33ba 97bc 3176 be3c fc60 7c3d 4fcd 653c
000003d0: d1a5 e1bc 5714 203c 7e96 6cbb 5fef 07bd
000003e0: d515 dc3b dfcf 70bc e007 29bc 4a0c bc3c
000003f0: 7bfd 793b 80fd 65ba ea18 1c3c 6d69 d93c
