checkpoints/SH_trajectron_model.pt (torch, 23455 bytes, 10 tensors)

weight_ih_l0 f4 [128, 2]
0	0x3d1baa80	0.0380044
1	0x3d9c73e4	0.07639292
2	0x3ddaa6e3	0.10676362
3	0x3ddbc678	0.10731214
4	0x39bb825e	0.0003576455
5	0x3ddf0ae5	0.1089075
6	0x3b454103	0.0030098564
7	0x3e14c00a	0.14526382
8	0x3ccecff6	0.025245648
9	0x3c07ce5c	0.008288946
10	0x3c7e5bc1	0.0155248055
11	0x3e1c3d12	0.15257671
12	0x3dd504b1	0.104012854
13	0xbe5deac3	-0.21671586
14	0x3d7aa719	0.061194513
15	0x3eb6bfb2	0.35693127
16	0xbc47a0ff	-0.012184381
17	0x3e1999c6	0.15000066
18	0x3ed5a623	0.41728315
19	0xbe9a74d0	-0.30167246
20	0x3c0cde0f	0.008597865
21	0x3e53da04	0.20688635
22	0x3eb364ae	0.3503775
23	0x3e2e628f	0.17029785
24	0x3bfb3d04	0.0076671857
25	0x3e8099ef	0.25117442
26	0xbcd04659	-0.02542417
27	0x3e96f44d	0.29483262
28	0x3add1c29	0.0016869354
29	0x3dee2847	0.11628776
30	0x3b608a20	0.0034262016
31	0x3dda1711	0.10648931
32	0x3b18f21d	0.002333767
33	0x3e0581d3	0.13037805
34	0x3e465632	0.19368818
35	0x3d9145d7	0.07093399
36	0xbb9cca47	-0.0047848555
37	0x3e0b9b0b	0.13633363
38	0x3db79545	0.08964018
39	0x3e099fa4	0.13439804
40	0xba44b60c	-0.0007503934
41	0x3ebac723	0.36480054
42	0x3c7d6958	0.01546701
43	0x3d52a5ea	0.05142776
44	0x3c06039c	0.0081795715
45	0x3dc59140	0.09646845
46	0xbb72da2e	-0.0037056315
47	0x3db8dd40	0.09026575
48	0x3c3a6f0a	0.011379013
49	0x3cf43965	0.029812524
50	0x3d11c2d1	0.035586182
51	0x3de3c398	0.11121291
52	0xbbea25d3	-0.0071456223
53	0x3db48c8b	0.08815869
54	0xbc1d3209	-0.009594449
55	0x3e1bb540	0.1520586
56	0x3d491b48	0.049098283
57	0x3dd307bd	0.1030421
58	0x3e05b5bf	0.13057612
59	0xbec5e734	-0.38652956
60	0x3e0b55ec	0.13606995
61	0x3e50ade7	0.20378838
62	0x3cd67868	0.026180461
63	0x3e33d02f	0.17559884
64	0x3cbee6c5	0.023303399
65	0x3dab0f1b	0.083524905
66	0xbbb44687	-0.0055015716
67	0x3d170bbb	0.03687642
68	0xbbfa1096	-0.0076313717
69	0x3e56843a	0.20948878
70	0x3cc27c76	0.023740988
71	0x3d2364f6	0.039891206
72	0x3bc6ff07	0.006072882
73	0xbd5167aa	-0.051124252
74	0x3a4bd334	0.0007775307
75	0x3d90ce21	0.07070566
76	0x3d752cb1	0.059857074
77	0xbd5b0def	-0.053480085
78	0x3b8f38d3	0.0043707876
79	0x3dd12d44	0.10213712
80	0x3c2709d9	0.010195219
81	0x3c9be840	0.019031644
82	0x3d5314d3	0.05153353
83	0xbc6e0203	-0.014526847
84	0x3d056b93	0.032573294
85	0x3d52e1df	0.05148494
86	0x3adb197f	0.0016715972
87	0x3dcf7a63	0.10130765
88	0x3c6e6c6e	0.014552219
89	0xbd5f2433	-0.05447788
90	0xbb51ec57	-0.0032031739
91	0x3d0d8139	0.034547064
92	0x3b72e31b	0.0037061635
93	0x3d813060	0.06308055
94	0x3c090dae	0.008365078
95	0x3de8fc11	0.11376203
96	0x3c83c636	0.016085725
97	0x3d58364c	0.052786157
98	0x3b651a8c	0.003495845
99	0x3cfd2caf	0.030905096
100	0x3b814b47	0.0039457413
101	0x3d084bbb	0.033275347
102	0x3b3d8448	0.0028917957
103	0x3b323fe5	0.0027198729
104	0xbb9706f4	-0.004608983
105	0x3df60955	0.12013499
106	0x3c9de00e	0.019271877
107	0x3dd461e3	0.10370233
108	0x3bc8b170	0.006124668
109	0x3dd9854b	0.10621127
110	0x3c95249b	0.018205931
111	0x3d6b3c1f	0.057430383
112	0x3c60f9a6	0.013731396
113	0x3d3412b7	0.04396316
114	0x3b755bae	0.0037438679
115	0x3b83a900	0.004017949
116	0x3d030363	0.03198565
117	0xbc904324	-0.01761014
118	0x3c41485e	0.011797039
119	0xbcfeb3ca	-0.03109159
120	0xbb1a0541	-0.0023501667
121	0x3cbfed42	0.023428563
122	0x3bf7bfb9	0.007560697
123	0x3da1dd7d	0.07903574
124	0xbb88ff01	-0.0041807895
125	0x3c5c1241	0.013432086
126	0xbbe617b5	-0.007021869
127	0x3de69248	0.1125837
128	0x3cbbed82	0.022940401
129	0xbbea8f23	-0.0071581765
130	0xbd1f84a3	-0.03894485
131	0xbdc3f6d6	-0.095685646
132	0x3dcde6e4	0.100538045
133	0xbdb438c5	-0.087998904
134	0x3d03413e	0.03204464
135	0xbdaecc70	-0.08535087
136	0x3b663132	0.0035124538
137	0x3d3a31cb	0.045457643
138	0xbce4a974	-0.027912833
139	0x3cfc3ef8	0.030791745
140	0x3b4867ad	0.0030579374
141	0x3e4d85db	0.20070593
142	0xbd90141e	-0.07035087
143	0xbed82264	-0.42213738
144	0x3c1fe7cf	0.009759857
145	0xbdcbf638	-0.09959072
146	0x3bb859e8	0.005625952
147	0x3e3dc024	0.18530327
148	0xbd0ffb41	-0.035151724
149	0xbb2e5bea	-0.0026605078
150	0xbc3f4222	-0.011673482
151	0x3c997e2e	0.018736925
152	0xbd8fa7bd	-0.070144154
153	0xbe0075db	-0.12544958
154	0xbc3d8e8d	-0.011569631
155	0xbd113810	-0.035453856
156	0x3d0e0feb	0.03468315
157	0xbdb94ab5	-0.09047452
158	0x3c28da95	0.01030602
159	0x3d885c01	0.06658173
160	0x3c0dcdf3	0.008655059
161	0xbe078b28	-0.13236678
162	0xbc408a41	-0.011751712
163	0xbda131ef	-0.07870852
164	0x3c3dbb5f	0.011580317
165	0x3d09f44c	0.033680245
166	0xbd3405ae	-0.04395073
167	0x3e00d44a	0.12580982
168	0xbce7118f	-0.028206615
169	0x3b7a338a	0.0038177692
170	0xbd398527	-0.045293
171	0x3cb3f53a	0.02196752
172	0x3d1a7f52	0.03771908
173	0x3aecfbac	0.0018080375
174	0x3c945bb2	0.01811013
175	0x3d1b1e1c	0.03787051
176	0x3cae96cc	0.02131214
177	0x3d3c3481	0.04594851
178	0xbd888e77	-0.06667798
179	0x3e2c9683	0.1685429
180	0xbd19e90d	-0.03757577
181	0x3d8ecfee	0.06973253
182	0xbdaafabc	-0.08348605
183	0x3e2448bb	0.1604337
184	0xbc7fe369	-0.015618184
185	0x3db7de93	0.089779995
186	0x39e6aeb2	0.00043999177
187	0x3dd9f0b3	0.10641613
188	0x3c850ee5	0.016242454
189	0xbdd745c2	-0.10511352
190	0x3d8aa8cf	0.06770479
191	0xbdb05de9	-0.08611662
192	0x3d28a484	0.04117252
193	0x3d739e71	0.059477273
194	0x3d33208d	0.043732215
195	0x3e28e8a7	0.16495
196	0x3dd62764	0.10456732
197	0x3e468154	0.19385272
198	0x3dd42fb5	0.10360662
199	0x3e43cd2b	0.19121234
200	0x3dba6f27	0.09103232
201	0xbdfa1edb	-0.122129165
202	0x3e8d91a9	0.27650192
203	0x3ddf3177	0.108981065
204	0x3de6fc31	0.112785704
205	0x3c5e1ef7	0.013557187
206	0x3d46503b	0.048416357
207	0x3e0320b9	0.12805451
208	0x3cd33748	0.025783196
209	0x3f0c1d96	0.54732645
210	0x3ca9dca1	0.020735087
211	0x3e8650e8	0.26233602
212	0x3d5dfa43	0.054193746
213	0x3da9c3d1	0.08289302
214	0x3d4fcaef	0.050730642
215	0x3dc55a37	0.09636348
216	0x3d22513c	0.039628252
217	0x3e290603	0.165062
218	0x3cf71ed8	0.030166075
219	0x3e2cddd7	0.168815
220	0x3f0e7fa2	0.556635
221	0x3e2bf7ce	0.16793749
222	0x3ea09cc0	0.3136959
223	0x3f0b7cfa	0.54487574
224	0x3be79684	0.0070675034
225	0x3eae7e96	0.34080952
226	0x3cbdb869	0.023159223
227	0x3e186d6f	0.14885496
228	0x3d857613	0.065166615
229	0x3e498f6b	0.19683616
230	0x3e45365b	0.19259016
231	0x3e110dcb	0.14165418
232	0x3d1119a9	0.035424862
233	0x3e3dd678	0.18538845
234	0x3d32d8b3	0.04366369
235	0x3dfc0601	0.12305833
236	0x3d0e4657	0.03473505
237	0xbc3452a6	-0.011006033
238	0x3b655673	0.0034994155
239	0x3e6fa4d1	0.23402716
240	0x3d053ef4	0.03253074
241	0x3e1093a6	0.14118823
242	0x3dd1a7bb	0.1023707
243	0x3dff0070	0.12451255
244	0x3d94c27d	0.07263658
245	0x3e336b40	0.17521381
246	0x3e8b23b4	0.27175677
247	0x3e289a5f	0.16465138
248	0x3d856eeb	0.065152965
249	0x3e9b948e	0.30386776
250	0x3df1c071	0.118042834
251	0x3e92c6c3	0.28667268
252	0x3d557c3d	0.052120436
253	0x3e24b5f1	0.1608503
254	0x3d08a6fc	0.033362374
255	0x3e13c756	0.1443151

weight_hh_l0 f4 [128, 32]
0	0xbf018401	-0.50592047
1	0x3f306554	0.68904614
2	0xbf16ae66	-0.5885986
3	0xbec66f4d	-0.3875679
4	0xbd559ba5	-0.052150387
5	0x3e3a0078	0.18164241
6	0xbe0be9cc	-0.13663405
7	0x3e361fc8	0.17785561
8	0xbeabe985	-0.335766
9	0x3d637627	0.0555326
10	0x3f3d6709	0.73985344
11	0xbe0cd718	-0.13753927
12	0x3d80d58f	0.06290733
13	0x3cb571f7	0.02214907
14	0xbe82f890	-0.25580263
15	0xbf1a940d	-0.6038216
16	0x3e918060	0.28418255
17	0x3ee79f48	0.4523871
18	0x3dd9ae2e	0.10628925
19	0xbe90e3a2	-0.2829867
20	0xbe07d416	-0.13264498
21	0x3dc94091	0.09826768
22	0x3f297004	0.6618655
23	0xbe48d61d	-0.19612928
24	0xbeab84bd	-0.3349971
25	0x3e15afc8	0.14617836
26	0xbda40af6	-0.08009903
27	0x3ec3ebf6	0.3826596
28	0xbd97d065	-0.07412795
29	0x3d469daa	0.048490204
30	0xbf1ea592	-0.6197139
31	0xbedff1a5	-0.43739048
32	0xbc9937f6	-0.018703442
33	0x3fac04a7	1.343892
34	0xbd509787	-0.050925758
35	0x3d79d835	0.060997207
36	0x3e922758	0.28545642
37	0x3e32d1c0	0.17462826
38	0x3e543cd2	0.20726326
39	0x3f1fb532	0.6238586
40	0x3e540b1a	0.2070736
41	0xbea659e7	-0.32490465
42	0x3d5723ff	0.052524563
43	0xbe14c41b	-0.14527933
44	0x3eb35c35	0.35031286
45	0xbe09190d	-0.13388462
46	0x3f3291f6	0.6975397
47	0xbead84f8	-0.3389051
48	0x3f0637c2	0.5242883
49	0xbd0bb397	-0.034106817
50	0x3e092bb4	0.13395578
51	0xbd0a2338	-0.033724993
52	0xbd0459df	-0.03231227
53	0xbcde6a32	-0.027150247
54	0x3ef51c93	0.47873363
55	0x3b1d7aa3	0.0024029396
56	0x3e019265	0.12653501
57	0xbf254c80	-0.64569855
58	0xbe20f501	-0.15718462
59	0x3db1d91b	0.08683988
60	0xbec1bc01	-0.37838748
61	0x3db4951f	0.08817505
62	0xbcf79b38	-0.030225381
63	0xbd69d7e5	-0.05709066
64	0xbd57e264	-0.052706137
65	0x3f3312df	0.6995067
66	0xbebdd6ff	-0.37078092
67	0x3d8ba92c	0.06819376
68	0xbd951a66	-0.07280426
69	0xbeb44629	-0.35209778
70	0x3dd3b415	0.10337082
71	0xbd4274f5	-0.04747482
72	0x3f038125	0.51368934
73	0xbe87509b	-0.26428685
74	0x3e250587	0.1611539
75	0xbee8e7bf	-0.45489308
76	0xbdcd36c7	-0.100202136
77	0x3e970950	0.29499292
78	0x3f275f60	0.65379906
79	0xbbc6a977	-0.0060626823
80	0x3f025059	0.5090385
81	0xbf059dd1	-0.52193934
82	0xbcb3b583	-0.021937137
83	0xbea6e27a	-0.32594663
84	0xbde96237	-0.11395686
85	0xbeac331d	-0.33632746
86	0xbd46ef31	-0.048567954
87	0x3df16ff0	0.117889285
88	0xbd2a422c	-0.041567013
89	0xbecb9ec8	-0.39769578
90	0xbe9d0567	-0.30668184
91	0xbe126d24	-0.14299446
92	0xbe583b49	-0.21116365
93	0x3c821e1b	0.015883496
94	0x3cc73bb2	0.024320457
95	0x3ed26838	0.41095138
96	0x3c8e1a46	0.017346513
97	0x3d311271	0.043230478
98	0xbb843b45	-0.004035386
99	0xbcc02cf9	-0.023458945
100	0x3d3f886c	0.04676096
101	0x3c50843d	0.012726841
102	0x3e620f48	0.22076142
103	0x3cbd8ee1	0.023139419
104	0xbe4b8da6	-0.19878253
105	0xbcb15bd1	-0.021650227
106	0x3b740795	0.0037235965
107	0xbe157e42	-0.14598945
108	0xbd092942	-0.033486612
109	0xbf0dd3bb	-0.554012
110	0x3f98b0ea	1.192899
111	0x3b95b932	0.004569196
112	0xbe86cc2c	-0.26327646
113	0xbec97b3e	-0.3935184
114	0x3ed0deaa	0.4079488
115	0xbe12c709	-0.14333738
116	0xbe95897f	-0.29206464
117	0x3d9bdda5	0.07610635
118	0x3e9df7fc	0.3085326
119	0x3d2c772d	0.042105842
120	0x3e873ea9	0.26414993
121	0xbe038526	-0.12843761
122	0xbc4492b0	-0.011997864
123	0x3e4b4281	0.19849588
124	0xbe965090	-0.2935834
125	0x3e2ecca2	0.17070249
126	0xbe50c845	-0.20388897
127	0x3e25e182	0.16199306
128	0x3e14c823	0.14529471
129	0x3db89d26	0.09014349
130	0x3e406bbc	0.18791097
131	0xbdd72760	-0.10505557
132	0x3e0caaa7	0.13736974
133	0x3d31fbb4	0.043452933
134	0x3e82730a	0.25478393
135	0xbcd97617	-0.026545567
136	0xbead357f	-0.33829877
137	0x3e0edb71	0.13950898
138	0xbe9373c6	-0.28799266
139	0xbd1a5aad	-0.03768413
140	0x3d8b680b	0.06806954
141	0xbf066a4c	-0.52505946
142	0x3ee75551	0.4518228
143	0x3dfed1ab	0.12442335
144	0xbe809886	-0.25116366
145	0xbe8d4e21	-0.2759867
146	0x3e80a963	0.25129232
147	0x3cb7bb55	0.022428194
148	0xbe454650	-0.19265103
149	0x3c8239bd	0.015896672
150	0x3e533e3c	0.2062921
151	0x3d0bc94c	0.03412752
152	0x3ebdd496	0.37076253
153	0xbebc6d56	-0.36802167
154	0xbe3129d6	-0.17301115
155	0xbe0aa663	-0.13540034
156	0xbdb061da	-0.08612414
157	0xbd6c3d09	-0.057675395
158	0x3e055926	0.13022289
159	0xbcc63086	-0.02419306
160	0x3e2d2ff4	0.16912824
161	0x3ee90b58	0.45516467
162	0xbdea6cb3	-0.11446514
163	0xbda802b9	-0.08203644
164	0x3d748a2d	0.059702087
165	0xbe00a0d8	-0.12561357
166	0xbb2071f7	-0.002448199
167	0xbe912a7c	-0.28352726
168	0x3f643164	0.89137864
169	0x3d4d0ebf	0.05006289
170	0xbe633233	-0.22187118
171	0xbda606e6	-0.081067845
172	0xbcb59896	-0.022167485
173	0x3f5a56cd	0.852887
174	0x3f360380	0.7109909
175	0xbe6c5058	-0.23077524
176	0x3f6f5101	0.9348298
177	0x3efb294d	0.49054947
178	0x3dbd8fc0	0.09255934
179	0x3dda95e3	0.1067312
180	0x3e89ab66	0.2688858
181	0xbcf93eda	-0.030425478
182	0xbe851dd4	-0.2599932
183	0x3bb754b9	0.0055948165
184	0xbc7abc03	-0.015303615
185	0x3ab07aef	0.0013464371
186	0xbde375eb	-0.111064754
187	0xbd332b1f	-0.043742295
188	0xbd7da65d	-0.061926235
189	0x3ce1c426	0.027559351
190	0xbe392583	-0.18080716
191	0x3db25a52	0.087086335
192	0xbecc18e3	-0.39862737
193	0xbdcd571d	-0.10026381
194	0x3da73d07	0.08165937
195	0xbdf23e0b	-0.1182824
196	0xbe1d82b6	-0.15381894
197	0xbe61727a	-0.22016326
198	0xbea56615	-0.32304445
199	0x3de520c6	0.11187892
200	0x3f13e6a3	0.577738
201	0xbd820530	-0.06348646
202	0x3e054d45	0.13017757
203	0xbe11c653	-0.14235811
204	0x3e84843f	0.25882146
205	0x3ef25032	0.4732681
206	0xbe156f4d	-0.14593239
207	0xbe64a5a4	-0.22328812
208	0x3f245b5c	0.64201903
209	0x3f630620	0.8868122
210	0xbeca045d	-0.39456454
211	0xbf0b16b2	-0.54331505
212	0xbf109d60	-0.56490135
213	0xbe5f4404	-0.2180329
214	0x3de4eae0	0.11177611
215	0xbd75d4d0	-0.060017407
216	0xbea96ea7	-0.33092234
217	0x3c9d724a	0.019219536
218	0xbee4a92f	-0.44660327
219	0x3f74c061	0.95606047
220	0x3d0b822c	0.03405969
221	0xbe508365	-0.20362623
222	0x3e27e8c6	0.1639739
223	0xbe811a0c	-0.25215185
224	0x3dca1db1	0.098689444
225	0x3f349c98	0.70551443
226	0xbf6cd0f0	-0.92506313
227	0xbed98d4e	-0.4249062
228	0xbe1e2d39	-0.15446939
229	0x3eba2602	0.36357123
230	0xbdd10dca	-0.10207708
231	0x3e5c09e3	0.21488146
232	0x3e8a1bee	0.26974434
233	0xbe7a41ca	-0.24439159
234	0x3d74dc9a	0.059780695
235	0xbcc754d4	-0.024332441
236	0x3ef98da0	0.48740864
237	0xbe615288	-0.2200414
238	0xbeb4ced0	-0.35314035
239	0x3dae7cd7	0.08519905
240	0xbed1d3dd	-0.4098195
241	0x3ecb526a	0.39711314
242	0x3db70a80	0.089375496
243	0x3df24ef7	0.118314676
244	0x3f4fa98a	0.8111807
245	0x3dc52bcf	0.096274965
246	0xbf1eeb99	-0.62078243
247	0x3ea7ff66	0.3281204
248	0x3f096264	0.5366576
249	0x3efe5bb7	0.49679348
250	0xbdae05c3	-0.08497193
251	0x3d9317c3	0.071822666
252	0x3e404fcc	0.1878044
253	0xbcec9be8	-0.028882936
254	0x3c99530e	0.018716361
255	0xbe4b6ecf	-0.19866489

bias_ih_l0 f4 [128]
0	0x3e73ad07	0.23796473
1	0x3f10ab5c	0.56511474
2	0xbc231a75	-0.009955038
3	0xbe31dc6f	-0.17369245
4	0xbdb76f10	-0.0895673
5	0x3de5eade	0.11226438
6	0xbe2b7b39	-0.16746224
7	0x3dfb528c	0.12271604
8	0x3ec463f4	0.38357508
9	0xbe90d744	-0.28289235
10	0xbc19dc44	-0.009390894
11	0xbfb1ecb4	-1.3900361
12	0x3e93d6bf	0.28874776
13	0xbdb383b3	-0.08765354
14	0x3e14176e	0.14462063
15	0x3eb38891	0.3506513
16	0x3ebbbfa8	0.3666966
17	0x3f107e32	0.5644256
18	0xbd7775ac	-0.060414955
19	0x3e5423c3	0.20716767
20	0x3e03e24b	0.12879293
21	0x3e9d83f0	0.30764723
22	0xbe9f66d7	-0.31133148
23	0x3e7ff30c	0.24995059
24	0x3ef521f0	0.47877455
25	0x3ea981dd	0.3310689
26	0x3dc1a384	0.09455016
27	0x3e0befc2	0.13665679
28	0xbd9943bd	-0.07483623
29	0xbe4e4875	-0.20144828
30	0xbfe9a9a0	-1.825489
31	0x3eda6e49	0.42662266
32	0x3ec29391	0.3800321
33	0x3d0a15f4	0.033712342
34	0x3e0fc782	0.1404095
35	0x3deb690f	0.11494648
36	0xbe3826b2	-0.17983511
37	0x3dc6fc1f	0.09716057
38	0xbe0600c6	-0.13086233
39	0x3e25ea43	0.16202645
40	0x3caa31d0	0.020775706
41	0x3e278486	0.16359147
42	0x3e7ae925	0.24503
43	0x3e1c09df	0.1523814
44	0x3e4c1ae4	0.19932133
45	0xbcd289c5	-0.02570046
46	0x3e05daa3	0.13071685
47	0x3e669404	0.22517401
48	0x3e4b05b7	0.19826399
49	0xbd731f4d	-0.059356023
50	0x3e20ef57	0.15716301
51	0x3c954a78	0.018223986
52	0x3dd1fbc2	0.10253097
53	0x3dc31e98	0.0952732
54	0xbe2a0f7f	-0.16607474
55	0xbe2bfecd	-0.16796418
56	0x3e1cc654	0.15310031
57	0x3d46bd55	0.048520405
58	0xbe068f7f	-0.13140677
59	0x3d2dbcaa	0.042416252
60	0xbe23c5a1	-0.15993358
61	0x3d9c7210	0.07638943
62	0x3e43d35d	0.19123597
63	0xbc904447	-0.017610682
64	0xbedddc6e	-0.43332237
65	0x3f0c74f8	0.5486598
66	0xbe6871a7	-0.22699605
67	0x3e495a14	0.19663268
68	0x3eb1c009	0.34716824
69	0x3f4cad00	0.7995148
70	0xbd03a3d4	-0.03213866
71	0x3e613830	0.2199409
72	0x3d190904	0.037362114
73	0xbc1fe671	-0.009759531
74	0x3f244853	0.6417286
75	0x3ead7dd6	0.33885068
76	0x3e8ee759	0.2791088
77	0x3dcbf16f	0.09958159
78	0x3ef8d17e	0.4859733
79	0xbf064d5f	-0.5246181
80	0x3d7f21c1	0.06228805
81	0x3eea5842	0.4577046
82	0xbd252a60	-0.040323615
83	0x3ea7430e	0.32668346
84	0x3f4267ad	0.75939447
85	0x3f35f241	0.71072775
86	0xbed4ca22	-0.41560465
87	0xbe004ab7	-0.12528501
88	0xbec1d5be	-0.37858385
89	0xbd9a2936	-0.075273916
90	0x3f01dc0f	0.5072641
91	0x3f3e72d3	0.7439396
92	0xbbc50271	-0.006012254
93	0x3ca3f82e	0.020015802
94	0xbe085c47	-0.13316451
95	0xbf432b58	-0.7623801
96	0x3ec49bb6	0.38400048
97	0x3f04ebe9	0.5192247
98	0xbfbeff10	-1.4921589
99	0xbf976c56	-1.1829937
100	0x3e0fe290	0.1405127
101	0x3f555491	0.83332163
102	0x3ea0ddc4	0.31419194
103	0x3e3c6955	0.18399556
104	0x3e85658b	0.26054034
105	0x3ea4235e	0.32058233
106	0x3ee7aebe	0.45250505
107	0x3ea4434b	0.3208259
108	0x3e08f41a	0.13374367
109	0x3e975aeb	0.29561552
110	0x3f08ee03	0.5348818
111	0x3fc2fe1b	1.5233797
112	0x3e983eb6	0.29735345
113	0x3e1be94c	0.15225714
114	0x3eb46bb8	0.35238433
115	0xbe6c7b63	-0.23093943
116	0x3e286d79	0.1644801
117	0x3e7a3fc8	0.24438393
118	0x3cdab379	0.026696907
119	0xbdfbd6ce	-0.1229683
120	0x3edaa686	0.42705172
121	0x3e7d4c7e	0.2473621
122	0x3e16c2a9	0.14722694
123	0x3f275f77	0.6538004
124	0xbedabd93	-0.4272276
125	0x3e81675f	0.25274178
126	0x3ea421c4	0.3205701
127	0x3d1b2490	0.037876666

bias_hh_l0 f4 [128]
0	0x3ea6df40	0.325922
1	0x3f06620b	0.5249335
2	0x3d81d8ab	0.06340154
3	0xbe0538fd	-0.1301002
4	0x3e0e9759	0.13924922
5	0x3e57dfe4	0.21081501
6	0xbea900dc	-0.33008468
7	0x3e12d5e5	0.14339407
8	0x3ec702c2	0.38869292
9	0xbedfe10c	-0.43726385
10	0x3e619bc6	0.22032079
11	0xbfa03263	-1.2515377
12	0xbd02fa30	-0.03197688
13	0xbe0ad579	-0.13557996
14	0x3ea002d7	0.31252167
15	0x3e882958	0.26594043
16	0x3eadce81	0.33946612
17	0x3f23891a	0.63881075
18	0xbd52e01d	-0.051483262
19	0x3ea328b7	0.31867
20	0x3e1bbb64	0.15208203
21	0x3eb7be58	0.35887408
22	0xbe8b00de	-0.271491
23	0x3e15d7ad	0.14633055
24	0x3ee0ef6f	0.43932673
25	0x3ef1b990	0.47211885
26	0x3e03fcb6	0.1288937
27	0x3d66edd3	0.05637915
28	0xbe4d9887	-0.20077716
29	0xbee987cf	-0.45611426
30	0xbffb8c7d	-1.9652249
31	0x3e8e7a2f	0.27827594
32	0x3e883f64	0.26610863
33	0x3e87ee56	0.26549023
34	0xbd9ff553	-0.07810464
35	0xbcc81ab1	-0.02442679
36	0xbdee1845	-0.11625723
37	0x3e38f214	0.18061095
38	0xbe03f2f6	-0.12885651
39	0xbdc66445	-0.09687094
40	0x3e84308b	0.25818285
41	0x3e252ead	0.16131087
42	0x3e417126	0.18890819
43	0xbd3a79f8	-0.045526475
44	0x3d460290	0.048342288
45	0x3dd2f856	0.103012726
46	0x3ed7406e	0.42041343
47	0x3e8d20b7	0.27564022
48	0x3d8a5502	0.06754495
49	0x3e84691b	0.2586144
50	0x3d136923	0.035988938
51	0xbc224fe9	-0.009906747
52	0xbe0a22eb	-0.13489883
53	0x3c810c44	0.015752919
54	0xbe4747a4	-0.19460922
55	0x3c3a2930	0.011362359
56	0x3ec37d24	0.38181412
57	0xbd840086	-0.06445412
58	0x3e354040	0.1770029
59	0x3e4471ce	0.19184038
60	0xbd230aa5	-0.039805073
61	0xbd807cd1	-0.06273807
62	0xbdbe55ca	-0.09293707
63	0x3e12c23f	0.14331912
64	0xbf02d0b2	-0.51099694
65	0x3f1650eb	0.5871722
66	0xbdf70195	-0.120608486
67	0x3e00d907	0.1258279
68	0x3e83f66f	0.2577395
69	0x3f1343ca	0.5752531
70	0xbc96306b	-0.018333634
71	0x3e58fde5	0.21190603
72	0x3e411198	0.18854368
73	0xbda4643d	-0.080269314
74	0x3f489ab3	0.7836105
75	0x3e956f64	0.29186547
76	0x3df82b13	0.12117591
77	0x3df9a51c	0.12189695
78	0x3f14123f	0.5784034
79	0xbec2d295	-0.38051286
80	0x3e966cec	0.29379976
81	0x3f2533e1	0.64532286
82	0x3d989c32	0.07451667
83	0x3e4cd209	0.20001997
84	0x3f558371	0.8340369
85	0x3f383ecf	0.7197084
86	0xbe9a6b22	-0.3015986
87	0x3d654183	0.05597068
88	0xbedb12ef	-0.42787883
89	0xbe6db508	-0.23213589
90	0x3f35d28d	0.710244
91	0x3f3fd015	0.74926883
92	0xbe0ff91d	-0.14059873
93	0xbcea0277	-0.028565628
94	0xbe4c00c5	-0.19922169
95	0xbf1404ec	-0.5782001
96	0x3ea29226	0.31752127
97	0x3e83f806	0.25775164
98	0xbfbcf9d6	-1.4763744
99	0xbf99b641	-1.2008744
100	0x3e8c1814	0.2736212
101	0x3f2e6878	0.68128157
102	0x3e2e16ae	0.17000839
103	0x3e8c6d4e	0.27427143
104	0x3e3c9a43	0.18418221
105	0x3ea71963	0.32636556
106	0x3e550855	0.2080396
107	0x3ec05050	0.37561274
108	0x3eb19fdc	0.34692276
109	0x3eaf8501	0.3428116
110	0x3f328b19	0.69743496
111	0x3fb6db7f	1.4285735
112	0x3ece5f9d	0.40307322
113	0x3edd5352	0.4322763
114	0x3c4aa405	0.012368207
115	0xbd1fe5c8	-0.039037496
116	0x3dd09f14	0.10186592
117	0x3e8bde6e	0.27318138
118	0x3e929f29	0.28637055
119	0xbe3e9062	-0.18609765
120	0x3eda4295	0.42628923
121	0x3e3a3d59	0.18187465
122	0x3ea280a7	0.3173878
123	0x3ef31ce5	0.47482982
124	0xbeca6f8e	-0.39538234
125	0x3e1b7ad0	0.15183568
126	0x3e8d5285	0.2760202
127	0x3d2fe602	0.042943962

weight_ih_l0 f4 [32, 2]
0	0x3fca6fb8	1.5815344
1	0x3f2c1ccc	0.6723144
2	0x3b85e19a	0.0040857317
3	0x3dc32c57	0.095299415
4	0x39941a4b	0.0002824835
5	0x3b5a6cc8	0.0033328999
6	0xbc268d2c	-0.010165494
7	0x3dd5c6b8	0.10438293
8	0x3bf07c58	0.0073390417
9	0x3d8f2332	0.06989135
10	0x3f596a5c	0.84927917
11	0x3f04fc1c	0.5194719
12	0xb9b83942	-0.00035137875
13	0x3d9d5f01	0.07684136
14	0x3f6b83e1	0.91998106
15	0x3e6855c6	0.2268897
16	0x3efdfd0b	0.4960712
17	0x3db83345	0.08994154
18	0x3d9f9311	0.077917226
19	0x3dbd1850	0.09233153
20	0x3f0a732e	0.54082
21	0x3ebb0d76	0.36533707
22	0x3e55ca7a	0.2087802
23	0xbb3590bc	-0.0027704677
24	0xba274d16	-0.0006382031
25	0x3df8a91e	0.121416315
26	0x3d230559	0.03980002
27	0xbbced05a	-0.0063114585
28	0x3eba090e	0.36335033
29	0x3f302282	0.68802655
30	0x3cf5baba	0.029996265
31	0xbcc1dc72	-0.023664687
32	0xbcb94f9f	-0.022620974
33	0xbd48985a	-0.04897342
34	0xbf380a1f	-0.71890444
35	0xbea5101e	-0.3223886
36	0x3eb9ba67	0.36275026
37	0x3ed19db3	0.40940627
38	0x3f7992e0	0.9748974
39	0x3f3918c4	0.72303414
40	0x3c80395c	0.015652351
41	0x3e77512e	0.24152061
42	0xba86edd8	-0.0010294272
43	0xbdb1150f	-0.08646595
44	0xbc6c1b6d	-0.014410836
45	0xbe0225d9	-0.1270975
46	0x3f7adf5a	0.9799706
47	0x3f26dde9	0.6518236
48	0x3f06e46a	0.5269228
49	0x3f0d1d8d	0.55123216
50	0x3d373b71	0.044734422
51	0x3e078d72	0.13237551
52	0x3f04c285	0.51859313
53	0x3eddc49b	0.4331406
54	0x3d85ac26	0.06526975
55	0x3d9c13f9	0.07620997
56	0x3c9d9e57	0.019240541
57	0x3ef898cf	0.48554084
58	0x3ea96fc9	0.33093098
59	0x3d922796	0.07136457
60	0x3d27020d	0.04077344
61	0x3e29caf7	0.16581331
62	0x3f45041e	0.7695941
63	0x3f576f6f	0.8415441

weight_hh_l0 f4 [32, 8]
0	0xbd3fc742	-0.046820886
1	0xbed0a3bc	-0.4074992
2	0x3e0a17db	0.13485663
3	0x3e24cda5	0.16094072
4	0x3eefe69d	0.4685563
5	0x3e92954a	0.28629524
6	0xbde636fe	-0.11240958
7	0x3f07c0a2	0.5302831
8	0x3ed28c7f	0.41122815
9	0xbef7c0a9	-0.48389176
10	0x3d91914b	0.071077906
11	0x3f89ca17	1.0764798
12	0x3ed1f5df	0.41007897
13	0x3f55fbfb	0.83587617
14	0xbe1323dd	-0.1436915
15	0x3f901f89	1.1259624
16	0x3f3cc240	0.737339
17	0xbf25b12c	-0.6472347
18	0x3f8d6d4e	1.1048982
19	0xbda02921	-0.07820345
20	0x3d37b1c7	0.044847276
21	0x3f72234c	0.9458511
22	0xbd1b2116	-0.03787335
23	0x3ebf07bf	0.37310597
24	0xbe706966	-0.23477706
25	0xbf1bff9b	-0.609369
26	0x3ee93d26	0.45554465
27	0x3e866cff	0.26255032
28	0x3ee2445d	0.44192782
29	0x3eef227a	0.4670599
30	0xbd77c243	-0.060487997
31	0x3f0d3e9c	0.5517366
32	0xbee869c6	-0.453932
33	0xbe8991b3	-0.26868972
34	0x3ec21f8f	0.37914702
35	0x3fb086c7	1.3791131
36	0x3f60dcc9	0.8783689
37	0x3e8e6fae	0.2781958
38	0xbe6a1246	-0.22858533
39	0x3e229407	0.1587678
40	0xbdd7c4d6	-0.1053559
41	0xbf096fc7	-0.53686184
42	0xbdf99330	-0.12186277
43	0x3f382175	0.7192605
44	0x3f0b272c	0.54356647
45	0x3f279e1e	0.6547564
46	0xbf077be4	-0.5292342
47	0x3f54cbc9	0.8312345
48	0x3eb1c27a	0.34718686
49	0x3e765ded	0.24059267
50	0x3cf6e38a	0.030137796
51	0x3ee55614	0.44792235
52	0xbef0c2a3	-0.47023496
53	0x3efcf5bc	0.4940623
54	0x3e461e67	0.19347535
55	0xbe36f220	-0.17865801
56	0xbdb78ad0	-0.08962023
57	0xbf14f420	-0.58185005
58	0x3eb0b7ca	0.3451522
59	0x3eb941ce	0.36183017
60	0x3f2ce183	0.67531604
61	0x3e88d53e	0.2672519
62	0xbf2dbdb2	-0.6786758
63	0xbb142bf2	-0.0022609201
64	0xbf4dc840	-0.8038368
65	0xbfa7e8a4	-1.3117871
66	0x3df71e05	0.12066273
67	0x3fa4c613	1.2872947
68	0x3f5f9fa3	0.8735296
69	0x3e48f484	0.19624525
70	0xbf45ca3d	-0.77261716
71	0x3f88875e	1.0666311
72	0xbe34ceb0	-0.1765697
73	0xbf168648	-0.58798647
74	0xbe3ab6a4	-0.18233734
75	0x3fcb5e1b	1.5888094
76	0x3f3f9d04	0.7484896
77	0xbe0ff9d8	-0.14060152
78	0xbf105ffa	-0.5639645
79	0x3e611b67	0.2198311
80	0x3ea1cc0c	0.31600988
81	0xbf5ac5a4	-0.85457826
82	0x3ee8b4db	0.45450482
83	0x3f958277	1.168044
84	0x3ef2fc0a	0.47457916
85	0x3f6f5338	0.93486357
86	0xbe4df393	-0.20112447
87	0x3f71d2d3	0.9446232
88	0x3e489234	0.19587022
89	0xbf466b7e	-0.7750777
90	0x3f197761	0.5994778
91	0x3e9034d9	0.2816532
92	0x3ef5f17a	0.48035794
93	0x3e9bd174	0.30433238
94	0xbf14e5bc	-0.58163047
95	0x3f14181e	0.578493
96	0x3e1547cd	0.14578171
97	0xbdf52feb	-0.1197203
98	0x3ede0851	0.4336572
99	0x3f835178	1.0259237
100	0xbe33946b	-0.17537086
101	0x3f2eb2cc	0.6824157
102	0x3ebce7e7	0.36895677
103	0xbe864005	-0.26220718
104	0xbd916693	-0.070996426
105	0xbf40926f	-0.7522344
106	0xbe98afa1	-0.29821494
107	0x3faca90e	1.3489091
108	0x3f25e18d	0.6479729
109	0xbdc6ad21	-0.097009905
110	0xbf3a70c2	-0.72828305
111	0xbd2a2e3a	-0.04154799
112	0xbdf9a875	-0.12190334
113	0xbebfe251	-0.37477353
114	0x3ec02dfa	0.37535077
115	0x3fc3c837	1.5295476
116	0x3f655b47	0.89592403
117	0x3f1d0398	0.6133361
118	0xbeef90f9	-0.46790293
119	0x3f2c1933	0.6722595
120	0x3da96083	0.08270361
121	0xbf39dbda	-0.7260109
122	0xbe61bd45	-0.22044857
123	0x3fc9345c	1.5719104
124	0x3e6f4770	0.23367095
125	0xbd36d6f4	-0.04463859
126	0xbed7a038	-0.42114425
127	0xbc78ef1a	-0.015193725
128	0xbf3dbdf7	-0.7411799
129	0xbec49a43	-0.38398942
130	0x3e66b5e6	0.22530326
131	0xbeeb883d	-0.4600238
132	0x3c91653b	0.017748466
133	0xbeabcef9	-0.33556345
134	0x3e1e5755	0.15463002
135	0xbe488d74	-0.1958521
136	0xbe687b95	-0.22703393
137	0xbe10d09c	-0.14142078
138	0xbc757ee4	-0.014983866
139	0xbf25b0c2	-0.64722836
140	0xbdb5ae63	-0.08871152
141	0x3e04d559	0.1297201
142	0x3e71428f	0.23560546
143	0xbe02f4bc	-0.12788671
144	0x3cbf850d	0.023378873
145	0x3cf8cb65	0.030370424
146	0xbdbf1e5e	-0.09331964
147	0x3fce018b	1.6094221
148	0x3e8b5e07	0.27220175
149	0x3e625379	0.22102155
150	0xbd27766a	-0.040884413
151	0x3e8d068e	0.27544063
152	0x3e72ad56	0.23698935
153	0x3e4a466c	0.19753426
154	0xbea45ffa	-0.32104474
155	0x3ea760c5	0.32691017
156	0x3ef2f14d	0.47449723
157	0x3eabf9b0	0.33588934
158	0xbe957a5b	-0.29194912
159	0x3eda067e	0.42583078
160	0xbd8a3174	-0.06747714
161	0xbef44a9b	-0.4771317
162	0x3c8c0743	0.017093306
163	0x3f55202f	0.83252233
164	0x3f2f5075	0.6848214
165	0x3eb864cc	0.36014402
166	0xbebc346c	-0.36758745
167	0x3d837b5b	0.064200126
168	0xbeb19853	-0.34686527
169	0xbf33ca99	-0.70231014
170	0x3cf0094d	0.02930131
171	0x3fc479f5	1.5349718
172	0x3f56d464	0.8391783
173	0xbdb7bb65	-0.089712895
174	0xbf84da4c	-1.0379119
175	0x3eeecf3f	0.4664249
176	0x3e356316	0.1771358
177	0x3db4f7be	0.088363156
178	0x3d857b36	0.06517641
179	0xbf37bdfe	-0.7177428
180	0xbeb57026	-0.35437125
181	0xbe9c8909	-0.305733
182	0x3f092df6	0.53585756
183	0xbd8012ba	-0.06253572
184	0xbe88be94	-0.267079
185	0xbeae03bc	-0.33987224
186	0x3dba56b6	0.0909857
187	0x3d71b349	0.05900887
188	0x3f2d704e	0.6774949
189	0x3ee22949	0.44172123
190	0x3d42d577	0.047566857
191	0x3e2214be	0.15828225
192	0xbeebe219	-0.46070936
193	0xbf23436c	-0.6377475
194	0x3f27ce35	0.6554902
195	0x3f67b07a	0.90503657
196	0x3f33cfe5	0.70239097
197	0x3e19ef5e	0.15032718
198	0xbdf3584d	-0.118820764
199	0x3f2ee4bb	0.68317765
200	0xbde441d2	-0.11145367
201	0xbec47c2d	-0.3837599
202	0x3e8253f6	0.25454682
203	0x3fd737fb	1.6813959
204	0x3ee737ae	0.45159668
205	0x3ee6f253	0.45106754
206	0xbf4bfc5c	-0.79681945
207	0x3e1f3525	0.15547617
208	0x3e158f17	0.14605366
209	0xbf9a992a	-1.2077992
210	0x3eff7b70	0.49898863
211	0x3f9d6a54	1.2298074
212	0x3f863758	1.048564
213	0x3f2f9b6d	0.68596536
214	0xbf5b799f	-0.85732454
215	0x3e89c716	0.26909703
216	0xbe1af090	-0.1513083
217	0xbf608bf6	-0.87713563
218	0xbd8ad8d3	-0.06779637
219	0x3e96226d	0.2932314
220	0x3f2bf5c9	0.67171913
221	0x3e5b34ef	0.21406911
222	0xbf09ab5c	-0.537771
223	0x3e86768c	0.2626232
224	0xbee8f90a	-0.45502502
225	0xbee3cb94	-0.44491255
226	0x3f0a724d	0.5408066
227	0x402cc24d	2.6993592
228	0x3f1af86a	0.605353
229	0x3d67a3e5	0.056552786
230	0xbf4a2fef	-0.7897939
231	0x3ec8a766	0.39190215
232	0xbf042584	-0.51619744
233	0xbfa11248	-1.2583704
234	0x3c2e70b7	0.0106469905
235	0x3f90a85c	1.1301379
236	0x3fb4337f	1.4078215
237	0x3ebeb1f8	0.37245154
238	0xbf988d04	-1.1918035
239	0x3f90ed2e	1.1322381
240	0xbe6361a0	-0.2220521
241	0xbeff8518	-0.4990623
242	0x3f031c28	0.5121484
243	0x3fc8bdd2	1.5682929
244	0x3e947e60	0.29002666
245	0x3dba5a83	0.09099295
246	0xbf073b4e	-0.52824867
247	0x3d70ec14	0.05881889
248	0x3ccbe453	0.024889147
249	0xbf1815bf	-0.5940818
250	0x3e2be357	0.16785942
251	0x3fa4313b	1.2827524
252	0x3f9ea564	1.2394223
253	0x3e689df7	0.22716509
254	0xbf506a53	-0.8141224
255	0x3ed6498f	0.41852996

bias_ih_l0 f4 [32]
0	0x3fcfb2d7	1.6226453
1	0x3f4913cd	0.7854584
2	0xbfc6a2d1	-1.5518438
3	0x3ecb9b2c	0.39766824
4	0x3efe400a	0.49658233
5	0x3f9c071e	1.2189672
6	0xbec849f5	-0.39118925
7	0x3ffe185e	1.9851186
8	0x3f38b2e0	0.7214794
9	0x3f3c715a	0.7361046
10	0x3f3b822e	0.73245513
11	0x3f4a8115	0.79103214
12	0xbd16f0d3	-0.03685076
13	0xbdbd2fb9	-0.09237618
14	0x3f898295	1.0742975
15	0xbd6aa706	-0.057288192
16	0xbe6b7707	-0.22994624
17	0xbf86193d	-1.0476452
18	0x3f69c630	0.91318035
19	0x3f86da99	1.0535461
20	0x3fb58962	1.4182551
21	0xbe0aa452	-0.13539246
22	0xbf7423f9	-0.9536739
23	0x3f6cd2b5	0.92509013
24	0x400041e1	2.004021
25	0x3f3f77e6	0.74792325
26	0x3f731793	0.94957846
27	0x3f596653	0.8492176
28	0x3e9ffb64	0.31246483
29	0xbd8c7ccf	-0.06859743
30	0x3ed74129	0.420419
31	0x4001339d	2.0187752

bias_hh_l0 f4 [32]
0	0x3fe7109f	1.8051947
1	0x3fa6da23	1.303532
2	0xbfb92405	-1.4464117
3	0x3eb5f0d0	0.35535288
4	0x3f2dbbef	0.6786489
5	0x3f754967	0.9581513
6	0x3e52795b	0.20554106
7	0x40053e43	2.0819252
8	0x3f5ae465	0.8550475
9	0x3f578491	0.84186655
10	0x3f962dac	1.1732688
11	0x3f5c651a	0.8609177
12	0xbdd60e40	-0.10451937
13	0xbe334f82	-0.17510799
14	0x3f529d84	0.822716
15	0x3d1f893b	0.038949233
16	0xbf1b80b8	-0.60743284
17	0xbf859e38	-1.043891
18	0x3f1ed13b	0.6203801
19	0x3fab3c72	1.3377821
20	0x3fadc000	1.3574219
21	0x3d07af3a	0.033126093
22	0xbf4525d0	-0.7701082
23	0x3fa2e23c	1.2725291
24	0x4004efa9	2.0771277
25	0x3ea55b03	0.32296
26	0x3f91b0f6	1.1382129
27	0x3f7f7127	0.9978203
28	0x3f26d25d	0.6516474
29	0x3e39132e	0.18073723
30	0x3e424c40	0.189744
31	0x4008c4c1	2.137009

weight f4 [2, 40]
0	0x40c66179	6.1993985
1	0xc0d02da3	-6.505571
2	0x40cabbd9	6.3354306
3	0x40cc5a51	6.386025
4	0x40cab9a6	6.335162
5	0xc0d031d5	-6.506083
6	0x40c7970a	6.2371874
7	0xc0cda8e2	-6.4268656
8	0xc0cdb79f	-6.4286647
9	0x40cd93cc	6.4242916
10	0xc0cc5e34	-6.3864994
11	0xc0cc93c0	-6.393036
12	0xc0c7a967	-6.239429
13	0xc0cf0717	-6.4696155
14	0x40cc207b	6.378965
15	0x40c9ff58	6.31242
16	0xc0d231a0	-6.5685577
17	0xc0cf0110	-6.4688797
18	0x40ca95b1	6.330773
19	0xc0cb2eba	-6.349454
20	0xc0d17166	-6.5450926
21	0xc0cad74d	-6.338782
22	0x40d116ff	6.534057
23	0x40cd3b46	6.4134855
24	0x40d0f155	6.5294595
25	0xc0ce0e73	-6.439264
26	0xc0cfa988	-6.4894447
27	0xc0c86408	-6.262211
28	0xc0c8e3af	-6.2777934
29	0x40c8da1d	6.276625
30	0x40c74fa1	6.2284703
31	0x40c90dea	6.2829485
32	0xc0c312f0	-6.0960617
33	0xc0cf6585	-6.4811425
34	0x40c74fb6	6.2284803
35	0x40c7f8f7	6.249141
36	0x40d15bfe	6.5424795
37	0x40c6cf31	6.212792
38	0xc0d2b519	-6.5846066
39	0x40c7ae3c	6.240019
40	0x3f14615e	0.5796107
41	0xbff0c687	-1.8810586
42	0xbd9e42bd	-0.07727573
43	0xbf7ae660	-0.98007774
44	0x3ec5073c	0.38482082
45	0x3e5d6af7	0.21622835
46	0x3e7cd408	0.24690259
47	0xbf90a0df	-1.1299094
48	0xc000a0e9	-2.0098212
49	0x3f29af15	0.6628278
50	0xbecc6252	-0.39918762
51	0xbea15549	-0.3151038
52	0xbf8beafa	-1.0931084
53	0xc0229a91	-2.540684
54	0xc0427de4	-3.0389338
55	0x3f9a6bd3	1.2064155
56	0xbfd79e64	-1.6845212
57	0xbf9e8102	-1.238312
58	0x4075f3b0	3.8429985
59	0x3e053d3c	0.1301164
60	0x3f0fdd78	0.5619731
61	0xbdf0e2cb	-0.11762007
62	0x3f5e181e	0.8675555
63	0x3fd5e323	1.6709942
64	0x3fcb6c6e	1.5892465
65	0x3f6bd373	0.9211952
66	0x3ecbd5fb	0.39811692
67	0x3d9bb2b7	0.076024465
68	0x3f24b0df	0.64332384
69	0x3e82cade	0.255454
70	0xbfc76f91	-1.5580922
71	0xbebbeb18	-0.367028
72	0xbf6c9b0e	-0.92424095
73	0xbf923115	-1.1421229
74	0x3f1d2bc4	0.61394906
75	0x3fb2fa3d	1.3982617
76	0x3fa098ff	1.2546691
77	0x3f0577ef	0.5213613
78	0xbfb1e2ff	-1.3897399
79	0x3f59c2e5	0.8506301

bias f4 [2]
0	0x40c9a6c8	6.301609
1	0x3f6c671e	0.92344844
